data/models/1670185025_emnist_course_16_latent_44_clusters.pth (torch, 64019 bytes, 45 tensors)

encoder.model.0.0.weight f4 [8, 1, 3, 3]
000000 78 0f 71 3f 8c c5 a9 3f c0 1c 0c 3f f6 8d 91 3f
       0.9416423 1.3263412 0.5473137 1.1371448
000010 2e 3a 15 40 df bc 44 3f ae a9 02 3f 85 ca 44 3f
       2.331676 0.76850694 0.5104016 0.7687152
000020 33 a8 23 3f c6 cd 53 3f cd a3 f4 3f 8d c4 fd 3f
       0.63928527 0.8273586 1.9112488 1.9825608
000030 d3 5e 0b 3f 03 f6 b3 3d 2b 63 0d 3f 0f 8a 2c bf
       0.54441565 0.087871574 0.55229443 -0.6739816
000040 25 fb e0 bf c6 7b c0 bf c1 4b 9a 3f 6a 35 e5 be
       -1.7576643 -1.5037773 1.2054368 -0.44767314
000050 ca 79 6b bf f7 7d 5c c0 df f1 70 3e 7a df 09 3e
       -0.9198271 -3.4451883 0.23529766 0.13464156
000060 99 3e b1 3f 72 99 0f c0 8b 07 17 3f 70 05 a6 3e
       1.3847228 -2.2437406 0.58995885 0.32426023
000070 21 2e 99 3f 26 c5 a1 3f 17 fe 4f 3e c5 37 82 3e
       1.1967202 1.263829 0.20311771 0.25433174
000080 12 6c 63 c0 74 97 8e be 13 70 54 3d 86 f5 36 be
       -3.553471 -0.27849925 0.051864695 -0.17867097
000090 91 19 3c 3f fc ff 5a 3f 54 88 7d be b5 95 c6 3f
       0.7347651 0.8554685 -0.24759036 1.5514437
0000a0 e8 2c 75 3f 0a 08 cf bf ec 56 a0 3f 92 fd 93 3e
       0.95771646 -1.6174328 1.2526526 0.28904396
0000b0 bd a2 32 c0 6a b2 99 bf bb 94 d3 bd 98 a1 20 bf
       -2.7911828 -1.2007573 -0.103311025 -0.6274657
0000c0 22 55 b5 be 45 4b c5 be 3f 7c 71 bf 7a ad ee bf
       -0.35416514 -0.3853399 -0.9433021 -1.8646691
0000d0 ea 6c 35 bf 87 a0 b4 bf cd e1 fe 3e 82 8e 3c 3c
       -0.70869315 -1.4111489 0.49781647 0.011508586
0000e0 a8 c5 e0 3e 85 6a dd 3f 14 19 e9 be da 2c a7 3d
       0.439008 1.7298132 -0.45526946 0.08162852
0000f0 77 b7 98 3f bd b6 24 c0 b7 fe 87 be 14 fe 2f bf
       1.1930989 -2.5736535 -0.2656152 -0.6874707
000100 85 63 06 3e 87 50 6f 3f 07 7e 2a 3e 83 8c 7c 3f
       0.13123901 0.9348225 0.16649638 0.98651904
000110 54 b1 e2 3f 78 d5 32 3f 6b 0e b5 3f 09 cd d6 3f
       1.7710366 0.6985698 1.4145025 1.6781322

encoder.model.0.1.weight f4 [8]
000000 b4 f3 45 40 f1 19 7e 3f c8 c5 71 3f 37 c1 d8 3e
       3.0929995 0.99258333 0.94442415 0.4233491
000010 da 3e 67 3f 67 07 b5 3f 67 96 02 3f e6 48 14 40
       0.9033028 1.4142884 0.51010746 2.3169494

encoder.model.0.1.bias f4 [8]
000000 b2 83 a9 bf 1a e3 8d bf ab 57 e6 be 92 83 c5 3c
       -1.3243315 -1.1084931 -0.4498876 0.02411059
000010 9f 63 02 bf 28 a9 cb 3f 8a 17 65 be 29 e4 10 bf
       -0.5093326 1.5910997 -0.2237226 -0.56598145

encoder.model.0.1.running_mean f4 [8]
000000 a3 e5 ea 3f da 04 cc 3e b4 81 37 bf d9 5d 16 be
       1.835133 0.3984745 -0.71682286 -0.14684238
000010 2e d3 49 3e 6c 10 c7 bf f5 35 04 3e e4 3c ba 3f
       0.19709465 -1.5551887 0.12911208 1.4549832

encoder.model.0.1.running_var f4 [8]
000000 2c a3 12 41 00 af 07 40 ec 68 0d 40 6f ee 7d 3f
       9.164837 2.1200562 2.209529 0.99191946
000010 2d 92 fe 3f 50 11 c6 40 da 84 53 3f b9 4d c7 40
       1.9888359 6.1896133 0.8262459 6.2282376

encoder.model.1.0.weight f4 [8, 8, 3, 3]
000000 fa 0b 27 bf 33 f0 e1 3e 7f d5 ea 3f 17 0b 1b 3f
       -0.6525265 0.4412857 1.8346404 0.60563797
000010 31 d1 b2 3f 73 62 f1 3f 3e fd dd 3e 22 c1 3d be
       1.397009 1.8858169 0.4335727 -0.18530706
000020 fc ae 3f bf 15 38 93 bf 3e be b9 3f 9f e0 1e bf
       -0.7487638 -1.150149 1.4511182 -0.62061495
000030 a4 a0 b4 3e 3d 22 1e 40 e1 ba 32 40 fd ce 14 bd
       0.3527881 2.4708397 2.7926562 -0.036330212
000040 0a 3c c1 3f 63 8b 94 bf 0d d3 02 3f 75 0d 65 bf
       1.5096447 -1.1605037 0.5110329 -0.8947366
000050 0b 1b 06 c0 84 34 55 3f 69 ff a8 bf ca a2 1d c0
       -2.0954006 0.8328326 -1.3202945 -2.4630609
000060 84 ec 4a be df 93 aa bf ba 1a 28 3f 2d ce 41 be
       -0.19816786 -1.3326377 0.6566578 -0.18926306
000070 b6 7f 20 3c d3 3f c5 3e d2 6f 14 3f 44 af 33 bd
       0.009796074 0.38525257 0.57983124 -0.04386832
000080 55 d5 63 3d f9 56 b9 3f 20 b5 8b 3f a6 fa b0 3f
       0.05562337 1.4479667 1.091465 1.3826492
000090 ce 97 04 3d 8f 40 f5 3e d3 ee a0 3f eb 20 94 be
       0.032371335 0.47900817 1.2572883 -0.28931364
0000a0 ff 0d cc 3f 18 d4 a3 3f 51 13 39 3f ee e2 bd 3e
       1.5941771 1.2799101 0.722951 0.37087196
0000b0 b1 36 37 bf 09 d8 a6 3f a2 33 fd bf 4e b6 86 bf
       -0.7156783 1.3034679 -1.9781382 -1.0524385
0000c0 45 d4 75 3f c2 d8 6b bf 8b 59 da bf e5 c0 a6 3e
       0.9602702 -0.9212762 -1.7058576 0.32569042
0000d0 ec 26 ec be 78 cf eb 3f 6c 61 0d bf a0 aa 15 bf
       -0.46123445 1.842269 -0.5522678 -0.5846348
0000e0 4f 3a c1 be 78 d6 ae 3d bd e2 2e bf 09 55 c6 3c
       -0.37739798 0.085370004 -0.68314725 0.02421047
0000f0 db e6 63 3f bd fe 6a 3f 80 a7 75 3f ba 14 37 bf
       0.8902413 0.9179495 0.9595871 -0.71516
000100 37 11 ce 3f 7b 39 96 3f ab ad 87 3a da 7b 0d 40
       1.6099004 1.1736292 0.001035144 2.2106843
000110 56 7e 88 3f 00 dc de 3d 84 8a 3e 3f ae d3 37 be
       1.0663555 0.108818054 0.7443011 -0.17951843
000120 a2 b7 15 3d 1e 80 0a be 24 d2 6c 3d 15 c1 bc 3c
       0.03655208 -0.13525435 0.057817593 0.023041287
000130 e2 be b2 3f b1 df f5 3f a9 d0 c2 3e a0 bd 03 40
       1.3964503 1.920889 0.3804982 2.0584488
000140 91 37 f8 3f 44 c1 96 3e 2b 74 22 bf 22 e0 12 bf
       1.9391958 0.29444325 -0.6345851 -0.5737325
000150 05 1c 51 3f 03 87 ab be eb 9a 1e bf bf 28 07 3f
       0.8168338 -0.33501443 -0.61955136 0.5279655
000160 e9 43 31 3f 91 d3 7f 3f 3c ff 6a 3f 13 0e e5 3e
       0.6924425 0.999322 0.91795707 0.447373
000170 e0 30 cc be 6d 04 08 bf 15 d2 cc bf 8a 93 4e bf
       -0.3988104 -0.53131753 -1.6001612 -0.80693877
000180 c7 8c ff 3c d3 5b 89 bf 80 a9 c6 bf 1a f3 cd 3d
       0.031195058 -1.0731148 -1.5520477 0.100561336
000190 5b 95 29 bd 03 4f de be 92 15 c8 3e 4e 2b 29 bf
       -0.041402202 -0.43419656 0.39078957 -0.660817
0001a0 c8 97 1f bf 28 fa 4c bd 30 33 06 c0 76 05 62 bf
       -0.62340975 -0.050043255 -2.0968742 -0.8828958
0001b0 7a cd 2a be f6 a2 0e 3e 0a 85 53 be 20 fd 39 be
       -0.16679946 0.13929352 -0.20656219 -0.18162966
0001c0 65 dd de 3d 96 08 c4 3e 5b 39 3a bf ad 17 30 3f
       0.108820714 0.382878 -0.7274377 0.68786126
0001d0 36 a7 66 3f e7 d4 8e 3f 2e b7 cb 3d be 48 a0 be
       0.90098894 1.1158723 0.09947048 -0.31305498
0001e0 e4 f0 21 bf 59 69 b4 bf bb 77 0f bd 12 6e 7d be
       -0.63258195 -1.409465 -0.035026293 -0.2474902
0001f0 83 ef 5c bf b5 b5 f9 bf c0 c3 d8 3e 2e 4a 97 3d
       -0.86302966 -1.9508578 0.42336845 0.073871955
000200 45 f6 86 3d 9a d9 10 bf 10 af 7b bf 42 bc d7 bf
       0.06589941 -0.56582034 -0.98314 -1.6854327
000210 f8 f9 03 bf 71 b8 aa bf 39 cc 9c bf 87 b5 57 be
       -0.515533 -1.3337537 -1.2249824 -0.21065341
000220 b7 67 db ba af c8 91 3e 47 f0 f3 3e 93 e0 0c 40
       -0.0016739283 0.28473422 0.47644255 2.201207
000230 f6 1e b0 3f 4e 59 74 3f 70 08 76 3f c5 87 45 3f
       1.3759449 0.9544877 0.96106625 0.7716029
000240 98 32 f3 bf 9d 97 10 c0 f1 ea ae 3e b9 8b d3 bf
       -1.8999815 -2.2592537 0.3416362 -1.6527015
000250 a0 24 08 c0 85 e9 39 3e c7 41 67 bf 17 72 d0 bf
       -2.1272354 0.18155487 -0.90334743 -1.6284817
000260 76 71 e8 3e 63 72 0a c0 99 ad df bf 85 3a 3e bf
       0.45399064 -2.1632316 -1.7474853 -0.74308044
000270 30 b1 3d bf 99 26 f3 bf 0a 25 88 3d 63 ff f0 bf
       -0.7409849 -1.8996154 0.0664769 -1.8827938
000280 ff 07 aa bf 40 e6 c5 3f e2 d1 01 3f 85 48 53 3f
       -1.328369 1.5460892 0.5071088 0.8253253
000290 da 34 c4 bd a1 d2 c3 3f 9e 82 d6 3f 6c 89 22 be
       -0.09580393 1.5298654 1.6758611 -0.15872735
0002a0 cc 01 6b bd 57 02 0c 3e 6f 2a 97 bf 0a f6 ec 3e
       -0.05737476 0.13672768 -1.1809825 0.46281463
0002b0 e0 60 43 3d 1b 0d e7 3d d4 51 ee 3f 02 8e 99 3f
       0.04769981 0.112817965 1.8618722 1.1996462
0002c0 7c 23 56 bf d3 97 88 3f 82 95 a7 3f c7 49 5c 3e
       -0.83647895 1.0671333 1.3092501 0.21512519
0002d0 2f 02 54 bf a0 d2 c1 be 88 d5 8b 3e d8 af d1 bf
       -0.8281583 -0.37856007 0.2731135 -1.6381788
0002e0 b5 be 57 3e d6 03 e5 3f 2e 59 a7 3c e4 75 3b 3e
       0.21068843 1.7891796 0.020428266 0.1830669
0002f0 8e 26 b1 3f 01 f4 88 3f 54 4e 48 3f e6 91 52 bf
       1.3839891 1.0699464 0.7824452 -0.82253873
000300 ca cd 9a 3f 66 8a dc 3f 6a a8 01 3f e4 8f 55 3d
       1.2094052 1.7229736 0.50647604 0.052139178
000310 6e 62 77 3d 74 c6 80 bf d1 fb f3 3e 89 c0 fd 3f
       0.060396604 -1.0060563 0.47653058 1.9824382
000320 53 6d 5a 3e 8b 2c 02 3f 70 83 cf 3f ae 9c 33 3f
       0.21330766 0.5084922 1.6211987 0.7016095
000330 6b 3d 95 bd c0 f1 0f 3f 55 e5 f8 be 59 8f e4 bf
       -0.07287105 0.56228256 -0.48612466 -1.7856246
000340 f9 71 55 be c5 7d a0 bd 68 23 2f bf c1 85 58 be
       -0.20844258 -0.07836489 -0.684134 -0.21144773
000350 7c 7e 8c 3f 43 27 45 bf 30 a0 55 3f d8 4e c0 3f
       1.09761 -0.77013034 0.8344755 1.5024061
000360 cc 2f d2 3e b2 3f d1 3e b8 3c ae be 96 03 14 bf
       0.4105209 0.40868908 -0.340307 -0.5781797
000370 cf d0 16 3f fb 7f 90 bf d0 05 8c bf 67 8c 6f 3f
       0.58912367 -1.1289057 -1.0939274 0.9357361
000380 e3 c6 be bf 08 7a d9 3d c3 2a 34 bf 94 1d 19 be
       -1.4904445 0.10618979 -0.7037775 -0.1495269
000390 fb 29 e1 bf c4 4f 6b 3e 6e 10 1d be 99 c7 6e be
       -1.7590936 0.22979647 -0.15338299 -0.23318328
0003a0 12 07 67 3f 92 9e a0 bf 49 ef 43 3e f6 5a 2c be
       0.90245163 -1.2548392 0.19134249 -0.16831574
0003b0 a9 2d 69 bf d7 e8 c7 3e 75 97 0f c0 bb 7a 69 bf
       -0.91085297 0.3904483 -2.2436192 -0.91202897
0003c0 74 98 8d 3f 0f 81 84 c0 95 89 08 3e 36 6b c5 3e
       1.106215 -4.140754 0.13333733 0.38558358
0003d0 eb aa b1 3e da fd 13 3d 2d ee 12 3e d2 3f 1d bf
       0.34700713 0.036130764 0.1434867 -0.6142551
0003e0 13 80 c6 3f 6c 64 0f bf 18 4f eb 3f 94 87 5f 3f
       1.5507835 -0.56012607 1.8383512 0.8731625
0003f0 03 7b d2 3e a6 15 b0 3f 36 17 eb 3e 46 1a 7c 3f
       0.41109475 1.3756607 0.45916146 0.9847759

encoder.model.1.1.weight f4 [8]
000000 41 25 aa 3f ca 09 fb 3f 12 d9 d8 3f 9d 28 66 3f
       1.3292619 1.9612362 1.6941245 0.8990572
000010 3b d2 30 40 5b 98 af 3f 4b 0b 8b 3f c5 03 9c 3f
       2.7628314 1.371837 1.0862821 1.218865

encoder.model.1.1.bias f4 [8]
000000 4f f6 8c 3e 4d 31 84 3f 13 ab 8b 3f 50 ad 50 bf
       0.2753167 1.0327545 1.0911583 -0.81514454
000010 6c d5 87 3f 04 3e 23 3f 8a 60 19 be 64 48 6e be
       1.0612006 0.63766503 -0.14978233 -0.23269802

encoder.model.1.1.running_mean f4 [8]
000000 c3 6f eb 40 8b c7 42 40 64 89 2a c0 43 0d 30 c1
       7.357393 3.0434291 -2.6646357 -11.003238
000010 f0 d5 04 c0 9b 3a 6b 41 ec 3f f6 c0 8b ea 6d be
       -2.0755577 14.701808 -7.695303 -0.23234002

encoder.model.1.1.running_var f4 [8]
000000 76 f1 f0 43 b4 48 1f 44 86 63 ed 43 d9 ae ec 42
       481.8864 637.136 474.77753 118.3415
000010 20 45 7f 44 34 ab 00 44 b6 ab 79 43 d0 25 6d 43
       1021.0801 514.67505 249.67075 237.1477

encoder.model.2.0.weight f4 [16, 8, 3, 3]
000000 d1 ce 00 c0 05 58 68 bf 8e a1 49 3e 01 54 b4 bf
       -2.012623 -0.9075931 0.19690534 -1.4088136
000010 bf 42 bf bf 9e 55 a4 bd aa 7e 00 3d bc 67 00 40
       -1.4942244 -0.08024143 0.031370796 2.0063314
000020 17 28 9a 3f 7a b2 d1 bf 18 00 23 3f ec 6d c5 be
       1.2043484 -1.6382592 0.6367202 -0.38560426
000030 f9 06 34 3e d7 fb 7b be 4c 0d f0 3d 99 22 12 bf
       0.17580785 -0.24607788 0.11721286 -0.5708404
000040 e2 e2 a6 3f 50 1f 99 3f e1 12 50 3d 04 ba 9f 3f
       1.3037989 1.1962681 0.050799254 1.2478642
000050 a2 75 0a 3f 24 04 83 3e b4 a9 55 3e f4 16 75 3f
       0.54085743 0.25589097 0.20865518 0.9573815
000060 d5 94 2d bf 21 66 79 bf 7a eb f1 bf df ed 02 bf
       -0.67805225 -0.9742146 -1.8899987 -0.5114421
000070 0b 61 2a 3f 5f ab 98 3f 08 7e e9 3f 9f b3 e0 be
       0.66554326 1.1927298 1.8241587 -0.4388704
000080 46 22 af bf 53 81 12 be 55 ea 3d bf ab 34 54 bf
       -1.3682334 -0.14307146 -0.7418569 -0.82892865
000090 19 ac 88 be a9 ba e2 bd 57 f8 e6 bd fc 1b 8e bf
       -0.266938 -0.11070759 -0.11277836 -1.110229
0000a0 fb 8c 32 40 3a 75 23 3f 3e 08 b3 be 6a 56 73 bf
       2.7898548 0.6385075 -0.34967226 -0.9505373
0000b0 29 67 37 bf d8 76 14 40 41 5b 7d bf 5e 0b 13 bf
       -0.71641785 2.3197536 -0.9896737 -0.5743922
0000c0 fe 62 01 bf 36 72 4b bf bd c1 58 bf e9 74 27 3f
       -0.50541675 -0.7947115 -0.8467062 0.65412766
0000d0 a7 87 8d 3f 5d 06 06 40 9c 1c 96 bd e4 34 80 bf
       1.1057023 2.0941384 -0.073296756 -1.0016141
0000e0 d8 b2 aa 3f 97 4f e8 3f c3 7e 07 bf a9 af 75 3e
       1.3335829 1.8149289 -0.529278 0.2399279
0000f0 75 6f 65 bf 5d 5f 4e 3e 41 7d 0c c0 0c 96 27 3f
       -0.89623195 0.20153566 -2.195145 0.6546333
000100 7b 3b cf 3f fb 9a 59 bf d3 86 98 3f 13 1f ff 3e
       1.6190027 -0.85002106 1.1916145 0.49828395
000110 39 21 a3 bf 20 a8 98 3e e2 75 77 bf a0 86 cd bd
       -1.2744514 0.2981577 -0.9666425 -0.10035443
000120 cf bb a0 3e 88 5f a3 3f 83 96 f6 3d 23 0d f9 3e
       0.31393287 1.2763529 0.120404266 0.48642835
000130 77 c7 e6 3d 34 84 09 bf 69 1a 8e bf 0f 37 1b c0
       0.11268514 -0.5371735 -1.110181 -2.4252355
000140 da 37 64 be 91 cf 09 3f 57 f3 5e bf d0 8a 6d 3f
       -0.2228693 0.53832346 -0.8709006 0.92789936
000150 88 e1 66 3d df 8f 00 3f 48 c5 4b bf 43 b7 1d bf
       0.056367427 0.5021953 -0.795979 -0.6160776
000160 aa ae d1 bf a1 60 98 be 3d f0 00 3f 1a 1c 3d be
       -1.6381428 -0.29761222 0.50366575 -0.18467751
000170 2e 1a 98 bf b5 b2 cf be 90 63 27 3f fb aa 47 3f
       -1.188299 -0.4056603 0.65386295 0.7799527
000180 94 48 f2 3e df 16 cf 3f ba f8 a7 3e 1a f9 de be
       0.47320998 1.6178855 0.3280695 -0.43549424
000190 22 b7 4d 3f d5 2e 8f 3f a7 9f e0 be e2 53 03 c0
       0.80357563 1.1186167 -0.43871805 -2.0519948
0001a0 1d 9c 46 bf d3 10 61 3f d8 2b 3c be 62 e1 5b 3f
       -0.7758196 0.87916297 -0.183761 0.8589078
0001b0 ee 27 15 bf 7e 10 82 be ef 98 e3 bf 00 d2 e1 3e
       -0.5826405 -0.25403208 -1.7781047 0.4410553
0001c0 b2 ce 32 40 9a c7 19 40 12 6f 24 3f f3 89 32 3e
       2.7938657 2.4028077 0.6423198 0.17435436
0001d0 79 67 aa be 8d 00 c0 be 67 87 dc be 19 f8 bf 3e
       -0.33282068 -0.3750042 -0.43072054 0.3749397
0001e0 82 71 76 bf 71 45 d6 bf 7c 75 34 bf db c5 21 c0
       -0.9626695 -1.6739942 -0.70491767 -2.5277011
0001f0 76 d4 d7 bc 9b e3 a6 bf cf a0 1e be 2f 6f 26 bf
       -0.026346426 -1.303821 -0.15491031 -0.650134
000200 de 8e f6 bf 81 df 54 bf 2f 86 15 bf 30 d7 4a bd
       -1.926235 -0.8315354 -0.5840787 -0.049521625
000210 c6 3c 9e 3f 9e 10 c4 bd 7d f1 87 3f d4 8d 81 3f
       1.2362297 -0.09573482 1.0620571 1.0121408
000220 d2 49 90 3f 5c f9 80 3f 0a cd 68 3f 9b 09 33 3f
       1.1272528 1.0076098 0.90937865 0.6993653
000230 61 fd 01 bf 13 19 4e bd 2b b7 28 bf 97 8e 07 3f
       -0.5077725 -0.05031688 -0.6590449 0.5295195
000240 b1 af b4 3f 9b b9 a0 3e a8 45 d1 3f 8e 17 90 3e
       1.4116117 0.31391606 1.6349382 0.2814297
000250 75 39 23 bf 6c 61 e8 be 82 1c a8 bf da ab 84 3e
       -0.6375955 -0.45386827 -1.31337 0.25912362
000260 45 80 80 be 5a 2d 5f bf 93 55 8b bf b3 07 ef 3e
       -0.25097862 -0.87178576 -1.088549 0.46685562
000270 d5 cf 8f bf 31 34 05 bf 37 14 0f bf d4 f7 1a c0
       -1.12353 -0.5203276 -0.5589022 -2.4213762
000280 a0 f1 7e bf 12 71 3a bf 0c 36 cd be 8b f5 09 40
       -0.9958744 -0.7282878 -0.40080297 2.1556118
000290 0a 96 6c bf 9f 04 d8 bc ef e3 15 40 51 27 45 c0
       -0.9241644 -0.026369391 2.342037 -3.0805247
0002a0 29 10 b4 3f 7c b7 01 40 fc 90 cc 3e 1a 76 25 c0
       1.4067432 2.026824 0.39954364 -2.5853333
0002b0 9c 53 95 3f a0 d8 44 3e 0e ef 41 3d 24 7d e5 3f
       1.166614 0.19223261 0.04734712 1.7928815
0002c0 f4 2d 96 3f da 46 8f be 58 9c 9d 3f 74 32 59 3f
       1.1732774 -0.27983743 1.2313337 0.8484261
0002d0 32 18 b9 3f f1 e3 1f 3f 29 cc 34 bf d2 01 91 3f
       1.4460509 0.62457186 -0.70624024 1.132868
0002e0 4d 70 19 3f 31 74 b2 bf 89 3f 21 3f 79 6c 1b bf
       0.5993698 -1.3941709 0.6298757 -0.6071239
0002f0 d4 25 58 bd dc be e5 3f f5 f7 af 3e c5 8d 86 3f
       -0.05277045 1.7948871 0.34368864 1.0512015
000300 02 ec ff 3e 2e 1e 87 bf 0b 28 4c 3f 6b 9a ab 3e
       0.49984747 -1.0556085 0.797486 0.3351625
000310 12 b5 02 bf 04 0b 43 3f 5d ca 1b be b0 70 ee bf
       -0.5105754 0.76188684 -0.15213914 -1.862814
000320 ea 25 84 3f 30 21 d8 bf 9c 33 d7 3e 1f 7c 73 3f
       1.032407 -1.6885128 0.42031562 0.9511127
000330 c8 2d 12 bf ec 2e d7 3f 70 22 86 3f 5a c1 4a be
       -0.57101107 1.6811194 1.047926 -0.1980032
000340 8a 85 88 be 0d c4 6e 3f ea 35 3e 3e 39 5a 8c bf
       -0.26664382 0.932679 0.18575254 -1.0965034
000350 b9 70 b4 be 57 76 9b 3f 7b 76 5d 3a 9f 81 fe be
       -0.3524225 1.214549 0.0008448136 -0.49708268
000360 a1 d0 eb bd 85 22 a2 3e 1d 7d 97 bd b6 90 8d 3f
       -0.11514402 0.3166696 -0.0739691 1.1059787
000370 c3 73 2b 3f ec bc 27 bf 67 8f 40 3e 62 4c d6 bd
       0.66973513 -0.65522647 0.18804704 -0.104637876
000380 6e 8f 40 bf 40 73 48 3e f1 79 9f 3f 35 9f d9 3f
       -0.75218856 0.19575214 1.2459089 1.7001711
000390 83 80 36 3f b5 7f 7e bf ea 00 51 c0 38 92 88 be
       0.71289843 -0.99413615 -3.2656808 -0.26674056
0003a0 03 dc 68 bf 8d 6b a6 3d c6 94 6a 3d 6c 79 42 3f
       -0.9096071 0.081259824 0.057270788 0.75966525
0003b0 f3 ca 27 be 48 d9 9b be 18 14 f3 bf ad f4 02 c0
       -0.16386013 -0.3043921 -1.8990507 -2.0461838
0003c0 d3 2a 5b 3e 80 e2 b0 3f 53 3f 64 3f 34 63 92 3e
       0.21403055 1.3819122 0.89159125 0.2859131
0003d0 a0 02 18 3f c8 4f 0d be 7a cc c5 3f f8 af b4 bd
       0.59379005 -0.13799965 1.5453026 -0.08822626
0003e0 42 2d 3a be 4d 40 38 3f c3 d9 a3 3f 8e 31 0c bc
       -0.18181327 0.71973115 1.2800831 -0.008556737
0003f0 43 2d 93 3f 4d dd aa 3e 33 17 50 be d0 9f 67 be
       1.1498188 0.33371964 -0.2032135 -0.22619557

encoder.model.2.1.weight f4 [16]
000000 d9 5f 99 3f 16 7d 11 40 5f 5c bb 3f 5d 1f ac 3f
       1.1982375 2.2732596 1.4637564 1.3447071
000010 42 13 92 3f c3 a3 d4 3f fb dc 15 40 7d 9a ac 3f
       1.1412127 1.6612476 2.3416126 1.3484646
000020 6c 8c 26 40 fc 66 d6 3f 01 f5 86 3f df 14 9b 3f
       2.6023207 1.6750178 1.0543519 1.2115744
000030 a0 87 0d 40 2e 97 bc 3f be 9d 11 40 d7 3b dc 3f
       2.211403 1.4733636 2.2752528 1.7205762

encoder.model.2.1.bias f4 [16]
000000 de 84 a9 3e 51 2a 22 3f 55 13 47 3e a2 dd 64 3e
       0.33109182 0.6334582 0.19440968 0.22350171
000010 6a 98 03 3e 8d db b4 be 15 e6 df 3e 70 b1 b8 3e
       0.1285111 -0.35323754 0.43730226 0.36072874
000020 99 5e 81 3f 93 88 51 be ed 9b 48 3e 15 af d1 bd
       1.0106994 -0.20462255 0.19590731 -0.10238472
000030 04 5e 4c bf 44 f4 e7 3e c8 97 b6 3d 83 c5 25 3f
       -0.79830956 0.45303547 0.08915669 0.64754504

encoder.model.2.1.running_mean f4 [16]
000000 ce 5d b9 bf ce cc 15 40 09 5f 7f bc 27 a2 03 c0
       -1.4481752 2.3406253 -0.015586623 -2.056772
000010 66 ed 3f c1 6a 77 43 41 9f d6 28 c1 ef 1e 20 c0
       -11.995459 12.216654 -10.552398 -2.501888
000020 2a 54 84 40 94 9d 43 c1 78 c1 60 c0 06 4d 40 3f
       4.135274 -12.225971 -3.5118084 0.7511753
000030 a0 fb 7a 40 c7 e3 ee bf 75 d6 83 c1 e1 ed 24 3f
       3.921608 -1.8663262 -16.479715 0.64425474

encoder.model.2.1.running_var f4 [16]
000000 f5 7d 36 43 33 c3 ad 43 32 01 43 43 49 0a 54 43
       182.49202 347.525 195.00467 212.04018
000010 a2 1d f5 42 08 47 75 43 28 15 d9 43 4e 4b 53 43
       122.55788 245.27747 434.16528 211.29416
000020 1b 84 07 44 df 1c 88 43 99 0d 2f 43 2b 8e 30 43
       542.06415 272.22556 175.05312 176.55534
000030 ff bd bc 43 dd 81 67 43 08 c1 a9 43 65 80 f1 43
       377.48434 231.50728 339.50806 483.00308

encoder.model.3.0.weight f4 [16, 16, 3, 3]
000000 dd bd ea bf bb d6 91 be eb ee 21 bf 2e e3 b7 3f
       -1.8339192 -0.2848414 -0.63255185 1.4366205
000010 ef be 94 bf 45 3a a5 bf 28 b7 d8 bf 5f a7 5c bf
       -1.1620768 -1.2908407 -1.6930895 -0.8619289
000020 e3 e0 ac be 2a 65 56 3d 79 88 2a bf f7 91 92 3d
       -0.33765325 0.05234257 -0.6661449 0.07156747
000030 a6 6a 95 3e 3d 1e d0 3e df 8e 0d be 39 07 27 3f
       0.2918293 0.4064807 -0.13824032 0.65245396
000040 2a e5 36 bf 9e eb 21 be a4 af 20 3f 0e eb 5e c0
       -0.71443427 -0.15812537 0.62768006 -3.4830966
000050 78 a3 09 c0 a7 36 44 bf 23 2d bf bf 1d 58 97 3f
       -2.1506023 -0.7664589 -1.493565 1.1823765
000060 97 17 b3 3f 0e b0 31 3e 0d bf 67 bf 4f 30 ca 3f
       1.3991574 0.17352316 -0.90525895 1.5795993
000070 93 99 7f bf 6a c0 2b c0 66 50 61 bf d3 b9 8b bf
       -0.9984371 -2.683619 -0.88013303 -1.0916084
000080 7b d8 09 3f 2b 07 a8 3c a0 b4 a9 3f a3 a4 21 be
       0.5384595 0.02051123 1.3258247 -0.1578546
000090 c5 b1 22 c1 e2 8a 3f 40 4f bb 74 bf 21 a6 96 bf
       -10.168401 2.9928517 -0.9559831 -1.1769449
0000a0 40 2a d0 3e 34 4e 84 bc 03 22 2b 3f a9 13 47 bf
       0.40657234 -0.016150571 0.6684877 -0.77764374
0000b0 4c ea bd 3e 50 2c 16 40 07 37 80 bf 99 d1 33 bf
       0.37092817 2.3464546 -1.0016793 -0.70241696
0000c0 4a b9 31 40 e7 c0 6d bf 13 74 c0 bf 96 d8 4d 3e
       2.7769341 -0.9287247 -1.5035423 0.20102152
0000d0 cc d4 08 40 bf 20 3a bf df cf 83 be 67 e5 a2 bd
       2.137988 -0.72706217 -0.2574453 -0.07953911
0000e0 e9 ab bb bf 4f 6f 79 3f 22 9d 35 3e a6 11 80 3e
       -1.4661838 0.9743547 0.17735723 0.25013465
0000f0 06 2d 95 bf f0 b1 35 bf db 87 07 3f c7 0a de 3f
       -1.1654365 -0.70974636 0.52941674 1.7347039
000100 22 69 ec 3e 7c 2b df 3f 87 09 0d bf 2b 62 d0 3e
       0.4617396 1.7435145 -0.5509266 0.40699896
000110 f6 ef 8a 3e 29 23 e1 bc e1 7e d1 be 6f 17 bc 3e
       0.271362 -0.027482586 -0.40917113 0.36736628
000120 50 c0 96 3f c3 e9 14 c0 ab cc 21 bf e2 1d 10 bf
       1.1777439 -2.3267677 -0.63202924 -0.562956
000130 0b f3 8f bf 42 5a 46 bc 07 92 6f bf 67 f9 9c bf
       -1.1246046 -0.01210648 -0.93582195 -1.2263612
000140 03 7d 26 bc fb 8a e1 bf 39 f4 80 bc d6 00 00 c0
       -0.010161641 -1.7620538 -0.015741454 -2.000051
000150 3d 89 08 bf d0 51 2a 3f 9d 82 3f 3f d5 b5 c6 3e
       -0.5333441 0.66531086 0.74808675 0.38810602
000160 e4 89 b0 bf 1f 1b 00 3f 7e 55 39 bf d2 ac 0d be
       -1.3792081 0.50041384 -0.72396076 -0.13835457
000170 11 b8 ac bd 0e f9 70 3f b0 75 bd bf f2 74 82 bf
       -0.084335454 0.9413003 -1.480154 -1.0191939
000180 58 33 83 3f fe 6d cf be c3 b3 35 bf ad 3f 47 bf
       1.0250044 -0.40513605 -0.7097742 -0.77831537
000190 4e 4e 46 c0 50 fc 0f 3f f0 76 8f 3e 67 58 c9 3f
       -3.0985293 0.56244373 0.2802043 1.5730103
0001a0 37 5c 63 bf d7 8e 1b c0 d5 aa be 3f 33 7c 7b 3e
       -0.88812584 -2.4305933 1.4895884 0.24559097
0001b0 1f d2 f4 3c 83 65 5a 3f fb 64 9c bf e4 63 1c 3e
       0.02988535 0.85311145 -1.2218317 0.1527248
0001c0 3d 25 a5 be 02 d3 94 bf 55 9a 5a 3e c2 4a 08 3f
       -0.32254973 -1.1626894 0.21347935 0.5323907
0001d0 ac 21 af be b4 31 57 bf da 45 09 40 6f c9 1b 40
       -0.34205377 -0.84060216 2.1448884 2.4341695
0001e0 40 11 e8 3e d0 32 d1 be 68 38 2f 3f 40 9c 09 c0
       0.4532566 -0.4085908 0.68445444 -2.1501617
0001f0 eb 67 29 3f 5c 36 00 c0 04 25 d3 3f 57 e7 40 3f
       0.6617419 -2.0033178 1.6495671 0.75352997
000200 c7 3d 00 3f 1b 77 48 3f 13 8f c1 3f 02 cb f7 3e
       0.50094265 0.7830674 1.5121788 0.4839707
000210 92 4c 22 bf eb a2 a2 3e b0 af a5 3f c7 84 22 3f
       -0.6339809 0.31764922 1.294424 0.6348385
000220 a4 b6 16 c0 ee 57 57 3f 6a 04 df bd 53 01 dd 3f
       -2.3548975 0.84118545 -0.10889514 1.7266029
000230 85 b7 b0 3e 76 08 00 3f 96 72 88 bf ca f9 8d 3f
       0.34515014 0.5001291 -1.0659969 1.1091855
000240 64 cc be be d9 0a d6 3f 3f fc 11 c0 82 65 25 3f
       -0.37265313 1.672206 -2.2810209 0.64608014
000250 b8 a2 65 bf 91 a1 0e 3f 09 42 ca 3c ee 0f 25 bf
       -0.89701414 0.5571528 0.024689691 -0.6447743
000260 f3 c5 99 bd 2a a4 a2 3e e1 31 02 c0 2c ed a6 3f
       -0.07508459 0.31765872 -2.0342944 1.3041129
000270 4a 80 98 3f db 1b 85 be 5c bc 8c 3f 39 1b e5 3e
       1.1914151 -0.25997815 1.0994983 0.44747332
000280 de c5 c2 be 89 25 73 bf e2 3b fd 3d 15 ed 32 3f
       -0.38041586 -0.9497915 0.12364937 0.6989301
000290 83 a6 dd 3f 43 3c 85 3f 3e 6b 3d 3e 7e d7 28 40
       1.731644 1.0409015 0.18497941 2.6381526
0002a0 84 02 49 bd 15 9b 4e 3f ad a3 9d bf 1d e6 1e 3f
       -0.049074665 0.80705386 -1.2315575 0.62069875
0002b0 35 34 c6 3d de 3b 91 3f 76 da 9f 3e 88 d7 36 bf
       0.096779265 1.1346395 0.3122136 -0.71422625
0002c0 b9 6f f0 3e a1 34 62 be 1e 2c 33 bf bc 29 6e 3e
       0.46960238 -0.22090389 -0.6998919 0.23258108
0002d0 55 05 9f 3f ab 57 0c bf d7 0e 81 be 4b 5f ab 3d
       1.2423502 -0.5482127 -0.25206634 0.08367785
0002e0 a0 50 0b bd 3e 6d d4 3d 38 fd 66 3c d8 06 cc bd
       -0.034012437 0.10372399 0.014098458 -0.09962243
0002f0 43 35 0d c0 f7 60 04 bf 0e 94 aa 3e d1 82 47 3f
       -2.2063758 -0.51710457 0.33316082 0.77933985
000300 cd c2 27 bf 4e ff 0e bf d5 7d 36 3c f6 2d 01 3f
       -0.6553162 -0.55858314 0.011138399 0.50460756
000310 67 cd 9a be e2 91 38 3f 31 05 98 3d 9f 54 86 bf
       -0.30234835 0.720976 0.07422865 -1.0494574
000320 e5 dc b1 bf 69 61 cc be e1 3e 3d 3e e1 2a f4 be
       -1.3895537 -0.39918068 0.18481018 -0.47688964
000330 18 c5 65 3e 4e 46 1c 3e 63 01 dd bd e7 2e ae 3f
       0.22438467 0.15261194 -0.1079128 1.3608063
000340 55 e3 10 40 d3 a0 c2 3f b9 87 1b bf 82 fa 35 c0
       2.2638752 1.520533 -0.6075397 -2.8434148
000350 88 d3 ba 3f 51 70 9a be da bb c9 3f e1 12 a9 3e
       1.4595804 -0.30163816 1.5760453 0.33022216
000360 fb 8a 97 bf 49 1b 71 bf 84 51 35 3e c3 4b 57 bf
       -1.1839288 -0.9418226 0.17706877 -0.8409998
000370 fd 92 b8 3f 8c f7 e0 3f aa d3 d5 3d 75 e5 81 3e
       1.4419857 1.7575545 0.10440762 0.25370374
000380 a9 c1 3e bd c9 1a c6 3f 3f 93 2a 3d 88 a1 d7 bf
       -0.046571407 1.5476924 0.04164433 -1.684617
000390 73 c5 07 3f dd 8b aa bf 8b 98 1b bf 77 4a cf bd
       0.5303566 -1.3323933 -0.6077964 -0.10121625
0003a0 24 8a 99 3f 5b 59 1f c0 4e eb 55 bf 83 ba 87 3f
       1.1995282 -2.4898288 -0.8356217 1.0603794
0003b0 88 9f a4 3e 38 5d 98 be 4c e5 0e 40 db 0b 6a bf
       0.32152963 -0.2975862 2.2327452 -0.9142434
0003c0 83 f9 31 3f 47 4d 32 be 1a 05 82 3f 08 69 97 bf
       0.6952135 -0.17412291 1.0157807 -1.1828928
0003d0 2b fe 40 bf 2f 64 06 bf fe fa 25 40 40 47 ae 3f
       -0.7538783 -0.5249662 2.5934443 1.3615494
0003e0 a5 e6 83 3f e2 44 ce 3f e4 58 96 bf 50 4e c1 bf
       1.0304762 1.6114771 -1.1745877 -1.5102024
0003f0 2b 25 74 3f 78 7a 9f 3e 08 63 32 3f 62 19 ab 3d
       0.95369214 0.31148124 0.6968236 0.08354451

encoder.model.3.1.weight f4 [16]
000000 c3 61 41 3e 71 03 61 3e 50 0b 58 3e 16 83 18 3e
       0.1888495 0.21973969 0.21098065 0.14893755
000010 ad f7 93 3e bb 0f 25 3e c0 dd 33 3e 65 ec 27 3e
       0.288999 0.16119282 0.1756506 0.16398771
000020 29 a3 2e 3e 28 39 5d 3e 11 c9 46 3e bd d6 a0 3e
       0.17054428 0.21603835 0.19412638 0.31413832
000030 00 ab 5b 3e c4 51 18 3e a9 e8 35 3e 40 83 77 3e
       0.2145195 0.14874941 0.17764534 0.24171162

encoder.model.3.1.bias f4 [16]
000000 23 0e 9d bd 70 15 94 bd a2 d8 98 bd 35 32 7e 3c
       -0.07668712 -0.072306514 -0.074631944 0.0155149
000010 ed fa 01 be 81 ff 5e bc 76 f4 06 bd 1f c6 63 3d
       -0.12693377 -0.013610722 -0.03294798 0.055608865
000020 44 c0 b0 bc 61 7a fa 3c 3b 7b 30 bd 1f 02 c5 bd
       -0.021576054 0.030575933 -0.04308627 -0.09619545
000030 7a 14 3b bd 01 d5 9f 3d 07 f3 1f bd ac 87 c9 3c
       -0.045673825 0.07804299 -0.03905013 0.024600826

encoder.model.3.1.running_mean f4 [16]
000000 fc d6 46 c1 a1 28 39 c0 c2 1c 94 40 5e 28 01 c1
       -12.427486 -2.8931048 4.6285105 -8.072355
000010 ba 29 16 c1 8d 4f 94 40 bd 1d a9 be b5 14 17 40
       -9.385187 4.634711 -0.330305 2.3606389
000020 87 25 c9 41 88 3f 44 c1 a5 ff e3 40 1d 11 a4 41
       25.143324 -12.265511 7.1249566 20.508356
000030 e0 a8 3a 3f b8 49 8b 41 79 ad 21 c1 03 6c 7b c0
       0.7291393 17.410995 -10.104852 -3.9284675

encoder.model.3.1.running_var f4 [16]
000000 a4 c3 29 43 5d 1e 2a 43 50 6c 2b 43 54 80 b7 42
       169.76422 170.1186 171.4231 91.75064
000010 cc 50 77 43 2d e2 22 43 9d 28 59 43 43 31 3a 43
       247.31561 162.8835 217.15865 186.19243
000020 c9 41 82 43 78 49 c8 43 85 82 31 43 0f 62 14 44
       260.51395 400.57397 177.50984 593.53217
000030 07 0d 5d 43 2b 8b 8c 43 fb 64 e2 42 26 dd bf 43
       221.05089 281.08725 113.19723 383.72772

encoder.fc.0.weight f4 [16, 64]
000000 0f c8 7a bd e2 e3 78 3f 9e 31 be be f8 c2 92 be
       -0.061225947 0.9722272 -0.3714723 -0.28664374
000010 59 89 9b bd 25 fe 53 3e cc d3 ab bd c5 2f 55 3e
       -0.07594556 0.20702417 -0.083900064 0.20819004
000020 e1 96 46 3e 02 4f ab 3e d4 56 3b 3e 72 bb b4 be
       0.19393493 0.33458716 0.18294841 -0.3529926
000030 08 a2 10 3f 73 67 71 3e 39 1e b2 bd 40 5e ad bc
       0.5649724 0.23574619 -0.08697171 -0.021163106
000040 2c d0 a8 3f 1f f3 91 bd 82 bd 1d 3f b5 44 8f 3d
       1.3188529 -0.0712645 0.6161729 0.06995527
000050 1b 8d f8 40 d0 aa b7 3e 82 75 61 be ed e6 7f be
       7.767225 0.35872507 -0.22017482 -0.24990435
000060 fb e1 a8 bf 52 ef 19 3e 27 9c 83 3e 22 e4 18 be
       -1.3193964 0.150327 0.25705072 -0.14930776
000070 24 a7 84 3e 02 a7 ca bd e7 19 01 3f 64 d6 c9 be
       0.25908768 -0.098951355 0.5043015 -0.3942138
000080 c1 7d 5e bf 21 cb 90 bf c9 b7 36 40 e7 25 9a 3c
       -0.86910635 -1.131199 2.8549674 0.018816901
000090 8e b7 81 3b d3 60 ed 3e 43 7e 8d be c5 a4 ed 3d
       0.003958649 0.46362934 -0.27635393 0.11603693
0000a0 89 4e 69 3e 25 fa 7c 3e 87 fd d4 3e ef 62 97 3e
       0.22783865 0.24704798 0.41599676 0.29567668
0000b0 ef 51 6f 3e 62 af 32 bf d3 49 90 be 13 66 0a bf
       0.23371099 -0.6979886 -0.28181323 -0.54062
0000c0 bf 16 20 c0 a6 7f 00 3f 1d d9 42 bc f1 a3 dd 3c
       -2.5013883 0.50194776 -0.011892584 0.027055712
0000d0 ea b0 c9 bf f3 39 6c bd 67 36 21 bf 92 b7 42 3f
       -1.5757115 -0.057672452 -0.62973636 0.76061356
0000e0 77 cc 85 3e 52 a7 5d bf cb 9b cf be a4 a6 92 3e
       0.26132557 -0.86583436 -0.40548548 0.28642762
0000f0 b5 4b d8 bf 1c aa 80 3c c6 26 85 3e 9c e2 01 bf
       -1.6898104 0.015706114 0.26006144 -0.50736403
000100 06 60 01 be 44 71 53 3d 7c 58 d7 bf 40 e6 0f bf
       -0.12634286 0.05162169 -1.6823878 -0.5621071
000110 ea 4b 16 be 5f 90 cf be 05 e6 b4 3c 69 db 49 bf
       -0.14677396 -0.40539834 0.022082338 -0.7885042
000120 77 27 94 3d 93 ef af bd 83 dd 4f 3f 49 59 24 bd
       0.0723409 -0.08590617 0.81197375 -0.04012421
000130 b2 91 34 bf 1e c9 1e 3f e6 18 4f bf 87 cc 25 bc
       -0.70534813 0.6202563 -0.80897367 -0.010119564
000140 38 b8 a7 3e 2b 88 cc 3e be 12 17 3e a9 bd 4c bf
       0.32757735 0.39947638 0.14753243 -0.799769
000150 2c f2 01 c0 a6 a8 62 3f 69 6f 8a be e9 2a 36 bf
       -2.030406 0.8853859 -0.27038124 -0.71159226
000160 0f e8 2b bd 72 19 84 be f6 be 28 bd 0e c1 43 be
       -0.041969355 -0.25800663 -0.04119774 -0.19116613
000170 85 a7 42 3e 4a 8b d9 be 34 bc 97 3e 04 c4 90 be
       0.19009216 -0.42489082 0.29635775 -0.28274548
000180 48 08 95 be 68 41 67 bf e3 b7 85 3f d5 a1 82 3f
       -0.2910788 -0.90334177 1.0446743 1.0205637
000190 99 f4 d1 be 99 9e 08 bf cb c1 07 bf b3 46 05 3e
       -0.41006926 -0.53367 -0.5303008 0.13015251
0001a0 12 b7 b6 be 36 27 68 bf a4 6d af bf d7 09 4b 3e
       -0.35686547 -0.9068483 -1.3705335 0.19827972
0001b0 5d 00 f4 be 7b 24 a7 bd 94 a2 db be 14 29 95 3e
       -0.47656527 -0.08161255 -0.42897475 0.29132903
0001c0 14 45 ab bf ea 8b 65 bf a4 54 ce 3e 3e 57 51 3e
       -1.3380456 -0.89666617 0.4029895 0.20443437
0001d0 17 f9 17 3f 67 89 80 bf 3b 00 25 bf ff 75 96 3e
       0.59364456 -1.0041932 -0.64453477 0.293869
0001e0 ae 5b ea be a4 57 f7 3e 45 0f 12 3f 82 26 a2 3f
       -0.4577307 0.48309052 0.5705455 1.2668002
0001f0 17 32 aa bf 37 33 13 3f 29 e3 8c be 8e 1e 50 3f
       -1.3296536 0.5750002 -0.2751706 0.8129662
000200 bc fb ab 3f 52 a1 4f bf b2 e1 24 c0 81 32 86 3e
       1.3436198 -0.8110553 -2.5762753 0.26210406
000210 37 fc 9a 3e 96 76 51 be f5 70 22 bf c0 19 66 be
       0.3027055 -0.20455393 -0.6345361 -0.2247076
000220 50 2d 84 3f cd 04 74 bc 81 de 11 40 f8 d0 c8 3d
       1.0326328 -0.014893723 2.2792056 0.098054826
000230 11 91 9c bf 04 70 7d be 54 6a 18 3f 5a 75 56 bd
       -1.2231771 -0.24749762 0.59537244 -0.05235801
000240 5f 47 03 40 af 6e 72 bf 77 ce 2c be 11 5a f8 3e
       2.0512311 -0.9470014 -0.16875635 0.48506215
000250 13 70 6b be 29 f1 ef 3d 19 57 33 3d 0c c9 0c 3f
       -0.22991972 0.117159195 0.043784235 0.54994273
000260 10 36 3c 3e ec 43 12 be b6 7f 01 3f 0b 12 7e bc
       0.18379998 -0.14283723 0.50585496 -0.0155072315
000270 6e c5 02 3f 37 df 88 be 56 80 46 bf cc 5e 83 3e
       0.51082504 -0.267328 -0.77539575 0.25658262
000280 44 ba 3f 3f 24 9f 83 bd b4 f3 11 3f 1e bb de be
       0.74893594 -0.06426838 0.57012486 -0.43502134
000290 5d cb a2 3f 35 c8 99 3e af 51 de 3e ef 53 22 bf
       1.2718312 0.30035558 0.43421695 -0.6340932
0002a0 77 5b 88 bf a1 3f 95 be b6 0f 8e 3f a4 b8 b1 bd
       -1.0652913 -0.29150108 1.1098545 -0.086777955
0002b0 4e 67 a6 bf 7c e5 dc bf 24 fb 53 3e 10 ed 0d bd
       -1.3000276 -1.7257533 0.20701271 -0.03464991
0002c0 f2 c7 c2 bf 10 3f 0a c0 b3 47 1f bf d6 be 54 3f
       -1.5217268 -2.160099 -0.6221878 0.8310369
0002d0 0b 60 f1 3c 86 cb 78 bf ef 8d af be 01 6e 0c bf
       0.029464742 -0.9718555 -0.34287974 -0.5485535
0002e0 b6 11 b9 be 44 85 e4 bd 12 d6 ac 3d 7a 70 b5 3e
       -0.36146325 -0.11158231 0.08439268 0.35437375
0002f0 2b 21 08 40 9a d7 6d b6 a3 6b 40 3f 91 02 11 3e
       2.1270244 -3.5441249e-06 0.7516424 0.14161135
000300 9a c8 54 3e 65 a7 4c be a7 92 9d bb ae bf 16 bc
       0.20779648 -0.19985731 -0.004808742 -0.009200973
000310 87 6f 90 be c9 1d ea 3e 2c 21 3b be 4a 1d db be
       -0.2821009 0.4572585 -0.18274373 -0.42795783
000320 f1 5b 23 bf 4a a9 14 be 1f 52 13 bf 1b e7 83 be
       -0.63812166 -0.14517704 -0.5754718 -0.25762257
000330 e1 d7 cf 3c ac 76 93 3d 91 19 ee be 41 48 de be
       0.025371494 0.07200369 -0.4650388 -0.434145
000340 da 33 9f 3e 29 1c a2 be b7 e0 9f bc de 7d 0b be
       0.31094247 -0.3166211 -0.019516332 -0.13622233
000350 5f ec 77 3e e9 fa ad 3d 1e 72 8d be d3 af 13 be
       0.24211262 0.08495123 -0.27626127 -0.1442254
000360 d5 ed dc bd 14 06 5d bf 3b ec 1b 3f e3 79 7e 3e
       -0.1078755 -0.863374 0.60907334 0.24851184
000370 d6 a6 0e be 96 9b 92 3f d4 8d 0d 3e c5 7d 86 3e
       -0.1393083 1.1453731 0.13823634 0.2626783
000380 3a a4 46 3e 2f 91 83 3e 5c ea 43 40 61 6f e3 bd
       0.19398585 0.25696704 3.0611792 -0.11105228
000390 f8 b3 5a 3e a3 f1 3b bf aa dc 40 3e 77 4a fa 3e
       0.21357715 -0.73415583 0.18834177 0.48884937
0003a0 f2 56 49 be 3d 38 0c 40 63 2c 12 3e 6e e9 b5 3b
       -0.19662073 2.1909325 0.14274745 0.0055515086
0003b0 c4 4a 29 bc 9b 78 48 bf 41 dd e2 be 83 78 56 3e
       -0.010332767 -0.7830903 -0.44309428 0.20944409
0003c0 bb 9d cb bf 91 40 a6 bf 06 94 39 3d f6 44 a5 3e
       -1.590751 -1.2988454 0.04530718 0.32279176
0003d0 0f d1 b9 3e 24 9f 6c bd ed 9d 83 bf 2c ea 14 3e
       0.36292312 -0.057768956 -1.028257 0.14542454
0003e0 79 f1 af bd c6 d1 45 bc 9c d2 b0 3d 65 ec 44 3f
       -0.08590979 -0.01207394 0.086339206 0.7692321
0003f0 56 c8 3f 3f 18 a5 02 bf 4d fe 04 3f 82 c6 96 be
       0.74915063 -0.51033163 0.5195053 -0.29448324

encoder.fc.0.bias f4 [16]
000000 d3 5f b9 3e 24 d4 25 3e a4 29 89 be 79 e0 ff bc
       0.3620592 0.16194206 -0.26789582 -0.031234967
000010 83 a2 f9 be 92 99 d3 be 2d f3 9b 3d 2d 84 0d bf
       -0.487568 -0.41328102 0.076147415 -0.5527981
000020 96 ae e5 bd c2 6a a3 3d e2 68 4f 3c c0 15 ab 3e
       -0.1121494 0.07979347 0.012659283 0.3341503
000030 a1 c4 8f 3e 5b fc 52 3d a8 0c 03 be b1 39 e4 be
       0.28079703 0.051510196 -0.12797797 -0.44575265

decoder.fc.0.weight f4 [64, 16]
000000 df 76 27 40 70 a7 02 c0 e8 20 b3 3f 22 39 ed bf
       2.6166303 -2.0414696 1.3994417 -1.853306
000010 35 9a f3 3f c6 9b 28 bf d8 e8 f6 3f 73 b9 28 40
       1.9031435 -0.6586269 1.9289808 2.636319
000020 c3 11 8c 3f c8 32 49 3f 95 1c f7 3e 86 90 2a bf
       1.094292 0.7859311 0.48263994 -0.66626775
000030 16 3c 89 bf 5e 26 47 bf cb 46 08 3e 9e b0 d9 3f
       -1.0721462 -0.7779292 0.13308255 1.7007024
000040 07 d0 89 be 0f 17 3b bf 4a f9 b8 bf 65 c2 3c bf
       -0.26916525 -0.7308206 -1.4451077 -0.7373412
000050 2b 97 4e 3e fb ad 08 3f a2 e6 b2 3e fe 66 2c 3f
       0.20174854 0.53390473 0.34941584 0.67344654
000060 19 df a0 be 3a ce 23 3f 96 e8 7f 3e 52 a7 20 bf
       -0.3142021 0.6398655 0.24991068 -0.6275531
000070 b6 09 6c 3e d8 95 02 bf 2d cf 5b bf 34 3f 22 3f
       0.2305058 -0.51009893 -0.85863 0.6337769
000080 5b aa 02 3f 39 ef 6c 3e ab 29 e4 be 4c 4e 4b bf
       0.5104119 0.23138131 -0.4456304 -0.79416347
000090 b0 48 f6 be b8 39 82 be 64 26 0b c0 20 8a 09 bf
       -0.4810233 -0.2543466 -2.1742182 -0.5372639
0000a0 45 72 ef bf e5 4e d5 bf ac 8e 53 3f b4 1a 1a bf
       -1.8706747 -1.6664702 0.82639575 -0.60196996
0000b0 2a 19 95 3f b5 65 25 3e 1d b8 cc 3f f6 23 07 bf
       1.1648304 0.1615208 1.5993687 -0.5278925
0000c0 80 a2 d1 be 9f a0 aa 3f 13 55 76 be 41 7d 20 3f
       -0.4094429 1.3330268 -0.2405589 0.6269112
0000d0 db 58 7e bd c8 a5 8f 3f e7 19 be be c0 86 38 3f
       -0.062096458 1.1222467 -0.37129137 0.7208061
0000e0 7a d4 d1 3f 75 11 ce be 11 c1 82 bf b5 df cc be
       1.6392968 -0.40247694 -1.0215169 -0.40014425
0000f0 eb 3a 9d bd 17 fe 8d be a5 3b 71 bf 0d 3f 55 3f
       -0.07677253 -0.27732918 -0.94231635 0.8329933
000100 db e5 c4 3f 6b df bb bf f4 95 ca bf 6c a4 08 bf
       1.5382646 -1.4677557 -1.5827012 -0.5337589
000110 49 4b 2d bf 30 85 fc 3f 96 b7 c3 3d ce a9 af bf
       -0.67693 1.9728146 0.095565006 -1.3723695
000120 31 6f 85 3c 81 64 b9 3f 83 44 01 3f b1 10 60 bf
       0.016288372 1.4483796 0.50495166 -0.8752547
000130 af 34 0e bf 46 62 80 bf c2 03 55 3e 46 58 cb 3f
       -0.5554914 -1.0029991 0.20802215 1.5886314
000140 c1 ac aa 3d dd 61 f2 be 98 1c 2a be 37 04 b8 3f
       0.083337314 -0.4734029 -0.1661247 1.4376286
000150 d5 a6 79 bf 97 3d 08 3f 5d 94 7c bf a6 40 23 bf
       -0.9752019 0.5321898 -0.98663884 -0.6377052
000160 e1 c1 b7 3e ab 33 07 3f b7 9e 55 bf 41 84 11 3f
       0.35890105 0.52813214 -0.83445305 0.5684243
000170 93 15 e7 be 8a 42 c8 3e 76 be bf 3f 86 82 89 bf
       -0.45133647 0.39113265 1.4979999 -1.0742958
000180 66 60 82 3e 8c 68 ed 3a d9 e5 10 3f dd 53 bd be
       0.2546417 0.0018112822 0.5660072 -0.36978045
000190 15 6e f8 ba ec 61 48 be d3 7d 9b 3e a4 a3 45 3d
       -0.0018953705 -0.19568604 0.30369434 0.048251763
0001a0 02 ab 0f 3e e5 eb 33 be c7 8d f9 bd 34 b2 ab 3d
       0.14030078 -0.17570455 -0.12185245 0.08383599
0001b0 bf 97 ba bd cb 6d 1d be ea 58 9b 3e f7 85 85 be
       -0.091109745 -0.15373914 0.30341274 -0.2607877
0001c0 cb ef 47 40 75 2e ad 3e 85 0e ea be 1a b7 fb 3e
       3.1240108 0.33824506 -0.45714203 0.49163133
0001d0 7e 39 67 3e 2c 68 06 40 0d 34 1f 40 16 c9 67 c0
       0.22580525 2.1001081 2.487552 -3.6216483
0001e0 7e 19 c3 bf f4 b6 2e 3f 2f 30 03 bf 3e 4b 2c be
       -1.5242155 0.68247914 -0.512454 -0.16825578
0001f0 6f a0 4e 3f 41 11 6c c0 ad 84 91 bf 36 fc 00 3f
       0.8071355 -3.688553 -1.1368614 0.50384843
000200 6f 01 2d 40 a5 36 41 3f b3 df 97 bf c0 73 b4 be
       2.7032125 0.75474006 -1.1865143 -0.3524456
000210 84 9f e5 3d 62 35 92 3e 9f 15 0d bf 85 19 67 3f
       0.11212066 0.28556353 -0.55111116 0.90273315
000220 b7 e7 57 3f 71 71 1b bf 64 ad d3 3e 34 23 98 be
       0.84337944 -0.6071997 0.41343224 -0.29714358
000230 56 fa ad bf 76 b8 20 bf 85 1c b4 3f 70 5b 05 c0
       -1.3592021 -0.62781465 1.4071203 -2.083706
000240 1d b2 16 bf 04 c1 24 bf ce 7a 12 3f 0d e8 5f bf
       -0.5886553 -0.6435702 0.57218635 -0.87463456
000250 6f af 15 3f 4c 76 a8 3d 38 29 51 3e 3b ca 16 3f
       0.58470815 0.08225688 0.2042588 0.5890233
000260 7a 9d ef be c6 57 89 3e 0d a1 31 bf 5a 35 b1 3d
       -0.46799833 0.26824778 -0.6938637 0.08652754
000270 f1 de b4 3d d3 73 65 be ee e1 54 bf 6d 59 ad be
       0.08831585 -0.22407465 -0.8315724 -0.3385729
000280 d9 83 0e bf d9 2b b4 bf 66 a9 1f 3f 4f 4b 9c be
       -0.55669934 -1.4075881 0.62367857 -0.30526206
000290 27 6d b6 be a6 e2 8e 3f 62 4e d5 bf 34 db ec bd
       -0.35630152 1.1162918 -1.6664546 -0.11565247
0002a0 46 d0 a8 3f cd 67 a3 bd 57 d9 a7 3f dc e1 d4 be
       1.318856 -0.07978783 1.3113202 -0.41578567
0002b0 f8 64 86 3e 40 7a a9 bf e1 62 19 3f eb ea b8 3f
       0.26248908 -1.3240433 0.599165 1.4446691
0002c0 35 e1 19 bf 13 00 8b 3d 2a 46 80 be 93 aa 9d 3e
       -0.60109264 0.067871235 -0.2505353 0.307942
0002d0 60 e6 80 3e 22 57 9f bf 5f ab 6e bf 7e a3 1d 3f
       0.25175762 -1.2448466 -0.9323024 0.61577594
0002e0 98 c1 81 bf 33 f6 cb bf ee ee 16 40 57 0c b7 3f
       -1.0137205 -1.5934509 2.358333 1.4300641
0002f0 47 33 aa 3f 98 05 dd 3e e3 ad 0a 3f 35 eb 4a 3f
       1.3296899 0.4316833 0.5417158 0.7926515
000300 f4 61 ab 3f 09 c4 82 bd f9 f4 8e bf 4d cc 27 c0
       1.3389268 -0.06385047 -1.116851 -2.6218445
000310 2e a5 b3 be 89 6c 1c bf d9 4d a0 bf 53 d3 89 3e
       -0.3508696 -0.6110311 -1.2523757 0.2691904
000320 f6 1f c8 bd b0 46 88 bf 47 3a be 3f db 6c d2 3e
       -0.09771721 -1.0646572 1.4861535 0.41098675
000330 fd cb f8 3e b5 0e 1d be 94 86 27 bf 89 e3 ce be
       0.4859313 -0.15337642 -0.65439725 -0.4040797
000340 55 3a 07 bf 73 91 a8 3f 9e 53 a4 bf 79 df 92 3d
       -0.5282338 1.3169388 -1.2838018 0.0717153
000350 e7 cd 50 bf 7a f7 11 3d 84 07 81 be 63 4e 48 be
       -0.8156418 0.035636403 -0.25201046 -0.19561152
000360 39 05 15 3f 61 3f 1e 3e 4f a9 b6 be 19 55 ab 3f
       0.58211094 0.15453865 -0.35676047 1.3385345
000370 15 49 12 bd cf 5d f5 bf 6f 51 a7 3f 07 25 2f bf
       -0.035714228 -1.9169253 1.3071727 -0.68415874
000380 81 ed 70 3e 77 36 3a 3d 90 e0 39 be ce 6b 3e 3f
       0.235281 0.045462098 -0.1815207 0.74383247
000390 20 e5 c6 3f 10 b0 8a 3e fa 3f 74 bf 32 fd 17 bf
       1.5538673 0.2708745 -0.9541012 -0.5937072
0003a0 a0 47 5d 3f 3b 64 81 bf 48 e5 75 3e c7 ad e2 be
       0.86437416 -1.0108713 0.24013245 -0.44273207
0003b0 8f 40 bf bf e5 7a 79 bf 13 7c 48 bf 17 a9 84 3f
       -1.4941577 -0.9745315 -0.7831432 1.0364102
0003c0 9a b9 62 bd 84 e9 1c 40 df 4b 8d 3e 00 1c 0d c0
       -0.055352785 2.4517527 0.27596948 -2.204834
0003d0 4f b1 8f 3c ae bc 95 bf da eb 93 bf 86 c6 83 3f
       0.017540602 -1.1698205 -1.1556351 1.029496
0003e0 0c b4 4d bf f6 42 2b 3f b5 24 f6 3f d6 90 26 bf
       -0.80352855 0.6689905 1.9229952 -0.6506475
0003f0 4f f4 bb bf 9d 4d a3 bf b7 5f d1 3e 5e 94 5d 3f
       -1.4683932 -1.2758061 0.40893337 0.86554515

decoder.fc.0.bias f4 [64]
000000 4e 00 cc bf 6d 39 0c 3e 53 df 58 bd 41 9e db 3f
       -1.5937593 0.13693781 -0.052947354 1.715767
000010 2a 7c c4 3f 5d d9 32 3f 2f c4 2b bf 78 9c 4f c0
       1.5350392 0.6986292 -0.6709623 -3.243925
000020 52 53 a9 bf 96 fb 97 3f a6 3b 92 3e 13 e8 17 3f
       -1.3228552 1.1873653 0.28561133 0.5933849
000030 7f f6 95 bf 60 99 7f bf 74 a0 e3 3f 87 4c cc bf
       -1.171585 -0.99843407 1.7783341 -1.5960854
000040 ca 46 f8 bf 65 fa c7 3f 35 3a d5 3e de a3 eb 3f
       -1.9396603 1.5623289 0.4164597 1.8409383
000050 e6 ad 0a c0 2d ba ef bd 9c 49 84 3f 9a f4 96 3f
       -2.166864 -0.11705432 1.0334964 1.1793396
000060 66 74 03 bf 8f 48 8c bf 71 cf d6 bf 08 59 57 3e
       -0.51349485 -1.0959643 -1.6782056 0.21030056
000070 ea 1c 2c 40 cd 52 a0 3f ee 8f 0a 40 3b 89 51 bf
       2.6892648 1.2525269 2.1650348 -0.8185002
000080 e6 c9 12 bf 24 b2 fe be 46 84 4c be 40 66 6c 3f
       -0.5733932 -0.49745286 -0.19972333 0.9234352
000090 18 3b ae 3f f6 90 e9 bc 59 1e 26 3f c3 e3 84 3f
       1.3611784 -0.028511506 0.64890057 1.0382007
0000a0 33 88 1a c0 44 ad f8 3f 8d e1 25 bf 45 d8 c0 be
       -2.414563 1.9427876 -0.6479729 -0.37665
0000b0 4b bc 59 c0 60 54 28 40 95 b6 35 bf d1 2b 70 bf
       -3.4021175 2.6301498 -0.70981723 -0.9381686
0000c0 f3 18 e8 be 81 cf d6 3f b4 8a f9 3c 7b 89 16 c0
       -0.45331535 1.6782075 0.030461647 -2.3521411
0000d0 d3 5a e5 3f 17 a2 95 3f 30 3c 97 bf 49 29 f1 3f
       1.7918342 1.1690091 -1.1815243 1.8840724
0000e0 f4 8c 90 c0 ba 8d 24 3f 24 68 ad be 09 a6 e6 be
       -4.517206 0.6427876 -0.33868515 -0.4504855
0000f0 1e 4c 48 bf 2d 61 37 bf 9a 8c 04 c0 fa 15 b5 3f
       -0.78241146 -0.71632653 -2.0710816 1.4147332

decoder.model.0.0.weight f4 [16, 16, 3, 3]
000000 f3 43 81 3f 59 b6 93 bf db 12 a4 3e c8 b0 07 c0
       1.0098861 -1.1540023 0.32045636 -2.1201649
000010 aa ea 8d 3f 6c 70 b8 bf e9 a1 9f be a1 3e e8 be
       1.1087239 -1.4409308 -0.31178215 -0.45360282
000020 77 34 8b bf e8 3e 53 bf 13 63 74 3f 94 c0 7f 3f
       -1.0875386 -0.8251786 0.95463675 0.99903226
000030 69 31 59 bf ba 23 bf be 4d bb 81 bf cf a3 a1 3f
       -0.8484102 -0.37331945 -1.0135285 1.2628115
000040 15 ac 11 3f 3a 59 18 bf f8 5e 75 3f 57 1c a4 3f
       0.569032 -0.5951115 0.95848036 1.2821149
000050 a7 10 4a 3f 89 17 e2 3c 2f e1 35 c0 24 81 50 bf
       0.7893166 0.027599113 -2.841869 -0.8144705
000060 7e f9 0c c0 c4 f2 92 bf a3 e6 52 bf a0 63 78 bf
       -2.2027278 -1.1480336 -0.82383174 -0.97027016
000070 b2 45 08 bf 74 41 e3 be 44 4b ab 3f 3c 60 62 bf
       -0.53231347 -0.44385874 1.3382344 -0.8842809
000080 be 10 a1 be 83 43 90 be 65 1c a3 3f 5b 7c 23 bf
       -0.31458086 -0.28176507 1.274304 -0.63861626
000090 79 91 0c 3f 49 b1 25 3f 6a d7 09 bf e6 9c 08 be
       0.54909474 0.6472364 -0.5384432 -0.13341102
0000a0 b7 f3 0a c0 41 42 c1 3e 0b c1 d0 be 5f 7f 87 bf
       -2.1711252 0.3774586 -0.4077228 -1.0585746
0000b0 d4 20 80 be 3e 49 4b bf 26 62 b3 be f8 bc 06 bf
       -0.25025046 -0.79408634 -0.3503582 -0.52632093
0000c0 c8 2f ca bf 01 23 eb be 69 dc 13 3f 49 54 41 3f
       -1.5795832 -0.45925143 0.57758194 0.75519234
0000d0 d6 6c 02 40 33 e5 02 bf 9e e0 8f bf f7 e8 36 bf
       2.0378928 -0.5113098 -1.1240423 -0.71449226
0000e0 c6 0d 54 bf 2a eb ba bf 3c 3e da 3e a7 f1 8e 3e
       -0.82833517 -1.4603016 0.42625606 0.2791874
0000f0 4e 54 ee 3f 05 82 13 40 52 b5 d1 3e e2 85 16 be
       1.8619478 2.3048108 0.4095865 -0.1469951
000100 06 ff 1b 3f 6b 43 45 be 8b 7c 96 3f 57 cf f6 bc
       0.6093601 -0.19263999 1.1756757 -0.030128164
000110 94 b3 04 bf d9 73 d0 be 1c 66 d4 bd 24 2f 5d 40
       -0.51836514 -0.40713385 -0.10371038 3.4560022
000120 0b f0 dd 3b a5 bd 69 3d bb 00 30 bf d6 87 0f be
       0.006773 0.057065625 -0.68751115 -0.14016661
000130 01 17 b2 3e b6 d6 54 3f d2 ec d2 be f6 1e 79 3e
       0.34783176 0.8314012 -0.41196305 0.24328217
000140 fa 13 28 3d 4d 94 79 3f a4 60 d6 3d d5 42 a3 bf
       0.041034676 0.97491914 0.104676515 -1.275477
000150 44 de 81 bd 65 fc f9 bf 19 5e dc be b4 5e 1d c0
       -0.06341222 -1.953015 -0.4304054 -2.4589052
000160 f8 ba 1a 3f a3 e8 3f bf d2 4a e3 3e 07 52 e9 3f
       0.6044154 -0.7496435 0.4439302 1.8228158
000170 0a ec c6 be 78 1f ff bf 7e 57 37 bf b6 1b 84 bf
       -0.3885196 -1.9931479 -0.7161788 -1.0320957
000180 79 25 20 3f 48 0a 97 3f f4 6f c5 3f af ea 85 3f
       0.6255718 1.1800013 1.542479 1.0462245
000190 90 fc 2f 3f e2 c8 59 39 2d 76 c5 3f a6 8c 99 3f
       0.68744755 0.00020769567 1.5426689 1.1996047
0001a0 28 7e 49 3f 17 7a a0 bb 0f 7f 90 bf 82 65 98 3f
       0.78708124 -0.0048973667 -1.1288775 1.1905978
0001b0 41 dd 9f 3f 73 d4 10 3e a5 32 ba bd bf c3 15 3f
       1.2489396 0.14143543 -0.09091691 0.5850181
0001c0 9b fa 40 bf ca cb 1e bf e7 30 74 3e c9 19 25 be
       -0.75382394 -0.6202971 0.2384678 -0.16123118
0001d0 a9 18 46 3f a1 dc 2c be 97 74 45 3f 01 06 08 c0
       0.7738138 -0.16881038 0.77131027 -2.1253664
0001e0 38 e5 46 3e 50 6c 2d 3e 07 b9 a6 bf 93 53 49 bf
       0.19423378 0.16935849 -1.3025216 -0.7864315
0001f0 6b 15 13 3e c2 fa 9a bf 89 85 e5 3f 6f 03 93 bf
       0.14363639 -1.2107775 1.7931377 -1.1485423
000200 36 83 69 3e be c3 b8 3e e3 23 31 3f 40 0d 64 3e
       0.22803959 0.3608684 0.69195384 0.2227068
000210 d8 60 21 c0 03 0d 83 3e 40 3a d3 be 5e 32 f6 be
       -2.5215359 0.25595865 -0.4125538 -0.48085302
000220 5f b0 fc be ba 50 27 bf 2f 52 61 bf 38 38 c1 bf
       -0.4935331 -0.65357554 -0.8801603 -1.5095282
000230 ff 39 2e 3f 69 5d 58 bf 30 f9 06 40 53 95 1d bf
       0.68057245 -0.8451753 2.1089592 -0.61555976
000240 e6 22 c6 bf 25 0f 35 bf 5d 74 18 40 b8 41 f6 bf
       -1.54794 -0.70726234 2.3821023 -1.9238806
000250 86 79 39 bf 8e 90 b4 3f 91 ec b9 be e8 6d 01 3e
       -0.72451055 1.4106615 -0.36313298 0.12639582
000260 2f 65 17 3f 85 75 2b bf b3 e0 fe bf 1b 3c 5a bf
       0.5913877 -0.66976196 -1.9912323 -0.85247964
000270 1d 74 aa bf fb 4e b8 bd b9 7e 76 3f 7a 16 95 3d
       -1.3316685 -0.08999439 0.96287113 0.07279678
000280 1c 8c 43 3e b4 c3 f6 bf 58 c8 e9 3f 4a fa 0f 40
       0.19096416 -1.9278474 1.8264265 2.2496514
000290 da f3 cf 3f ac b4 b5 3d 5f bd b6 3e 2a 55 48 3f
       1.6246293 0.08872351 0.35691354 0.7825495
0002a0 26 d9 21 3e e7 c5 b0 3e 00 c4 95 3e 4e b4 c5 be
       0.15805492 0.34525988 0.292511 -0.38614124
0002b0 d1 e7 29 bf 00 da 9e 3e 95 50 4c c0 80 40 bd be
       -0.6636935 0.31025696 -3.1924183 -0.36963272
0002c0 41 fa bf 3f 57 9c 1c bf f6 e8 c4 3f 53 11 c8 bf
       1.4998246 -0.61176056 1.5383594 -1.5630287
0002d0 4e 12 f9 3e c3 81 00 be 34 8a 9f bf 67 66 e7 bf
       0.48646778 -0.125495 -1.2464051 -1.8078126
0002e0 cc af 72 bf 4c 74 7a be 80 ca be 3e 15 a7 40 3f
       -0.94799495 -0.24458426 0.3726387 0.75254947
0002f0 08 40 71 bf 02 ee 27 c0 34 0e 82 bf cc 07 56 c0
       -0.9423833 -2.6239018 -1.0160584 -3.344226
000300 97 71 03 c0 95 21 98 3f 1c c8 33 3f f8 9f ce 3e
       -2.053808 1.1885248 0.7022722 0.4035642
000310 d4 9f a2 3f 78 c2 8e be ca 5f 34 bf 91 65 92 c0
       1.2705026 -0.27882743 -0.7045866 -4.5748982
000320 d3 47 28 3f 48 da 7b bf 39 88 a2 bf 74 b8 a2 3f
       0.65734595 -0.98379946 -1.2697822 1.2712541
000330 25 b9 df be 13 77 25 3f d8 3f 81 3f 73 3d 22 c0
       -0.43695942 0.6463482 1.0097609 -2.5350006
000340 9a bc bb 3f 49 7a fa bf 82 e6 a6 bf 53 8d 9a 3f
       1.4666932 -1.9568568 -1.3039095 1.2074379
000350 ce ec 0c bf e5 e7 f0 3f 90 d0 1b bf 4e af 3d 40
       -0.55048835 1.8820769 -0.60865116 2.9638247
000360 b4 10 24 3f 64 90 bb 3f b5 9b b3 3f bb 74 74 bf
       0.64087987 1.465344 1.4031893 -0.95490617
000370 3f 2b a2 3f 4e 74 aa be 3c ed aa bf 88 2e 0f c0
       1.2669448 -0.33291858 -1.3353648 -2.237215
000380 21 d9 b5 bf a2 56 0c 40 15 8b 24 40 cb cf a6 be
       -1.4206887 2.1927876 2.570989 -0.32580408
000390 09 41 8f 3f 5e 5b 83 c0 79 c2 bb be 68 ed 84 bd
       1.1191722 -4.104903 -0.36671808 -0.06490594
0003a0 98 d6 e1 be d2 38 80 bf 7e 15 b2 bf 76 f8 0f be
       -0.44109035 -1.001734 -1.3912809 -0.14059624
0003b0 e4 af 74 bf 83 e6 21 be dc 75 19 3d 94 7c 4e 3e
       -0.9558089 -0.1581059 0.037465915 0.2016471
0003c0 7b ef 22 3f d1 2d 29 3f 2c 3b dc be 87 0e 42 c0
       0.6364667 0.66085535 -0.43013895 -3.0321367
0003d0 f3 24 8e 3f d1 0e 14 c0 11 48 62 bf 35 12 75 bd
       1.1105026 -2.3134043 -0.88391215 -0.059831817
0003e0 0a 7f cb bf 0e 1e 23 be 59 30 ea 3f 6f db db bf
       -1.5898144 -0.15929434 1.8296005 -1.7176341
0003f0 02 49 0e c0 14 f7 c6 be bc 68 f3 bd 15 0f 82 bf
       -2.223206 -0.3886038 -0.11885211 -1.0160853
