data/models/1672100060_emnist_course_autoencoder.pth (torch, 66155 bytes, 45 tensors)

encoder.model.0.0.weight f4 [8, 1, 3, 3]
000000 fb 30 54 3e 76 be 94 bd 59 4e 86 3e e3 80 e6 3d
       0.2072181 -0.0726289 0.2623165 0.11255052
000010 08 27 61 3e a3 f3 46 3e 92 04 e6 bc db 7a 01 be
       0.21987545 0.19428878 -0.028078351 -0.12644522
000020 d0 ce 03 be 94 dd a2 bd 3a ee bd bd f6 25 15 bd
       -0.12871861 -0.07952419 -0.09273954 -0.036413155
000030 57 ac 93 3d 27 53 22 3e 0e 04 fe 3d 17 48 55 3e
       0.072106056 0.15852033 0.12403117 0.20828281
000040 89 bf e3 3e f4 7e 00 3e b3 d9 23 3d 86 3f 58 3e
       0.44482067 0.12548429 0.040002536 0.21117982
000050 0d 23 87 3d 3f 13 60 3e 94 dc 0d 3f 43 20 2c 3e
       0.06598482 0.21882342 0.554147 0.16809182
000060 41 3a c7 3d 7f 31 48 3e 17 0d 85 3d aa 1c bb bd
       0.09727908 0.19550131 0.06496637 -0.091363266
000070 01 1e 98 3d ee 7a 96 bd 16 53 46 be 04 0c 7d 3d
       0.07427598 -0.07347666 -0.19367632 0.061779037
000080 cf 8a 70 3e 55 cc 3d 3d 12 fe a4 3d 00 89 fe be
       0.23490451 0.046337444 0.080562726 -0.49713898
000090 5e 89 ab 3d 8a 1e 00 bf 8d 76 1f 3e fd ec 28 3d
       0.0837581 -0.500466 0.15572567 0.041241635
0000a0 75 cd a2 3d 7b df 57 3d 93 55 ce bc f1 43 86 bd
       0.07949344 0.052703362 -0.02518729 -0.065559275
0000b0 1f e7 91 bd cb 70 8d bd f7 93 4e 3d 9c 0d 80 3e
       -0.07124161 -0.06906279 0.05043408 0.25010383
0000c0 71 e7 c7 bd 11 b2 d3 3d c1 8c 21 3f a8 7b 5e bd
       -0.09760941 0.10336698 0.631054 -0.054317147
0000d0 5f 71 7d 3d e1 55 67 3e 51 f4 84 bc 50 ce 1f bd
       0.061875697 0.22591354 -0.01622978 -0.039015114
0000e0 84 db 91 be 5d 06 29 3d 90 79 88 bb d7 32 d3 bc
       -0.2848779 0.041265834 -0.004164882 -0.025781078
0000f0 a9 5f 35 bf 63 8f b5 3b 34 9b f1 3d ff 58 f4 3e
       -0.7084909 0.0055407747 0.11797181 0.4772415
000100 64 a9 8d 3e 29 81 42 be 98 9c 9b 3e ec e2 c7 3d
       0.27668297 -0.18994583 0.3039291 0.09760079
000110 9e d8 86 be a9 f4 05 3e d9 51 04 bd 9b 16 3c be
       -0.2633714 0.13081612 -0.03230462 -0.18367998

encoder.model.0.1.weight f4 [8]
000000 91 ee 0d 3f 59 1d 34 3f 46 f2 7f 3f c9 9e 8a 3e
       0.5544215 0.7035728 0.99979055 0.27074268
000010 fe 5a 1a 3f e7 a9 45 3f cc b9 00 3f e0 ef 07 3f
       0.60295093 0.77212375 0.50283504 0.53100395

encoder.model.0.1.bias f4 [8]
000000 9f ff 21 3e 28 ce 26 bf 62 2c 69 bf ba 7a a2 bc
       0.15820168 -0.6515832 -0.9108335 -0.019833911
000010 b8 93 64 be 5d 0e 2d bf ce 2c 95 3c b6 af 2c bf
       -0.22321975 -0.6760004 0.018209841 -0.67455614

encoder.model.0.1.running_mean f4 [8]
000000 2b 9a 0a 3e 74 73 4b 3e ff 80 b0 3e 40 60 9c bd
       0.13535373 0.1986826 0.34473416 -0.07635546
000010 31 95 58 bd b5 75 72 3e 67 2b 46 be be a4 02 3e
       -0.052876655 0.23677714 -0.19352494 0.12758157

encoder.model.0.1.running_var f4 [8]
000000 6a 56 73 3d 70 0f e4 3d 5e 0e 8b 3e 35 00 08 3d
       0.059408583 0.11135757 0.271594 0.033203322
000010 27 8d c3 3c f9 b2 28 3e 03 96 e2 3d c0 f3 e5 3d
       0.023871018 0.16474523 0.11063769 0.11228132

encoder.model.1.0.weight f4 [8, 8, 3, 3]
000000 e1 bd d1 3c f2 02 04 be 6a a4 7f 3c a7 23 3f bc
       0.025603237 -0.12891749 0.015603164 -0.011666215
000010 eb 66 c8 3c a6 e5 0d 3b f6 53 66 3c cf af ba bb
       0.024463138 0.0021651774 0.014058104 -0.0056972275
000020 d8 75 fd bd 33 b2 41 bd 09 54 9a 3d 1a f9 b3 3c
       -0.123759925 -0.047289085 0.0753556 0.021969367
000030 24 86 c8 bc 32 ad dc 3d f7 f1 9b bd 45 7e 05 3c
       -0.024478026 0.10775222 -0.076145105 0.008147781
000040 d6 e9 9e 3d 0f 9b 7c bd e8 49 69 3d e9 a6 34 3e
       0.077594444 -0.061671313 0.056955248 0.17641796
000050 56 ff 0a bb 95 d3 6e 3c 5f ed 93 3e 70 24 0f 3c
       -0.002120932 0.014576812 0.28892037 0.008736715
000060 ca 7e e0 bd c1 f5 4f 3e ca 84 ec bd 55 ad b7 bc
       -0.10961683 0.20308591 -0.11548765 -0.022421518
000070 ec f4 1e bd 77 e5 3e bd c4 45 57 bd fe c6 e0 bc
       -0.038807794 -0.046605553 -0.052556768 -0.027438637
000080 f8 31 5e 3d a7 b1 34 3c 61 1f 4c bd b1 1c dc 3d
       0.054246873 0.011028684 -0.049834613 0.1074766
000090 92 8c 07 bc e8 01 e7 3d ee 00 9c 3c 2d 2c a9 bc
       -0.008273261 0.112796605 0.019043412 -0.020650947
0000a0 08 e7 52 bd bc 33 e1 bc 0e 14 8f bd 0d a4 64 bd
       -0.05148986 -0.02749049 -0.06986247 -0.055820514
0000b0 7a 07 19 3e a9 4b e4 3d fe 82 93 3d 70 56 ae 3d
       0.14944258 0.111472435 0.07202719 0.085125804
0000c0 ed 24 4f 3e 16 b8 27 3e de 41 07 be 0d 3b 2c 3e
       0.2022893 0.16378817 -0.1320872 0.16819401
0000d0 2f 0f 02 3e fa 30 3b be be 16 b9 bd 0f 8b ab bd
       0.12701105 -0.18280402 -0.09037541 -0.08376133
0000e0 25 6a 92 3d e9 c6 86 bd 56 1b d9 bd 04 a7 ce bd
       0.07149152 -0.06580908 -0.10600917 -0.100904495
0000f0 9b f7 7e bc 0c 40 c2 bd ea 0d a6 bc 94 89 51 bd
       -0.015561963 -0.09484872 -0.020270307 -0.051156595
000100 cb 10 4c 3c e1 75 62 bc 7c 62 5b bd 15 c6 ca 3d
       0.012455176 -0.01382205 -0.05356072 0.099010624
000110 1c 63 e7 3d 46 f1 7b 3d 3b 7c f0 3d d6 c8 93 3b
       0.112982005 0.061509393 0.11742445 0.0045100255
000120 2a ac 88 3d 17 d6 81 bc 68 e5 7a bd af 34 af bc
       0.06673463 -0.015849156 -0.061253935 -0.021387426
000130 13 31 e1 bb 1e 30 96 3d 25 53 4e 3d 73 b8 fa 3d
       -0.006872305 0.073333964 0.05037226 0.12242212
000140 aa a4 54 3d 5f 92 8d 3b e0 fa 23 bb 81 fd d4 3c
       0.05191485 0.0043204273 -0.002502136 0.025999786
000150 05 07 89 3a 82 67 20 3e 11 58 47 3e 23 b7 93 bb
       0.0010454362 0.15664485 0.19467188 -0.0045079156
000160 04 07 b7 bd d1 14 37 bb ce b4 aa bc 6a d9 b5 bd
       -0.08936885 -0.0027935992 -0.020838168 -0.08879359
000170 0a 7e 96 3d 32 80 d8 bc 9d 95 43 3d 95 0d c5 3e
       0.07348259 -0.026428316 0.047750104 0.38486925
000180 c6 7c d4 3c d3 e7 34 3d ed f9 5f 3e 88 d9 53 ba
       0.025938403 0.044166397 0.21872683 -0.0008081426
000190 0f d8 74 3c 78 87 71 bd 87 83 24 bc d6 ab 27 bd
       0.0149440905 -0.058967084 -0.010041124 -0.04093536
0001a0 8a d4 27 be d2 a2 1d bd ca e7 bc bd 7d 1c 0f 3b
       -0.16389671 -0.038485356 -0.09223898 0.0021837049
0001b0 8e 38 73 bd 19 6c a6 3c ed c5 6e 3d 9c a7 32 3d
       -0.059380107 0.020315217 0.058294225 0.043616876
0001c0 0c bb 8e b9 a2 c1 b3 bd 87 69 6d bd f4 b7 13 be
       -0.0002722371 -0.08777167 -0.057961967 -0.14425641
0001d0 49 39 5a bd c9 eb 5d bb 66 68 44 3d 9a 92 59 3e
       -0.053277288 -0.0033862463 0.047951125 0.2124733
0001e0 bf b0 1e bd 5f 00 f4 3d 4c b1 84 3e 16 4f 97 bd
       -0.038742777 0.11914133 0.25916517 -0.07388131
0001f0 3e d6 d8 3d 44 5a b7 3d 2b 89 13 3d 69 81 ab bc
       0.105877385 0.08952764 0.036019485 -0.020935731
000200 70 bf dc 3c a3 4b 2f 3d 4a 21 0c bd 37 21 4c bd
       0.026946753 0.042796742 -0.034211434 -0.049836364
000210 05 59 6b 3d ec 64 aa 3d 6b 9b 18 bb 33 8e d6 bd
       0.057457943 0.083200306 -0.0023285996 -0.10476341
000220 b6 0f a0 bb 67 97 4e 3d 7f 5f f4 3b dc 6d bc bd
       -0.0048846854 0.050437357 0.007457673 -0.092006415
000230 6f 56 30 3e c4 eb f0 bc c9 4c 64 3d d7 22 6a 3d
       0.17220472 -0.029409297 0.05573729 0.057162132
000240 ff 75 16 bd 94 69 47 3d 42 cc 12 bd f6 d6 fc ba
       -0.036733624 0.04868467 -0.035839327 -0.0019290138
000250 c4 02 8d 3c 46 d9 85 3c bc f1 d4 3d 9d 7d 8e 3d
       0.017213233 0.016338956 0.1039767 0.069575526
000260 99 86 f0 3d 8f 3f 3d bd 7a 08 44 3d 7b de ad bd
       0.117444225 -0.046203192 0.047859646 -0.084897004
000270 44 14 c0 3d 77 85 b4 3d d3 ec eb 3d 78 61 4f 3e
       0.09378865 0.08814519 0.1151978 0.20252025
000280 a4 be 78 3e 53 a2 93 3d 14 55 e7 bd a4 b2 0e 3c
       0.24291474 0.07208695 -0.11295524 0.008709583
000290 08 eb 49 3d 05 d2 4c 3d f3 ee 5c 3e ed 35 ab 3d
       0.04929641 0.050004978 0.21575527 0.08359895
0002a0 e5 e5 2f 3e de 42 b4 3e b3 db ed 3d 56 9a 6b 3d
       0.17177542 0.35207266 0.1161417 0.057520233
0002b0 5a 61 27 bd ce 7e 3e 3d 48 56 98 bb d8 0e 88 bd
       -0.040864326 0.04650765 -0.0046489574 -0.06643456
0002c0 a1 9b 00 bb 84 08 e8 bd 17 58 9a bd 55 3c 68 bd
       -0.0019624012 -0.11329749 -0.07536333 -0.056698162
0002d0 e2 47 0b 3d fd 33 75 bd f8 f5 65 3d 37 c5 08 3c
       0.0340041 -0.059864033 0.056142777 0.008347801
0002e0 8f 27 bc bc 0a 1e 7f ba 6d ba 07 be c2 d3 be bd
       -0.022968082 -0.0009731954 -0.1325471 -0.09317733
0002f0 b4 52 03 be 58 f5 4f bd 48 43 4b 3d a4 a6 d4 bd
       -0.12824517 -0.050771087 0.04962471 -0.10383347
000300 d9 af 56 bd 09 aa c0 3d 67 12 80 bd cf a5 ea 3d
       -0.052413795 0.09407432 -0.0625351 0.11457407
000310 65 10 e2 3d 0d a9 a0 bc 6e ba f5 3c 37 30 0b 3d
       0.11038283 -0.01961186 0.029996123 0.033981528
000320 99 1d 9d 3d 81 c1 69 bb ba 51 d0 bc 53 8d df 3c
       0.07671661 -0.0035668316 -0.025429595 0.027289068
000330 67 07 4b bd f0 6e 3a bd 57 cf c5 bd 7f 0d 82 bd
       -0.049567606 -0.045515954 -0.096586876 -0.063502304
000340 ff 20 95 3d 01 cd 9b 3b a1 38 0f be 17 a2 d5 3d
       0.07281684 0.004754663 -0.13986446 0.10431307
000350 5f 55 34 bd 55 0a 8a 3d fa 4c ba 3d 19 a1 a6 3c
       -0.04402673 0.06740252 0.09096713 0.02034049
000360 8d a7 2b bd e6 4e 8c 3d 5e c2 0c 3d 3d 83 94 3d
       -0.041907836 0.06850986 0.03436505 0.07251594
000370 f1 9f d8 3d cc f3 79 bd cf 3a 9a 3c 8b eb 5c bd
       0.105773814 -0.06102352 0.01882687 -0.05393557
000380 57 d7 03 bd 24 72 64 3d 3b 8b c9 3d 34 d6 21 3e
       -0.032187786 0.055772915 0.09841009 0.15804368
000390 9d 61 31 3d 54 3c a8 bd b8 a6 99 bd f1 8d ee 3b
       0.043305982 -0.08214632 -0.07502502 0.0072801043
0003a0 6d 49 c7 bd 96 bd 4f bd 9c e9 6a 3d f4 ab 98 3e
       -0.09730802 -0.050717913 0.057351694 0.2981869
0003b0 91 75 3c 3d 3a 43 a1 3d 5a 2e a0 3e 18 b3 62 3e
       0.046010558 0.078741506 0.31285363 0.22138631
0003c0 2e 97 b2 3d 1f 3e 7c 3c 92 d4 fc 3d 61 96 86 bd
       0.087202415 0.01539567 0.12345232 -0.06571651
0003d0 11 91 bb bd cd cb 62 bd 6a eb e4 3b b2 d8 d4 bb
       -0.091585286 -0.05537014 0.0069860714 -0.0064955587
0003e0 60 db 8e 3d 20 9a 41 bc d3 18 50 3d 02 b6 8e bd
       0.06975436 -0.011816531 0.050804924 -0.06968309
0003f0 8f a0 1b 3d 13 df b8 bd 0c 80 8c bd 6c 7a 8f bd
       0.037994917 -0.09026923 -0.068603605 -0.07005772

encoder.model.1.1.weight f4 [8]
000000 7c fd 39 3f b2 8d 4c 3f e9 39 50 3f 11 1f 6c 3f
       0.7265241 0.7990371 0.81338364 0.92234904
000010 3b 76 3c 3f 64 30 42 3f d9 16 29 3f 55 57 a1 3f
       0.73617905 0.7585509 0.6605049 1.2604777

encoder.model.1.1.bias f4 [8]
000000 21 1f 82 3d 7d f5 60 3e 54 c0 a4 3e 9f 09 d1 3d
       0.063535936 0.21968646 0.32177985 0.10206913
000010 2b 21 31 3e 38 e2 60 3d bc f7 f2 3d 73 c8 0f 3f
       0.17297809 0.05490324 0.11863658 0.56165236

encoder.model.1.1.running_mean f4 [8]
000000 8c c7 70 3d 17 81 9c 3e 07 1e 98 3e db 2c a7 3e
       0.058784053 0.30567238 0.2971041 0.3265141
000010 33 e5 cb 3d ff a2 c2 3d f3 44 5d 3e fe 77 18 bf
       0.09955826 0.09503745 0.21608333 -0.59558094

encoder.model.1.1.running_var f4 [8]
000000 28 de 87 3e b0 9e db 3e 74 d7 04 3f 14 16 04 3f
       0.2653668 0.42894506 0.51891255 0.5159619
000010 bb e2 a2 3e 4a a4 9a 3e 3f 66 64 3e 7d 47 a3 3f
       0.31813607 0.30203468 0.22304629 1.2756191

encoder.model.2.0.weight f4 [16, 8, 3, 3]
000000 60 ed 2d 3c 42 38 75 3c a2 93 ba bc f1 cd 17 be
       0.010615677 0.014967026 -0.022775475 -0.14824654
000010 e9 72 8d bc 4b 7d d8 3b be 24 9d bc 65 1e 88 3d
       -0.017266707 0.006606733 -0.01918256 0.06646422
000020 d4 45 11 3e 52 f2 d5 bb 5d 79 99 bd 04 00 5a 3c
       0.14186794 -0.006529131 -0.07493851 0.013305668
000030 04 0a ee bc e6 66 20 bd 13 1c 8a 3d 48 33 aa 3c
       -0.02905751 -0.03916063 0.06743636 0.020776406
000040 71 ff 07 3d 3e 48 7a 3e 4d a6 a5 bd 47 d7 98 bd
       0.033202592 0.2444162 -0.0808836 -0.07462936
000050 a8 21 c8 3c b4 4a bc bc a8 46 ac 3d 43 78 34 3b
       0.024430111 -0.02298484 0.08411914 0.0027537502
000060 bc e5 31 bd b7 aa d1 3b 5e a0 7e 3e 3d dc c1 bd
       -0.043431982 0.0063985246 0.24865863 -0.09465835
000070 a9 79 43 3d 34 7e 99 3c 34 a4 c5 bc fd ac fa 3c
       0.047723446 0.018736936 -0.02412615 0.030600065
000080 08 99 8a bd 34 5f 28 be 17 b0 14 3e 91 e8 93 bc
       -0.0676747 -0.16442567 0.14520298 -0.018055232
000090 64 8a 31 bd 88 ed a6 bd 9c 60 90 3d 39 c2 0b be
       -0.04334487 -0.08150774 0.07049677 -0.13648309
0000a0 81 67 97 3d fb 49 71 bd bc 47 4c be 06 d0 0c 3e
       0.07392789 -0.058908444 -0.1994924 0.1375123
0000b0 83 0a 09 be bf 34 4e 3e 02 88 a8 3d d5 f8 dc 3d
       -0.13382916 0.20137309 0.082290664 0.107896484
0000c0 68 4e 3c bc de 0d 50 bd 9a fb 73 bd 65 90 c2 3d
       -0.011493303 -0.050794475 -0.059566118 0.09500197
0000d0 b7 f4 cd ba 28 7d 80 3d 4a a4 64 bd 8d 41 10 bd
       -0.001571319 0.06273872 -0.05582074 -0.035218764
0000e0 67 94 15 3d 4f f5 28 bb 9c ae ff bc f3 7a fe 3c
       0.03651848 -0.002578098 -0.03121119 0.031064486
0000f0 50 b4 fc bd ff bf 07 bc 1f a1 0d 3e 30 db 2d be
       -0.123390794 -0.0082855215 0.13830994 -0.16978145
000100 0d 20 e4 bd c5 b3 f6 bc 8f 37 86 bd 09 83 ec bd
       -0.11138926 -0.030115018 -0.06553566 -0.115484305
000110 a7 e5 99 3c c3 40 8b 3c 56 70 82 3d ad b1 31 be
       0.018786265 0.016998654 0.06369083 -0.17352934
000120 55 58 6a 3c 66 ba 12 3d 81 cc 51 3d b6 4a 6f 3e
       0.014303287 0.035822295 0.05122042 0.23368344
000130 42 1e 74 be 06 b7 ac bb ed e7 72 3d b7 65 ed bd
       -0.23839667 -0.0052708415 0.059303213 -0.11591666
000140 e4 52 85 3d eb e8 e9 b9 b6 fe 85 bd b4 d2 1e 3d
       0.06509951 -0.0004461476 -0.06542723 0.03877516
000150 ec 7f ba bd cc 49 10 be fd f0 5f bd 2a 9e 99 bd
       -0.091064304 -0.14090651 -0.054673184 -0.075008705
000160 f3 d9 12 be e3 9e b7 3d 0a 12 93 3c 83 26 a2 bd
       -0.14340954 0.08965852 0.017952938 -0.07917502
000170 bf 5d 55 bc d8 2f 2a be 52 5d 21 be 8e a8 7c bd
       -0.013022839 -0.16619813 -0.15758255 -0.061684184
000180 6d 40 a7 bd 6e 6e ab 3d 94 16 8d 3d 3b f8 99 bd
       -0.08166585 0.08370672 0.06889072 -0.07518049
000190 9d b7 49 be 31 8a 81 3d 6c 16 43 bd fa 47 fc bd
       -0.19698949 0.06325186 -0.047628805 -0.12318416
0001a0 21 c7 53 bd 9d 0b 89 bd a8 8c 2b ba e7 97 91 bc
       -0.051703576 -0.06691668 -0.0006544092 -0.017772628
0001b0 12 59 f2 3d 3c 90 c7 bd ae f3 09 bc da 6a 35 be
       0.11833395 -0.097443074 -0.008419914 -0.17716542
0001c0 6c a4 49 3e 53 f3 d4 bd 58 11 24 3e 31 05 46 bc
       0.19691628 -0.10397973 0.16022241 -0.012086199
0001d0 a8 40 a2 3c e2 d1 b1 bd 51 db 16 be 3d 06 c7 3b
       0.019806221 -0.0868261 -0.147321 0.0060737417
0001e0 21 d8 36 be b4 a7 b4 bd 8b 6f cd bc d7 39 47 bd
       -0.17855884 -0.08821049 -0.025077602 -0.048639145
0001f0 5a 92 18 3e a1 4e f4 3c 17 84 83 bb 59 74 39 be
       0.14899579 0.02982265 -0.004013549 -0.1811079
000200 37 5a 14 b9 2f 94 7e bd 27 8a 90 bc 77 dd f6 3d
       -0.00014147988 -0.062153038 -0.017644001 0.1205396
000210 d3 08 c5 bd 8a 32 fa bc 00 a4 b0 37 38 b7 2d 3b
       -0.09620824 -0.030541677 2.1057203e-05 0.0026506912
000220 e2 c6 40 3d 9e a0 e3 3a 76 aa 59 3e 31 4d ea 3d
       0.04706467 0.0017366593 0.21256432 0.11440504
000230 25 7c 87 3d 2d 84 1e be 77 01 87 3d c4 8c 07 3e
       0.066154756 -0.15480109 0.06592076 0.13237292
000240 00 7c c4 3d 64 74 9e 3d ad cc 3a 3d aa f9 2b 3e
       0.095939636 0.077370435 0.04560535 0.16794458
000250 95 23 1e bc 72 a1 e3 3c 35 80 09 bd 4d 13 ea 3c
       -0.009652038 0.027786944 -0.033569533 0.028573656
000260 e0 43 d0 bd cc d9 a5 3c f4 4b 02 3e f5 ea de 3c
       -0.10169196 0.020245455 0.12724286 0.027211646
000270 bf f0 9a 3d 14 21 12 bd e8 e7 20 be 24 3e 41 bd
       0.0756545 -0.035676077 -0.15713465 -0.047178403
000280 f2 b0 f5 3c a2 fa ac bd cb 66 d1 3d ba f1 37 3e
       0.0299916 -0.08446242 0.10224684 0.17963305
000290 3b ca 04 3e 5a eb 6c 3d d4 70 db 3a 38 0b a1 bd
       0.1296777 0.057841636 0.0016742 -0.07863468
0002a0 42 fb 48 be 6f 6e a9 bd 05 ad 56 bd 11 e7 3b bd
       -0.19627097 -0.08273017 -0.052411098 -0.04587466
0002b0 e8 4a 33 3e ab 91 36 bd 55 fb 19 bc 27 00 43 3c
       0.17509043 -0.044572514 -0.009398301 0.011901892
0002c0 18 ec 4a bd 6a 5b 9d ba b8 95 2a 3c ed bb cd bd
       -0.049541563 -0.0012005393 0.010411672 -0.100456096
0002d0 1a 5d c3 3d 25 a2 d8 3d 77 6b 1f 3e d1 b8 f6 bc
       0.09539242 0.105778016 0.15568338 -0.030117424
0002e0 52 54 12 be 62 c3 71 bd 7e f7 53 3d af e8 23 bd
       -0.14289978 -0.059024222 0.0517497 -0.040016826
0002f0 48 ca 92 3d cf c3 ea 3d 9b fc 04 3e de 40 df 3d
       0.07167488 0.11463129 0.12986986 0.10901044
000300 f9 e6 e6 bd cc e6 3f be af c1 56 3d 22 a7 6b 3d
       -0.11274523 -0.18740386 0.052430805 0.057532437
000310 22 72 4f 3d 8d 4f 13 bd a9 36 89 3d 54 c2 86 3d
       0.050645955 -0.035964537 0.06699879 0.06580034
000320 f5 29 d9 bd 5f 1e e4 3d 68 1c 4a bd 8e 1b 1f 3e
       -0.10603706 0.11138605 -0.049343497 0.15537855
000330 26 c7 8b bd 3c e7 06 be 20 4c 39 3d d4 d3 4a 3d
       -0.06825094 -0.13174146 0.045238614 0.04951842
000340 17 57 69 be 24 dd 1b 3d 81 1f be 3c 0d 0f 5d 3e
       -0.22787128 0.038052693 0.023208382 0.21587773
000350 10 fc 7b bd d4 39 9c 3d 6a 2e 10 bd c3 6c 61 3d
       -0.061519682 0.07628217 -0.035200514 0.055035364
000360 ab 18 2c 3d 80 bc 51 3d d7 4b 87 3c 00 ec 8e 3c
       0.042015713 0.05120516 0.016515655 0.017446518
000370 9b 49 25 3e 4f 23 59 3d 23 3d 69 3c ed cd ab 3d
       0.1614136 0.05301219 0.014235768 0.083888866
000380 2b 4b 9e bd 9e c5 a9 3d b4 0f c1 3d 83 23 1a bb
       -0.07729181 0.082896456 0.09426823 -0.0023519702
000390 72 cb 75 bd 81 c5 6d 3e 3d 51 68 bd 35 ca b1 bc
       -0.060008474 0.23219873 -0.0567181 -0.021702865
0003a0 24 9f 0c 3c 47 b0 be 3b 21 59 c2 bd 01 b7 74 3d
       0.008582864 0.0058193537 -0.09489656 0.05974484
0003b0 41 e0 99 bc 8a a0 03 3d 41 d7 46 3e c4 3a a7 3d
       -0.01878369 0.032135524 0.1941805 0.081655055
0003c0 c9 d5 5f 3d 81 a7 51 3e 69 c2 97 bd 25 0f a4 3d
       0.05464724 0.20474054 -0.07410128 0.08010701
0003d0 14 a2 3a 3c 68 2b 98 3d 22 f3 12 bc 16 cb 0b 3e
       0.0113911815 0.07430154 -0.0089691 0.1365169
0003e0 79 39 99 3d f1 58 71 3d ed 39 6f 3d 52 dc a8 bd
       0.07481665 0.05892271 0.05840485 -0.08245148
0003f0 81 df ae 3c 26 22 d3 bd 8d 0e c8 3b 0d 77 7a bd
       0.02134681 -0.10309248 0.00610525 -0.061148692

encoder.model.2.1.weight f4 [16]
000000 6e b7 35 3f 69 79 7e 3f 5f c3 58 3f 70 56 76 3f
       0.70983016 0.9940401 0.8467311 0.96225643
000010 1f c5 5e 3f d7 e7 49 3f 42 56 20 3f ad cf 89 3f
       0.8701953 0.78869385 0.6263162 1.0766503
000020 02 87 33 3f 71 dd 2f 3f 6f 39 81 3f 26 7e 4e 3f
       0.7012788 0.6869727 1.0095652 0.8066124
000030 cf ab 54 3f 80 49 65 3f a6 37 75 3f 4e f9 49 3f
       0.8307466 0.8956528 0.9578804 0.78896034

encoder.model.2.1.bias f4 [16]
000000 a7 1e f7 3d b1 ce c5 3d 79 9d 7b 3e 25 f2 93 3d
       0.12066393 0.09658564 0.2457179 0.0722392
000010 13 09 25 bd 69 ca d8 3d 6d d5 aa 3d eb ad b5 bd
       -0.040291857 0.10585482 0.08341489 -0.08871063
000020 f5 08 66 3e d9 9d cc 3c 67 e1 06 be cc 67 d8 3d
       0.22464354 0.024977611 -0.13171922 0.10566673
000030 1d 3b a2 3d b7 7d b9 bd bf 3e a8 3d ce 26 1d 3d
       0.07921431 -0.09057181 0.08215093 0.038367085

encoder.model.2.1.running_mean f4 [16]
000000 b0 ac b2 be 6e cd 7e be dc fe 7d 3e 5b 8b 2f 3f
       -0.34897375 -0.24883053 0.24804252 0.68572015
000010 86 9b 9e bd 6e 12 0e bf 03 8f bd bd ba 48 23 bd
       -0.077445075 -0.5549687 -0.09255793 -0.03986428
000020 68 e1 82 bd 6e 95 cf 3e 54 43 8b bf 9f 3d eb bb
       -0.06390649 0.40543693 -1.0879922 -0.0071789767
000030 f2 e6 d3 bd ce 81 de 3e e0 fe 5e bf f0 39 25 bf
       -0.10346784 0.43458408 -0.8710766 -0.6454153

encoder.model.2.1.running_var f4 [16]
000000 4d 9f e0 3e 87 70 8c 3f d3 4b 2e 3f 2b da 9e 3f
       0.43871537 1.0971841 0.6808445 1.241033
000010 0a 66 1a 3f 21 61 07 3f 24 a0 95 3e 43 52 36 3f
       0.6031195 0.5288258 0.2922374 0.7121927
000020 04 04 2f 3f 18 29 d5 3e 0d c7 48 3f fd 7b 07 3f
       0.683655 0.41632915 0.7842873 0.52923566
000030 7f 33 14 3f db 8b 68 3f 44 8b 7a 3f e7 12 f0 3e
       0.57891077 0.908384 0.9786875 0.4688942

encoder.model.3.0.weight f4 [16, 16, 3, 3]
000000 6c 88 88 bd 2b 76 a6 bc 0e c0 45 3d 22 77 0c 3d
       -0.066666454 -0.020320019 0.04827886 0.0342933
000010 d8 bf d1 ba a9 73 9c bd 82 72 57 3c b0 03 c0 bd
       -0.0016002608 -0.07639248 0.013149859 -0.09375703
000020 54 1e 3e 3d 47 6f d5 3c ee 95 73 bc ad 30 e1 bb
       0.046415642 0.026054038 -0.014867289 -0.0068722577
000030 43 6c 93 3c 6e c6 e3 3c a9 9e 1a bc 76 b3 ae bd
       0.01799596 0.02780458 -0.009437242 -0.08530323
000040 ac 52 05 3e 20 3b 9f 3d 4c 00 b5 3d fa fc 14 bd
       0.13019818 0.07774949 0.08837947 -0.03637407
000050 ff b1 5a 3d 90 d3 42 3d d5 ff 58 bd 84 d6 c2 bd
       0.053392407 0.047565043 -0.052978355 -0.09513572
000060 82 e2 df bd 06 ef e3 bd 07 ed 89 bd 9c b9 44 be
       -0.10931875 -0.111295745 -0.067346625 -0.1921143
000070 7d e1 7e bd 6d 94 4a 3d 30 3a 31 bd ca e4 c8 3d
       -0.06222676 0.049457956 -0.043268383 0.09809263
000080 36 ec 14 3e 3d ce 0e bd d2 f1 a1 bb c1 f9 7a bd
       0.14543232 -0.034864653 -0.0049421573 -0.06127334
000090 7b 7e 31 bd e8 00 26 3c b0 8a 94 bd 75 93 d3 bb
       -0.04333351 0.010132052 -0.07253015 -0.006456787
0000a0 f6 c1 58 3d 67 ef 12 3d bf c0 09 be 2f c1 3b be
       0.05291935 0.035872843 -0.13452433 -0.18335412
0000b0 1d e4 90 bc 19 2b ef 3d d0 66 93 bc 0d 03 59 3c
       -0.017686898 0.11678142 -0.01799336 0.013245356
0000c0 cf 48 c8 be a4 c0 02 be 0b 8e d9 bc fe a4 b0 bd
       -0.3911805 -0.12768799 -0.02655699 -0.0862522
0000d0 db 97 af 3c af 78 4d 3c 11 72 a4 bd 11 d7 8e bd
       0.021434715 0.01254098 -0.08029569 -0.069746144
0000e0 09 c0 18 bd 70 4d 3a be 42 83 04 bd de 6d 24 3c
       -0.037292514 -0.18193603 -0.03235174 0.01003596
0000f0 10 99 c3 3b 4b d6 7b bd d2 8c b9 bb b9 22 23 be
       0.005969174 -0.061483663 -0.005662539 -0.15931214
000100 b6 08 fc bd 69 d3 cf 3d 8d a0 11 3c 62 a6 09 be
       -0.12306349 0.10147745 0.008888376 -0.13442376
000110 c8 0b 69 be 96 71 8e 3d 5f f7 8b bd 1b 4f 03 3e
       -0.227584 0.069552585 -0.06834292 0.12823145
000120 ba 39 07 be 46 26 0b 3d 4b 16 14 be ad 71 64 3c
       -0.13205615 0.033972047 -0.14461629 0.013943118
000130 c3 48 fa 3d 0a 90 f5 3b c0 54 29 3d a1 0d 24 3c
       0.122209094 0.0074939774 0.04134059 0.010013015
000140 f1 64 89 bd 04 6f 24 bd be 15 00 bc 15 c5 c9 bc
       -0.06708706 -0.040144935 -0.007817684 -0.024630109
000150 a7 59 22 3d 47 a8 57 ba 29 9a a1 3d ed f3 61 3a
       0.03963628 -0.00082266744 0.07890732 0.00086194166
000160 d2 bb 73 3d 5f 2b 62 bd 74 47 ce 3d ac 53 c2 bd
       0.05950529 -0.055217143 0.10072222 -0.094886154
000170 75 5b c9 bd f0 7a 4e bd d0 ff 76 bd 4d 96 38 3d
       -0.09831897 -0.05041021 -0.060302556 0.045065213
000180 0b f1 d0 3d 59 26 6a be f3 cc 82 bd d2 5b d9 bd
       0.10202225 -0.22866191 -0.06386747 -0.106132165
000190 34 6d 8d 3c 52 39 2b 3b bb 37 5b 3e 16 ca da 39
       0.017263986 0.0026126695 0.21407978 0.00041730766
0001a0 d0 ce be bd 87 e6 ab bd e5 7a 80 bc a7 ac e6 3b
       -0.0931679 -0.08393579 -0.0156836 0.0070396247
0001b0 a3 37 ba bd b8 ea 80 bd 6a d4 80 3d e1 9f e4 3d
       -0.09092643 -0.06294769 0.06290515 0.11163307
0001c0 1f 32 94 3d 1d 3e 91 3b 5e 4d 8a bb 98 06 b4 3d
       0.07236122 0.0044324533 -0.0042206487 0.0879032
0001d0 5a fd f0 bd f9 88 13 be 07 22 4c bd 55 8d 1e 3e
       -0.11767073 -0.1440772 -0.04983714 0.15483601
0001e0 c8 f4 4b be 56 83 12 bd 50 62 19 3e 77 c8 7f bc
       -0.19917595 -0.035769783 0.1497891 -0.015611759
0001f0 7d cd 31 bd 29 3b 52 3c 24 44 66 be 03 f9 0c bc
       -0.04340886 0.012831488 -0.22486931 -0.008604291
000200 e4 cb 72 3c 6d 9a a9 bc 35 ca 22 3d 8b 06 ed bd
       0.014819119 -0.020703519 0.03974362 -0.115735136
000210 92 f0 85 3c 3a dc 53 bc b1 a7 4b bd af f3 a8 bd
       0.016350064 -0.012930924 -0.04972047 -0.08249604
000220 83 c0 6f 3d d9 fe 72 bd 69 c8 ad 3d a3 aa 72 be
       0.058533203 -0.059325073 0.08485491 -0.23697905
000230 d2 aa 12 bd ba 5c 3e 3e ab 9e 39 bd 74 ec 8f 3d
       -0.03580744 0.1859006 -0.045317333 0.07027522
000240 d9 80 fb ba d0 c4 7a 3d 42 f0 39 bc 9d 93 db bd
       -0.001918818 0.06122285 -0.011348786 -0.107215144
000250 1e 1a a3 3d 2f 5e 39 3e 32 76 5a bd 7f f8 67 be
       0.07963966 0.18102334 -0.053335376 -0.22653387
000260 f9 40 b8 3d e9 33 f7 3d cd a1 61 3d 94 67 a3 3b
       0.089967676 0.12070448 0.055085946 0.0049867127
000270 40 26 08 bd 7a 7b dc bd 03 50 7d bc c6 2c 81 be
       -0.033239603 -0.10765739 -0.015460971 -0.25229472
000280 59 08 b5 bd 33 1b 15 3e d5 8f 1f 3e ef a2 46 3d
       -0.08839483 0.14561157 0.15582211 0.04849523
000290 04 35 22 3e 4a 7f c8 3b 73 1d f3 3d b1 d0 59 3d
       0.15840536 0.0061186897 0.11870851 0.05317754
0002a0 18 77 b5 bd 21 79 16 3d f1 4c 51 bd fb 37 8e 3d
       -0.08860606 0.03673661 -0.051098768 0.06944271
0002b0 91 97 10 3c db fc 0d 3d 98 e7 67 3d 00 fd 5e b9
       0.008825199 0.03466497 0.05661735 -0.0002126582
0002c0 4c c5 12 bd 01 4e ab 3d ba 5f 1d be 94 f8 8a bd
       -0.03583269 0.083644874 -0.15368548 -0.06785694
0002d0 dd 78 8b bd ca 77 1b 3e 2b c2 96 bc 31 3e 4c bd
       -0.06810162 0.15182415 -0.018403133 -0.049863998
0002e0 6b ae 8a bd e4 00 83 bd 1a 16 ec be ee 17 00 be
       -0.06771549 -0.06396654 -0.46110612 -0.12509128
0002f0 42 52 aa 3d 9e b6 fd 3d eb db 55 3d 33 23 4e bd
       0.08316471 0.12388347 0.052211683 -0.050326537
000300 9b 6b 81 3c 0d 08 d1 bc d2 a1 ab 3d 6e 21 eb 3d
       0.01579838 -0.025516534 0.08380474 0.114809856
000310 e7 d5 b8 bd 88 84 af bc 18 19 49 3d b2 e5 da bb
       -0.09025174 -0.0214255 0.049096197 -0.006680214
000320 d3 02 08 3e f0 a4 58 3c ca 24 5f 3d a4 c6 71 3c
       0.13282327 0.013222918 0.054478444 0.014756832
000330 ce 4e 8d bc bf 28 b9 3d 73 f8 90 3d 15 1f 9f bd
       -0.017249491 0.09040975 0.07078638 -0.077696
000340 7a 39 8f 3c 8f 60 f9 3d 1a 25 95 3c 64 21 4b bd
       0.017483462 0.1217662 0.018206168 -0.04959239
000350 9d 13 31 bc 44 d0 4c be 9e 4e 99 bd 23 2d 55 bc
       -0.010807899 -0.20001322 -0.07485698 -0.01301125
000360 88 8d 9d 3d 11 ef 22 3d dd c3 87 3d 57 13 01 bc
       0.076930106 0.039778773 0.06629155 -0.007878146
000370 1b 82 86 3d 1e 01 12 bd 41 af ef 3d e9 be 63 3d
       0.065677844 -0.035645597 0.11703349 0.055601988
000380 82 0f 93 bd 1e 46 93 bc 88 6b 05 3d 0d d0 2e 3c
       -0.07180692 -0.01797777 0.032573253 0.01066972
000390 ed 1b 76 bd 7c c0 ad 3b 1b 44 71 3b 67 8c 22 bd
       -0.060085226 0.005302487 0.0036814276 -0.03968468
0003a0 4e 1f dd 3c 19 27 d4 bd d7 0c 06 3d fb f5 6d 3d
       0.026992466 -0.1035902 0.03272709 0.058095913
0003b0 8a 06 7e 3c b0 eb 96 3d 2d 7f 62 bd d7 f2 ba 3d
       0.015504489 0.073691726 -0.055297066 0.09128349
0003c0 f3 da 07 be dc 60 90 3c 8c e0 83 3c f3 e1 dc 3d
       -0.13267116 0.017624311 0.016098283 0.10785284
0003d0 b6 fe 0d bd 6c e6 d8 3d 8f ce 91 3d 53 dd 85 3d
       -0.03466674 0.105908245 0.07119476 0.06536355
0003e0 03 c6 9f 3b 05 4b 14 be 76 01 a2 bd 93 79 63 3e
       0.0048758998 -0.14481743 -0.07910435 0.22214346
0003f0 01 25 a5 bd 7b ee e0 bb 32 28 93 3d 86 ab 03 3d
       -0.080636986 -0.0068643666 0.07185401 0.032146

encoder.model.3.1.weight f4 [16]
000000 ea 3d 4f 3f 3c 6a 46 3f d5 71 45 3f 0e 69 38 3f
       0.8095385 0.7750585 0.7712682 0.720353
000010 da 9e 55 3f c5 fd 4d 3f ad 36 45 3f 4a 2a 2e 3f
       0.83445513 0.80465347 0.77036554 0.6803328
000020 b1 65 56 3f c7 42 45 3f bb e8 50 3f 75 84 4a 3f
       0.8374892 0.7705502 0.8160512 0.79108363
000030 84 db 52 3f 5f 97 4d 3f 40 ef 4c 3f b1 a4 55 3f
       0.82366204 0.803091 0.80052567 0.83454424

encoder.model.3.1.bias f4 [16]
000000 01 96 79 bc 6a 08 3c 3d 91 0b 64 3e c0 3a 5d 3d
       -0.015233518 0.04590646 0.22270037 0.054011106
000010 79 80 4c 3d 97 05 ce 3c e3 6e 52 bd d5 27 2f 3d
       0.04992721 0.02514915 -0.05137528 0.042762596
000020 e3 de 7f 3d bc 1d 30 bd 52 41 03 bd c6 03 3c bd
       0.06246842 -0.042997107 -0.032044716 -0.045902036
000030 f3 d7 19 3d 2a 6d ae 3d 60 0b f4 3d 7c bc c5 bc
       0.03755946 0.08516915 0.11916232 -0.024137728

encoder.model.3.1.running_mean f4 [16]
000000 78 28 44 bf dd f5 bd 3c ac e2 95 bb 5c 26 2b bf
       -0.7662425 0.023188526 -0.0045741405 -0.66855407
000010 be 8e a0 be 16 31 19 be 64 00 fc be cb f0 65 bf
       -0.31358904 -0.14960131 -0.49219048 -0.89820546
000020 86 8d 83 bd 82 b5 08 bf eb 3f 5f bf 3d b7 c8 be
       -0.06423478 -0.5340196 -0.87206906 -0.392023
000030 6b c0 30 3e 32 7a 9c be 0c bc 5e 3e 96 23 00 bf
       0.17260902 -0.30561978 0.21751422 -0.500543

encoder.model.3.1.running_var f4 [16]
000000 e0 d4 ae 3e 66 bb f2 3e 21 61 99 3e ef 41 6e 3e
       0.34146786 0.474086 0.29956916 0.23267339
000010 7a 5a 17 3f 63 3e 05 3f b0 a3 ab 3e ba 53 98 3e
       0.5912243 0.5204832 0.3352332 0.29751378
000020 e2 8e 06 3f c8 a8 a4 3e 3a 1a 04 3f bc 7a f3 3e
       0.5256177 0.3216002 0.5160252 0.47554576
000030 20 f0 0e 3f ef da cb 3e eb 98 17 3f da a9 11 3f
       0.5583515 0.3981547 0.5921771 0.568998

encoder.fc.0.weight f4 [16, 64]
000000 13 3c f2 3c b9 87 c6 bc fd 5e f0 3d cd a1 20 bd
       0.029569661 -0.02423464 0.117368676 -0.039216805
000010 10 8c a2 3d 22 1a f9 bd 98 31 a8 3c 28 3b 8d 3d
       0.07936871 -0.121631876 0.02053146 0.06896049
000020 de d1 64 3b b1 6d 42 bc 91 eb a2 3d 2c 59 37 be
       0.003491513 -0.011866973 0.07955087 -0.1790511
000030 a1 4a 14 bc dd 7f 06 be 09 81 94 3c 06 1c 5f bb
       -0.009050996 -0.13134713 0.018127935 -0.0034043803
000040 a2 41 4a 3e 34 93 3a be 57 cf 88 bd f9 91 f6 3c
       0.197516 -0.18220216 -0.06680172 0.030098902
000050 dc c2 8c bd 0d a6 bf 3d 59 08 44 3d 79 91 8c 3c
       -0.06873104 0.093578435 0.047859523 0.01715921
000060 30 21 94 3c f7 5c 3c 3e bc b9 66 bd 8f 32 2e bd
       0.018082231 0.18394838 -0.056329474 -0.042528685
000070 b0 02 3f 3d a5 df 28 3e 3c a0 9e 3d c9 7e 4f 3c
       0.046633422 0.16491564 0.07745406 0.012664505
000080 a7 2c 90 3d 7e 50 e0 bc 6c c4 66 3c 56 71 03 bd
       0.07039767 -0.027382132 0.014084917 -0.032090507
000090 c0 0c cf bc 40 c0 f2 3c d6 4f 62 bd 78 c8 08 3e
       -0.025274634 0.029632688 -0.05525192 0.13357723
0000a0 1e bd 4c 3d 9b bd 31 bc c8 cb ba bc 0c 92 1c bd
       0.049985044 -0.010848428 -0.022802249 -0.03822522
0000b0 3e c3 c6 3b bb 5b 90 3d c6 43 6c bd b4 15 11 bd
       0.006065755 0.07048746 -0.05768182 -0.03542109
0000c0 c0 1f 77 3d c7 6c ce 3c f0 ea a7 3d c5 e5 ec 3c
       0.060333014 0.025198353 0.08199108 0.028918156
0000d0 85 4f 73 bd 7e 94 91 3d 40 d9 ce 3d 0f dd ae bd
       -0.059402008 0.07108401 0.10100031 -0.08538257
0000e0 94 ff 48 bc c2 4f 93 3d b2 8c 07 3e e3 84 0a be
       -0.012267966 0.07192947 0.13237265 -0.13527255
0000f0 2a 2c 08 bd 16 67 50 3e 0b 8b bd 3c 05 54 a5 3d
       -0.033245243 0.20351824 0.02313759 0.08072666
000100 33 d2 14 3d f1 0b bd bd 7e eb 9c 3c 30 2b e1 3c
       0.036333274 -0.09230793 0.01915526 0.027486414
000110 34 01 8b 3c 2e 16 8a 3e 2e 8d e2 3c e4 b3 b4 3d
       0.016968347 0.26970047 0.02765521 0.08823374
000120 dc b6 58 bd d6 59 2f bb ef d7 de bd 03 80 c9 3c
       -0.052908763 -0.0026756427 -0.1088103 0.024597174
000130 b4 23 86 bd 95 78 c2 bb 50 13 2d be 8d 02 bf 3d
       -0.065497786 -0.0059347847 -0.16901898 0.093266584
000140 f2 e3 a2 bd 4a c8 e2 3d e7 80 f1 bb 23 e7 3e bd
       -0.07953633 0.11073358 -0.0073701027 -0.046607148
000150 43 6a 91 3c 60 fc c8 3d 7e b0 3e be c3 a9 0e bd
       0.017750865 0.09813762 -0.18622014 -0.034829866
000160 dc b9 ec bc 34 7b 6b bd f6 fa ba bc a4 d1 4b 3d
       -0.028897218 -0.057490543 -0.022824746 0.049760476
000170 11 bf 41 3d 40 48 be 3a d2 15 41 bc 19 a0 1c 3d
       0.047301356 0.0014517382 -0.0117849875 0.03823862
000180 6c 3e 85 bb 07 d0 0e 3e fa 86 74 bc 34 ba 35 3d
       -0.004066279 0.13946544 -0.014924759 0.04436703
000190 a1 55 cb bd c0 8b 92 3e e8 88 b7 bd bd 81 e0 bc
       -0.09928442 0.28622246 -0.0896166 -0.027405614
0001a0 22 a8 1d bd 8a 86 12 3d c1 b4 e0 3c 0a 14 3a be
       -0.038490422 0.035772838 0.02742994 -0.18171707
0001b0 0d eb 94 3c 55 6d 20 be fe cb 85 3c 2b 75 9b 3d
       0.018178487 -0.15666707 0.016332623 0.075907074
0001c0 60 0a a8 ba b6 10 37 be b5 98 3a be 46 d8 cf 3c
       -0.0012820475 -0.17877468 -0.18222316 0.025371682
0001d0 96 59 9f ba b0 dc a2 3d 68 4b 3d be 31 ea d1 3d
       -0.0012157436 0.07952249 -0.18485796 0.102497466
0001e0 65 ad 77 3d 04 bb 44 3e e8 04 51 bd 5e 45 18 be
       0.060468096 0.19211966 -0.05103007 -0.14870211
0001f0 ec a3 4a bd 32 95 dd bc bd 9a 75 bd 15 99 34 bd
       -0.049472734 -0.027048681 -0.059962023 -0.044091303
000200 86 51 01 b9 a7 d9 65 3d 13 1f a0 bb ed ad 3f 3d
       -0.00012332769 0.056115773 -0.004886517 0.046796728
000210 da 6f 19 bd d0 84 bb bc fa 5b ec bd 3b 79 f0 3c
       -0.037460186 -0.022890478 -0.11540981 0.029354682
000220 33 53 af 3d 9d d6 01 bd d3 61 86 bd e0 47 09 bd
       0.08560791 -0.03169881 -0.06561627 -0.03351581
000230 cf 3e 72 ba c8 bd 12 bd 6f e7 27 bd 1a 52 e4 bc
       -0.00092409266 -0.03582552 -0.040992197 -0.02787118
000240 df de f9 bd c8 1d 09 bd 25 26 c7 3c 71 db d1 3c
       -0.122007124 -0.033475667 0.02431018 0.025617333
000250 46 3b 11 bd 91 28 e4 3d 3e fa 2b be e9 89 eb 3c
       -0.03545692 0.1114055 -0.16794679 0.028752284
000260 e8 3d 25 bc d8 5c 0c 3d 94 7b dd 3d 93 a5 fd 3d
       -0.01008556 0.03426823 0.10814586 0.123850964
000270 34 99 0b 3d de b6 79 bc 02 19 2f 3c ae 86 18 be
       0.034081653 -0.015241353 0.010687115 -0.14895126
000280 eb e0 08 3e c5 e4 71 3d 47 55 15 bd f8 62 71 bd
       0.1336705 0.059056062 -0.03645828 -0.058932275
000290 8a 3c 63 3d b5 e2 e0 bd 69 9f 62 bd fd db a4 3d
       0.055477656 -0.10980741 -0.055327807 0.08049772
0002a0 9a f5 8e 3d 69 7d 59 3d 05 5f 67 bd 73 df 65 3d
       0.069804385 0.053098116 -0.056487102 0.0561213
0002b0 2e 55 0a 3d 5d 13 d6 3d 8c c3 66 3d 1a a9 0c 3e
       0.03377264 0.10452912 0.05633883 0.13736382
0002c0 b7 3a 96 bd 4e fd 16 3c 57 56 21 3d a7 6c dd 3d
       -0.07335418 0.009215666 0.03938898 0.108117394
0002d0 5c d5 80 bc c8 a9 b7 bd be 92 ef bb 72 4d 39 bd
       -0.015726738 -0.0896793 -0.007311194 -0.045239873
0002e0 66 74 60 bc 96 6b b2 bd 28 80 d5 bd 1e 3f c1 3c
       -0.013699627 -0.08711927 -0.104248345 0.023589667
0002f0 04 02 77 bd 2c 9a 5e 3d 1b 48 fe 3c c9 e7 f5 bd
       -0.060304657 0.05434625 0.031040242 -0.120071
000300 13 bf b7 bd 93 de 32 bd 7f d2 b7 bc 40 fc 43 3e
       -0.089719914 -0.043669295 -0.02243924 0.19139194
000310 4b db 9c bd 76 a6 cd be 74 0c 04 bd fe 86 87 bd
       -0.07659014 -0.40166062 -0.03223844 -0.066175446
000320 45 ef 91 3c da 4a b3 3c ca 8b 8b bd 16 27 47 bc
       0.017814288 0.021886278 -0.06813772 -0.012155315
000330 88 da 00 3c cd 55 23 be f9 7a a8 3d de f9 50 bc
       0.007864602 -0.15950699 0.0822658 -0.0127548855
000340 5b 7e 40 3e e8 53 07 be 79 e7 09 3d 5e 4f 83 bb
       0.18798201 -0.13215601 0.033668015 -0.004007264
000350 02 ff a3 3c f4 44 bc be 7f 96 2c 3e b8 fb 3d 3d
       0.020019058 -0.36771357 0.16854285 0.046382636
000360 41 d5 30 3d 58 9b 18 3d 1b d8 67 3d ff a4 0f bd
       0.043172125 0.037257522 0.05660258 -0.035069462
000370 12 2c 7d 3d ce e5 0f 3d a8 49 15 be cf 08 1c 3e
       0.061809607 0.03513127 -0.14578879 0.15237735
000380 15 2c 84 bc c3 13 1c 3d ed ab f7 3b 1d 31 c8 3d
       -0.016134301 0.038104784 0.007558337 0.097749926
000390 1b 1f df bd be ae c4 3c 0e aa b9 bd a1 d9 9e bd
       -0.10894605 0.024009105 -0.090656385 -0.07756353
0003a0 f7 f1 86 be 63 38 11 3d 0f 65 e9 bd 9d 93 af bd
       -0.2635648 0.035454165 -0.113962285 -0.08573077
0003b0 37 98 2a bd 92 a5 3b be ec 70 c2 3d 8c bf 9b bd
       -0.04164907 -0.18324879 0.094941944 -0.07604894
0003c0 28 a6 b2 3c ef 7b 92 bd 00 45 0e bc ce ca 6c bd
       0.021807745 -0.07152545 -0.008683443 -0.057810597
0003d0 b8 b3 b4 3b 49 24 20 be 0e 1b 3f be a6 d9 26 bd
       0.005514588 -0.15638842 -0.18662664 -0.04073491
0003e0 06 d8 d4 bd 49 ce af be 87 97 8d 3d 60 a3 5c bd
       -0.10392766 -0.3433707 0.06913667 -0.053866744
0003f0 46 58 cb 3c 62 cc 17 be e2 71 8a 3c fc d2 98 be
       0.024822365 -0.1482406 0.016900007 -0.29848468

encoder.fc.0.bias f4 [16]
000000 c9 0c 5e 3d fa 0e 64 bc e4 42 1a 3d 98 92 63 bd
       0.05421141 -0.013919586 0.037661448 -0.055559725
000010 6c 21 4b bd 86 27 67 bd 1d a4 3f 3c d1 ab 80 bd
       -0.04959242 -0.056434177 0.0116968425 -0.062827714
000020 93 5d 9c 3d d5 f3 ee 3b d7 30 95 3d a7 45 04 3d
       0.07635035 0.0072922506 0.07284706 0.03229299
000030 85 89 6c 3d ac 82 99 3d ba 1e 90 3d a4 ad 52 3d
       0.057748336 0.07495627 0.070371106 0.051435128

decoder.fc.0.weight f4 [64, 16]
000000 90 c0 b4 bd 81 80 7e bd 50 d5 ba bd 5d 85 81 be
       -0.08825791 -0.06213427 -0.091227174 -0.2529706
000010 36 5c e2 3d 81 6a 71 3c 82 73 59 bc 12 ee 8e 3c
       0.11052744 0.014734865 -0.013272168 0.017447505
000020 04 32 bd bd de a5 49 3d 3c 36 ee bd e3 7c 93 3d
       -0.09238055 0.04923045 -0.11631438 0.072015546
000030 11 52 ad 3d 0d ec 96 3d cf 50 8b 3a e7 25 b7 3e
       0.084629185 0.07369242 0.0010628941 0.35771105
000040 c4 65 8e bd b9 a2 d9 3d e5 28 a3 bd d3 a7 91 3d
       -0.06953004 0.1062674 -0.079667844 0.07112088
000050 9a 06 cb bc 62 9e 16 3b 1c cc 4f bd 19 ce 4c bd
       -0.024783421 0.0022982587 -0.050731763 -0.050001238
000060 b5 e6 93 bd c7 8d 35 bd 01 c9 6d be 81 c9 11 be
       -0.07221738 -0.044324663 -0.23221208 -0.14237024
000070 07 90 93 3c ca a1 0c 3e 51 a0 35 bd ec 49 9b bd
       0.018013014 0.13733593 -0.044342343 -0.07582459
000080 23 b7 85 3d d9 36 4b 3e bc 42 6a bd 86 fa 96 be
       0.06529071 0.19845141 -0.05719255 -0.2948801
000090 31 d4 fd bd 94 62 cf bd 37 bf 8f bd 63 11 75 bc
       -0.12393988 -0.10126224 -0.07018893 -0.014957759
0000a0 60 6f 69 3d 30 3d 52 3d 29 77 66 bd cc f6 49 3e
       0.05699098 0.051327884 -0.056265984 0.19723052
0000b0 36 62 3c 3d fa f4 bd 3d 66 49 10 3e d4 87 22 3e
       0.0459921 0.09275241 0.140905 0.15872127
0000c0 07 1d f6 3d 62 63 c6 be 51 d0 4d be 60 e3 22 3e
       0.12017255 -0.38747698 -0.20098998 0.15907049
0000d0 2c ee 43 3e 81 26 e7 3d 38 38 ee 3d 1d 63 8d bd
       0.19133824 0.11286641 0.116318166 -0.0690367
0000e0 93 a4 83 3e da 08 32 3e 05 6e b8 bb 45 0a 93 3c
       0.25711498 0.17386189 -0.0056283497 0.017949233
0000f0 4a d3 1e bd a4 cd 4e 3d 85 80 bb 3d a2 2d 9e 3c
       -0.03877572 0.050489083 0.091553725 0.019308869
000100 b6 8a 01 3e 78 e8 02 3e 39 ac fa bc 7d a3 01 3b
       0.1265057 0.12783992 -0.0305997 0.0019781284
000110 79 55 9b bc ce 1c 45 3d bc 23 85 3c c2 70 57 3e
       -0.018961655 0.048123173 0.016252391 0.21039107
000120 ea ea d2 3d b1 a9 2e 3e 74 7f 7d 3e a2 eb 59 3e
       0.102987126 0.1705692 0.24755651 0.21281293
000130 6c 64 a9 3d d9 32 b0 3d 91 d6 80 bd 89 d1 8a be
       0.08271107 0.086034484 -0.06290925 -0.27112988
000140 ee 8e 87 3e a6 59 b2 bc d8 46 82 3d e4 4d 03 be
       0.26476234 -0.021771263 0.063611686 -0.12822682
000150 36 6c 37 be c9 3c a5 3d ae 9b 77 3d e2 39 08 3a
       -0.17912373 0.080682345 0.060451202 0.00051966135
000160 98 58 15 3e 71 ba f8 bd d2 a3 b7 3d b0 90 17 be
       0.14584577 -0.12144936 0.08966793 -0.14801288
000170 b9 22 85 3c 53 2d ec bd a1 c9 3c 3e c2 78 96 be
       0.016251909 -0.115320824 0.1843629 -0.29389006
000180 3c 52 a2 3b 1b 94 a6 3d 6a 32 e0 bd 8b 0e 91 be
       0.0049536508 0.081337176 -0.10947116 -0.28331408
000190 ef 72 12 3d 26 b4 4e 3e 1e ac ad bd 6e 7f b0 3d
       0.03575414 0.20185909 -0.084800944 0.08618055
0001a0 95 87 f2 3d c2 ca c4 3c ed 4e 89 3e 9c bc 89 3d
       0.118422665 0.024022464 0.26818028 0.067254275
0001b0 6b dc 50 3d 64 f4 02 3d e4 8a 18 be 5a 06 8d 3d
       0.050991457 0.03197135 -0.14896733 0.06885977
0001c0 37 92 bd 3d a8 ce b6 bd 84 dc ab be a0 d9 08 bd
       0.09256404 -0.08926135 -0.33566678 -0.03341067
0001d0 d2 cf 25 be ac 81 78 3e ee 57 e0 3d 0c 8f a5 3d
       -0.16192558 0.24268216 0.10954271 0.08083925
0001e0 48 4a 18 be 37 7e b0 3d 77 e3 20 3e 86 e9 c8 bc
       -0.14872086 0.086178236 0.15711771 -0.024525415
0001f0 5c f2 13 3e 41 69 e0 3d 57 c0 e2 3d ab b1 18 3e
       0.14447922 0.109575756 0.11071842 0.14911525
000200 32 2a b0 bd 04 f2 16 be d0 e3 bb bd 09 25 06 3e
       -0.08601798 -0.14740759 -0.09174311 0.13100065
000210 a8 68 27 bd 70 02 9e 3e 4a f5 2f be 50 b7 a3 3d
       -0.040871292 0.30861235 -0.17183414 0.079939485
000220 bb c5 3c 3e e6 76 40 be d9 bb 6e be 63 86 6e 3e
       0.18434803 -0.18795356 -0.23313846 0.23293452
000230 cf c0 35 bd 73 84 6d bc f7 35 69 3c c4 d1 9e 3c
       -0.04437333 -0.01449691 0.014234058 0.019387133
000240 b0 17 3e bd cf b9 2b 3d 0e 64 5f 3c 50 39 40 be
       -0.04640931 0.041925248 0.013634695 -0.18771863
000250 81 39 84 3d 1c 23 97 bd 2b e1 f3 bd ba 5d bc 3b
       0.064562805 -0.073797435 -0.11908182 0.0057484778
000260 ae ca c6 bd d8 fe 7a bd 25 cd 88 3e 9e 86 da bd
       -0.09706627 -0.061278194 0.26719013 -0.106702074
000270 ed 75 35 3e 97 8c 25 3e e9 4f 50 3e 4a 6c 88 bc
       0.17720766 0.16166912 0.20342983 -0.016653199
000280 91 fd ac bd 56 d2 ed 3d 50 4a 37 bd bc 44 93 3d
       -0.084468015 0.11612384 -0.044748604 0.071908444
000290 9e 90 1d 3e a7 ef 57 3d ca 01 f7 3c 9c 26 f5 3b
       0.15387198 0.052718785 0.03015222 0.0074814092
0002a0 80 f3 84 bd a1 a8 66 bd 8c 3f ce 3d 73 55 f8 bd
       -0.064917564 -0.05631316 0.10070714 -0.12125673
0002b0 73 3b 1f 3e b1 36 99 3b bc 9c c9 bc 29 b5 dd bd
       0.15550022 0.004675709 -0.02461087 -0.10825569
0002c0 da 5e 9c bd f9 8b c0 3d 81 f0 52 3e e0 3c 4e bd
       -0.07635279 0.09401698 0.20599557 -0.050351024
0002d0 01 d2 fe 3d e8 fa f9 bd 97 b5 1a be e5 e4 81 3d
       0.12442399 -0.1220606 -0.15108334 0.06342486
0002e0 5b e3 1e 3c b1 59 5f be 1e 38 8b 3e 94 19 87 be
       0.00969776 -0.21811558 0.27191252 -0.26386702
0002f0 4f 1b 7a 3e dc ac ce bc e2 64 82 be c2 75 99 bd
       0.2442448 -0.02522891 -0.25467592 -0.07493164
000300 92 53 7c be 55 ff 55 3d 36 ef 60 3d f5 20 f4 bd
       -0.24641255 0.052245457 0.05491563 -0.119203486
000310 8e 5f ab 3c 5a 77 3e 3e 0c c5 e0 bd 87 23 b7 bd
       0.020919587 0.18600217 -0.10975084 -0.08942323
000320 ba 88 8d bd 49 bb e9 ba 5a 24 f8 bd 84 c5 00 3c
       -0.06910844 -0.0017832305 -0.121163085 0.007859591
000330 b5 e7 b9 bb 46 df 7a 3d 34 d5 1c ba a7 c0 0e 3e
       -0.0056733736 0.061248086 -0.00059826975 0.13940679
000340 8a 74 e9 bd 83 bc 10 3e f4 07 3a be 72 9d cd bb
       -0.11399181 0.14134412 -0.18167096 -0.0062748725
000350 0b 83 21 3e 7a 7d 34 3d 2e 57 ca be 71 f8 01 be
       0.15772645 0.044064976 -0.39519638 -0.12692429
000360 0a a5 08 bd bb 9f ee 3c e6 fb 8c 3d 4d 59 7c bd
       -0.03336052 0.0291289 0.06883983 -0.0616086
000370 22 00 8c bc 00 cc ee 3d 02 0d 60 bd 27 50 2f be
       -0.017089907 0.11660004 -0.054699905 -0.1712042
000380 cd b6 b0 3c 5a 98 51 3a 46 e5 97 bd 83 cd ae 3d
       0.021571541 0.00079954194 -0.07416777 0.08535292
000390 41 32 db 3d 48 6e 19 3e aa 8f 91 3d b7 fb 2f bb
       0.107029445 0.14983475 0.0710748 -0.0026852915
0003a0 0d cd a9 bd 96 40 9e bd ac f2 3d be 27 e0 eb bd
       -0.082910635 -0.077271625 -0.18549603 -0.11517363
0003b0 cd 7d 92 3d ad 6a 92 3e 23 71 50 3d 79 f2 9f 3a
       0.07152901 0.28597012 0.050889146 0.0012203
0003c0 89 f9 1e 3e 16 15 bb bd cd 5d 3b 3d 40 9d a4 bd
       0.15524878 -0.09134881 0.045743752 -0.080378056
0003d0 82 a6 6c 3b 35 96 32 3e 53 d9 d8 bd 62 03 05 3d
       0.0036109989 0.17440112 -0.10588326 0.03247393
0003e0 43 dc 55 be a3 f4 40 3e 9d cf 2e be 9a a9 0f be
       -0.20884804 0.18843322 -0.17071386 -0.14029542
0003f0 cd 8b bc 3c cc 80 5d be a3 4c 04 3e 15 30 5a be
       0.023015881 -0.21631163 0.1291986 -0.21307404

decoder.fc.0.bias f4 [64]
000000 9e 68 0a 3e ab 8c f3 3d 9f d1 7e 3d 74 d0 ee bd
       0.13516471 0.11892065 0.06221163 -0.11660853
000010 32 c7 19 3d 45 a1 96 3d cc 43 9a 3d 7e 29 06 3e
       0.037543483 0.073549785 0.075324625 0.13101766
000020 9b 3d ec bd 88 26 f3 3d 3a 30 4f 3e 11 2e e0 3d
       -0.11535188 0.11872584 0.2023324 0.109462865
000030 51 c9 a5 bc 9c 04 1a be 9f 5f ff bc 5a 39 70 3e
       -0.020237597 -0.15040821 -0.031173525 0.23459378
000040 98 7b 67 be 30 01 3a 3e 87 94 63 3e 54 b4 d1 3d
       -0.22605741 0.18164515 0.22224627 0.10239473
000050 89 9c 95 be 77 6b 1a 3e bf 06 0f be 44 01 4b bd
       -0.2922099 0.15080057 -0.13967417 -0.049561754
000060 b0 bb 18 bd 1b 5e 9c be 86 77 47 be ae 6f 55 3e
       -0.037288368 -0.30540547 -0.19479188 0.20843384
000070 be ad 20 be 6e 0b e2 3b 38 46 12 be a9 51 77 bd
       -0.15691277 0.006898335 -0.14284599 -0.06038061
000080 ff 7b 04 3d 2a 36 8d bd 51 c7 e7 bd a2 3c 66 3e
       0.032344814 -0.068950966 -0.113173135 0.22484067
000090 29 0b f3 3d d0 92 01 3e c0 35 2a 3d b3 f4 4a 3b
       0.11867363 0.12653661 0.041555166 0.0030968606
0000a0 91 14 81 3d 87 7c 26 be 26 65 47 3d c7 63 6e bd
       0.06302751 -0.16258441 0.048680447 -0.058200624
0000b0 dd 73 5a 3d f9 43 49 3e fd 1b 40 bd 01 d9 97 bd
       0.053333152 0.19654836 -0.04690169 -0.07414437
0000c0 7f 53 27 3e 91 85 50 be 3b d8 15 3d 58 55 9e 3d
       0.16340445 -0.20363452 0.036583167 0.07731122
0000d0 df 4e 39 3d 28 de 8c 3d 87 fe f4 3d 24 11 f2 3b
       0.045241233 0.068783104 0.1196261 0.007387297
0000e0 c7 34 0c be f1 1c 6f be 48 d1 c1 bd 31 1a 4f 3e
       -0.13692008 -0.23350884 -0.09463745 0.20224835
0000f0 1d c7 02 3e 0b bd df 3d ff a1 cb 3d 1b 67 5e 3c
       0.12771268 0.10924729 0.09943008 0.013574387
