data/models/1672100367_kuzushiji_course_autoencoder.pth (torch, 66155 bytes, 45 tensors)

encoder.model.0.0.weight f4 [8, 1, 3, 3]
000000 d7 5a 8a bd dd e7 e5 bd 07 d1 bf bd b9 9c 8a bd
       -0.067556076 -0.11225865 -0.09366041 -0.06768174
000010 fb 1e 1e 3e 74 76 9f bd af bc 9c 3d 60 c1 33 bf
       0.15441506 -0.07786265 0.07653176 -0.7021694
000020 af 72 84 bc 75 c3 aa 3d e6 7c e8 3d 71 48 be 3b
       -0.016167967 0.08338062 0.113519475 0.0058069755
000030 df 0e 3c 3e ae 40 e3 3e 3f e8 88 bc 58 4d 4f bc
       0.18365048 0.44385284 -0.016712306 -0.0126527175
000040 25 59 25 3d 27 fc 2e bd 7b 2e e5 3b a6 71 f1 3c
       0.040368218 -0.04272094 0.0069940663 0.029473137
000050 04 1b 33 3d 6c 3b 1b 3b fa 4c ee 3d e1 1e 53 3e
       0.043726936 0.0023686541 0.11635776 0.20617248
000060 93 0c cc 3d 41 68 b4 3e be ce a0 3e 2d e7 11 bd
       0.09963336 0.3523579 0.31407732 -0.035620857
000070 5e 52 17 bc ad 12 fe 3d 26 1d 81 bd ff 0a 05 3e
       -0.009235946 0.12405906 -0.06304388 0.12992476
000080 3b 74 b8 3e 61 8f bc bd 8d d9 c6 3c b3 ae 3e 3e
       0.36026177 -0.09207035 0.024273658 0.1862133
000090 a8 95 9f 3b 0f ca e0 bd f1 88 0a bd 7d d9 92 bd
       0.0048701353 -0.109760396 -0.033822004 -0.07170389
0000a0 18 9d 34 bd 2e 54 92 bd 52 07 0f be cd b6 e1 3e
       -0.04409513 -0.07144962 -0.13967636 0.44084778
0000b0 b0 2c a1 be 3d 59 3f 3d 80 6a 02 3a 3e 1c 41 3d
       -0.31479406 0.046715964 0.0004974976 0.047146074
0000c0 7c 7a 90 3e fe 68 70 3e 56 78 0a 3e 57 77 dd 3e
       0.28218448 0.23477551 0.13522467 0.43255112
0000d0 0c 70 0c 3e a3 75 02 3c 33 2f f0 3c c4 af 33 bf
       0.13714617 0.007962617 0.029319381 -0.7019007
0000e0 38 d3 c9 3a 37 3e 0d bc 3a 4c 98 3e 24 f5 ec bc
       0.0015398031 -0.00862079 0.29745656 -0.028925486
0000f0 0e 93 71 bd aa 5a 39 3e a8 a3 be 3c fa 2c 3a bc
       -0.058978133 0.18100992 0.023271397 -0.011363262
000100 5a e6 18 be dc 68 38 be 00 5c 26 bd 56 2e be be
       -0.14931622 -0.1800875 -0.04061508 -0.37144727
000110 16 41 ed be 43 36 a6 3d d0 6e b5 bc 34 f1 32 bd
       -0.4633872 0.08115818 -0.022147566 -0.04368706

encoder.model.0.1.weight f4 [8]
000000 7d d6 45 3f 28 0d 5d 3f 75 bf 4b 3f 6f 7c 41 3f
       0.7728041 0.863482 0.79589015 0.75580496
000010 ed 05 fa 3e d4 87 63 3f ba 03 ea 3e e6 0d 3d 3f
       0.48832646 0.8887913 0.45705968 0.7384933

encoder.model.0.1.bias f4 [8]
000000 a3 ea a4 3e 22 11 20 3d 9d fc 02 bf 19 26 f8 be
       0.32210264 0.03907884 -0.5116671 -0.48466566
000010 7a c3 0d be 42 fe c7 be cb 29 12 bd aa f5 28 3d
       -0.138441 -0.3906117 -0.035684388 0.04124991

encoder.model.0.1.running_mean f4 [8]
000000 90 d8 55 be 1d c0 3c 3e 45 69 8a 3e ee 6d 14 3e
       -0.20883393 0.1843266 0.2703344 0.1449506
000010 40 6d 9c bd cc 47 9b 3e be 19 70 bd 9f 12 8e be
       -0.07638025 0.30328214 -0.0586183 -0.27748582

encoder.model.0.1.running_var f4 [8]
000000 c4 4b e0 3d 57 65 aa 3d 30 e9 14 3e 14 4e 82 3d
       0.10951951 0.0832011 0.14542079 0.063625485
000010 91 ef 03 3d f2 91 3b 3e 21 cf 71 3d 38 56 2e 3e
       0.03221089 0.18317392 0.059035424 0.17025077

encoder.model.1.0.weight f4 [8, 8, 3, 3]
000000 69 39 b0 bd 69 9e 29 bd fb 35 86 3d 0f 3d 5c be
       -0.086047 -0.041410837 0.06553265 -0.21507667
000010 28 11 dd 3d f0 91 ce 3d 66 7f 12 be 8c f2 fa 3d
       0.10794288 0.10086429 -0.14306411 0.122532934
000020 43 86 2c 3b b5 95 ec 3d 53 80 83 3b c6 21 54 bd
       0.0026325143 0.11551992 0.0040131 -0.05179002
000030 d2 55 0b 3e d1 30 10 be 35 91 0b bd a4 c3 d7 3d
       0.13606957 -0.14081122 -0.034074027 0.10535362
000040 28 13 f1 bd f7 24 eb bc cb 5d 4e be de 2f 33 be
       -0.11771232 -0.02870415 -0.20152967 -0.17498729
000050 fd 5f 7e bd 62 a5 80 bd 69 05 be bd 79 3f 95 3c
       -0.06210326 -0.06281544 -0.09278376 0.018218743
000060 02 91 0f be d8 a3 19 bd 44 fa 84 bc 95 a2 af 3d
       -0.1402016 -0.03750977 -0.016232617 0.08575932
000070 a6 4f 39 3d 68 4f c0 3c c6 70 c0 3d 37 c1 96 bc
       0.045241974 0.023475364 0.0939651 -0.018402679
000080 d8 fd b7 bb 32 5f dd 3d ac 2c ea bd 07 82 2e bd
       -0.0056149773 0.10809173 -0.11434302 -0.042604472
000090 ee 91 56 be 27 53 fd bc 53 d4 5b 3d 2c 9f 42 be
       -0.20954105 -0.03092344 0.053669285 -0.19006032
0000a0 fd 67 90 3d 34 4e 85 3d 23 60 d4 bd 5e 34 7f 3d
       0.07051084 0.06509057 -0.10369899 0.0623058
0000b0 18 02 69 bc da 00 45 3e 20 d8 0f bd b3 c0 9f bd
       -0.014221691 0.19238606 -0.035118222 -0.07800426
0000c0 9f 50 6a 3e df 50 ad bd d7 83 d8 bd 13 ce f8 3d
       0.22882317 -0.084626906 -0.105720215 0.121486805
0000d0 b4 c6 0d be 86 3b 6a bd 6b ae 5e bd 3a b9 43 3d
       -0.1384533 -0.057185672 -0.054365557 0.047784068
0000e0 0b ba 8d 3c 05 99 45 be f9 d6 33 3d 12 2d 6c bd
       0.017300626 -0.19296654 0.043906186 -0.05766017
0000f0 f6 84 e7 bd 9a ee 3a 3d fc 95 9c 3c b4 df f1 3d
       -0.11304657 0.045637704 0.019114487 0.11810246
000100 ed f9 04 3c 1d c0 0f bd 10 68 95 3d cf 4f e4 bd
       0.008116228 -0.035095323 0.07295239 -0.11148035
000110 01 6f 40 bd 56 36 97 3d 0f 02 b7 bd 18 7b 1d bd
       -0.04698086 0.07383411 -0.089359395 -0.03844747
000120 77 5d a8 bc e0 5a 6c 3d e8 be 37 3d be d3 72 bd
       -0.02055238 0.057703853 0.044859797 -0.059283964
000130 f7 80 57 be aa 3d 7d bd 19 c3 16 be bf 56 c5 be
       -0.2104529 -0.061826386 -0.14722861 -0.38542745
000140 d7 96 07 be 84 0a 34 3c 3a ed 1a bd 61 3b 82 bd
       -0.13241135 0.010988835 -0.037823893 -0.06358982
000150 29 7e 11 3d 09 29 f0 3d e8 3e a6 bb 58 9e 9d 3d
       0.035520706 0.11726577 -0.005073417 0.07696217
000160 4c fb b7 3e 45 4f 11 3e f5 8d 94 bd 11 31 09 be
       0.35933912 0.14190395 -0.07253639 -0.13397624
000170 1b 31 3d 3d 40 a8 70 3d 8b 48 c6 3d b6 a7 8b 3d
       0.04618941 0.058754206 0.09681805 0.06819098
000180 17 80 db 3d 31 34 d6 3c 74 a8 5b 3d b0 f8 6a 3c
       0.107177906 0.026147934 0.053627446 0.014341518
000190 cf ec b9 3c aa 62 86 3c b7 3a ed bc b0 84 74 3d
       0.022695927 0.016404469 -0.028958661 0.059696853
0001a0 65 68 85 bc c7 30 94 3b c7 70 1d 3e 0e 15 a1 3d
       -0.01628513 0.0045224163 0.15375052 0.07865344
0001b0 41 57 a5 bc c4 cb d2 3c 3d 6c 36 3d d1 64 34 bd
       -0.020183207 0.025731929 0.044536818 -0.04404146
0001c0 01 c9 4c be 0b c2 1d bd 83 4b ed bd bf 89 36 be
       -0.19998552 -0.038515132 -0.11586668 -0.17825983
0001d0 e4 7e c8 bd 41 be 8b bc 54 17 b2 3c 82 20 9b 39
       -0.097898275 -0.017058494 0.02173964 0.00029588124
0001e0 59 3d 77 bd 4d 5c d5 3d 83 96 f0 3d 24 e7 00 bb
       -0.06036124 0.104179956 0.11747458 -0.001966902
0001f0 e0 f0 99 3e 30 98 c0 3d b9 c3 03 3d a9 14 59 bc
       0.30066586 0.094040275 0.032169078 -0.013249555
000200 92 a9 df 3b c9 74 57 3d 12 55 ee 3c 15 cb 27 3d
       0.0068256343 0.05260161 0.029093299 0.04096516
000210 cc b6 e4 3d 38 aa 02 be 64 6d 34 bd db 1b 98 3c
       0.11167678 -0.12760246 -0.044049636 0.01856797
000220 76 1f eb bc a1 1e 8c bc e2 21 8f 3d f1 99 bc 3d
       -0.028701525 -0.017104449 0.069888845 0.092090495
000230 fb f8 2f 3d 48 c5 2e 3e 2e 3c ba 3e 18 9c 24 3e
       0.042962056 0.17067444 0.36374038 0.1607517
000240 24 da 28 3d e5 37 a5 bd 49 54 43 be 20 12 3c 3c
       0.04122366 -0.08067302 -0.19075121 0.011478931
000250 ca 22 06 be 37 42 92 be 83 eb b3 bb 71 69 9d 3d
       -0.13099208 -0.28566143 -0.0054907217 0.07686127
000260 0e 38 06 bc 26 f0 d6 3c e5 5b 12 3d 9f 24 26 3e
       -0.008192075 0.026237559 0.03573217 0.16224907
000270 7c f6 c7 bc 61 78 0c 3d 01 d4 7b 3e 11 11 98 bc
       -0.024409525 0.03429449 0.24592592 -0.018562825
000280 9e 01 c9 bc 8e 05 9f 3d a7 ec 0c bc ce 61 c3 3d
       -0.024536904 0.07764731 -0.008601344 0.09540139
000290 e8 89 f5 3d 23 da 13 bc 3c f2 ae 3d b8 e2 56 3d
       0.11989194 -0.009024176 0.08542296 0.05246231
0002a0 c7 6a c7 3c 29 fc a7 bd b6 52 fa 3b 8b 43 5d bd
       0.024342908 -0.082023926 0.0076392544 -0.054019492
0002b0 17 a5 1c 3c 2c 22 8f 3e 7b bd 84 bd 4e 97 30 3c
       0.009560845 0.2795576 -0.06481453 0.010778261
0002c0 b2 2f a3 3e bb e8 07 3c 40 cd 14 bc 5b 9a eb 3d
       0.31872326 0.008295233 -0.009082139 0.1150405
0002d0 db 3c 5e 3d 00 b3 46 bd 15 93 60 be 0c f3 8b bc
       0.054257255 -0.04851055 -0.21931107 -0.017083667
0002e0 32 85 af bd be e0 16 be d6 57 17 bc ee 8b df 3c
       -0.08570327 -0.1473417 -0.00923725 0.027288403
0002f0 f0 0d 4e 3c 7e 00 27 3c 31 ed ce bc af 55 54 3e
       0.012576565 0.010192988 -0.025259586 0.2073581
000300 4c 44 c9 bc de cd 40 3d c0 f8 7c 3e c0 c0 7b 3d
       -0.0245687 0.04707133 0.24704266 0.061463118
000310 45 b4 a4 3d 58 72 be 3a 11 21 eb bc e0 d6 e7 3c
       0.08042196 0.0014529927 -0.02870229 0.028300703
000320 2c 1b 9d bc b2 cb 60 3d ed e2 bd 3d 8e 85 6e be
       -0.019177996 0.05488176 0.09271798 -0.23293135
000330 01 54 98 3c b8 d7 82 3c 80 7a ed bd 2e b6 fb 3c
       0.018594744 0.015972003 -0.11595631 0.030726518
000340 a9 c4 ba 3d 1f c1 4c 3e 8a 70 14 3c ae 67 ab 3d
       0.09119541 0.19995545 0.0090600345 0.08369385
000350 34 a7 29 3e 09 ee 10 bd 3f d8 8a bc 5c c4 db 3c
       0.16567689 -0.035383258 -0.016948817 0.02682703
000360 57 fa 2e bc 86 14 02 3e e8 2b 24 3c 93 a5 aa bd
       -0.010679803 0.12703142 0.010020234 -0.08332362
000370 71 98 08 be 15 19 9b 3d 33 c2 0b be 84 98 e7 bd
       -0.13339402 0.075731434 -0.136483 -0.11308387
000380 39 e2 df 3b b5 c6 e5 3b 3c e5 08 be 70 b0 10 bc
       0.0068323878 0.007012213 -0.13368696 -0.0088311285
000390 f8 d0 16 3e bd 0e 3f 3e cf 3c 3b 3c f2 39 0e 3e
       0.14728153 0.18657966 0.011428072 0.13889292
0003a0 a3 5b 92 3d 1d fe a3 bd 74 a7 32 bd 43 71 6e 3c
       0.071463846 -0.08007453 -0.043616727 0.014553371
0003b0 c6 00 a9 3d 56 1a 44 3e 90 44 a5 bc 6c 11 0b be
       0.08252101 0.19150671 -0.020174295 -0.13580865
0003c0 06 73 25 3e db 04 2c 3e 89 89 cb 3a 6c 23 01 3e
       0.16157159 0.16798727 0.001552866 0.12611169
0003d0 4e e7 5e bd b3 bf 22 bd 5c 76 4a 3e 7b b6 49 3e
       -0.054419808 -0.0397336 0.19771713 0.19698517
0003e0 82 6a 9f bd 4b 80 49 3e d7 4b 72 bd c6 04 a1 bd
       -0.07783987 0.19677846 -0.059154358 -0.078622386
0003f0 81 56 6c bc 9f bf d4 3c f9 c3 2e 3c a0 d3 8c bd
       -0.014424921 0.025970278 0.010666841 -0.06876302

encoder.model.1.1.weight f4 [8]
000000 83 de 42 3f 7e a3 53 3f ee f8 58 3f ef ec 45 3f
       0.76120776 0.82671344 0.84754837 0.77314657
000010 c9 98 3e 3f 36 78 88 3f 1e ed 13 3f 9f e4 7b 3f
       0.7445188 1.0661685 0.5778369 0.98395723

encoder.model.1.1.bias f4 [8]
000000 05 17 66 be cb 73 85 3e 1a 4b b4 3e 7f 56 37 3e
       -0.22469719 0.26064906 0.35213548 0.1790409
000010 71 e7 42 3e 62 a6 f4 3e 3f 81 f9 3d 0e 6d 9b 3e
       0.190336 0.4778319 0.12182855 0.3035664

encoder.model.1.1.running_mean f4 [8]
000000 6b cb 44 be 04 f8 46 3e d3 3f 94 3e fe b6 ac 3e
       -0.19218223 0.19430548 0.28954944 0.33733362
000010 4f d5 05 3e 17 a8 38 bf c7 c7 19 3e 83 69 48 bf
       0.13069652 -0.72131485 0.15017615 -0.78286

encoder.model.1.1.running_var f4 [8]
000000 35 e2 8b 3e 99 8d 3b 3f c4 cd 3b 3f 08 b5 06 3f
       0.2732102 0.73262936 0.7336085 0.5261998
000010 6f 8a cf 3e b4 89 b4 3f 95 aa bf 3e 72 64 ca 3f
       0.40535304 1.4104524 0.3743483 1.5811903

encoder.model.2.0.weight f4 [16, 8, 3, 3]
000000 6d 9f 27 be 21 ad 57 bd 0e 19 43 3e c5 49 1b 3b
       -0.1636941 -0.052655343 0.19052526 0.0023695093
000010 1a a1 76 3d d7 e6 d6 bd 6b 92 83 3c 14 09 93 be
       0.060212232 -0.10493248 0.016061028 -0.28717864
000020 54 d8 bb 3d 2f 01 af bd f9 5b 7d bd 27 c1 22 be
       0.09172121 -0.08545148 -0.06185529 -0.15893994
000030 c7 c5 56 3d 45 da 48 bd bf d4 7c bd bc 37 c6 bd
       0.05243471 -0.049036283 -0.061726328 -0.09678599
000040 25 90 52 bd 03 8b bb bd 78 d1 a8 3d f5 37 05 3d
       -0.051407 -0.09157374 0.08243078 0.032524068
000050 1d 92 81 3d 8a dd 01 3d 01 8b af 3d e4 55 d5 bd
       0.06326697 0.031705417 0.08571435 -0.10416773
000060 05 87 2b bc 43 ea 2e be a1 e5 e8 3d 29 77 13 3e
       -0.010469203 -0.17081551 0.11371923 0.14400925
000070 3d 5d f9 3c 9e 00 fb 3b 4b 7d be be 31 cc ef bc
       0.030439967 0.0076599857 -0.37204966 -0.02927217
000080 c6 39 3f 3d 36 af 02 bd c7 2a 80 be 04 33 9b 3c
       0.046685956 -0.031905375 -0.25032637 0.018945225
000090 77 34 dc 3d 9b ee e2 3d d4 e7 68 3d cc 4e aa bd
       0.107521944 0.11080667 0.056861714 -0.083158106
0000a0 60 ea d3 3d 9f f7 57 3d b2 00 ef bd 85 79 80 bd
       0.10347438 0.052726384 -0.116700545 -0.06273178
0000b0 a1 02 29 3c 6e be 5a 3d d5 a1 e4 3c b6 22 ed bd
       0.010315568 0.053404264 0.027909199 -0.11578886
0000c0 70 8d 86 3d 3c 06 42 3d ca 44 b1 3b 39 85 35 3d
       0.06569946 0.047369227 0.0054098116 0.044316504
0000d0 9d fa 84 3d 6b b5 0b be 25 ea 1b bd f9 51 f4 3c
       0.06493113 -0.13643424 -0.038065095 0.029824244
0000e0 40 d0 01 3d ab 7e 86 3d 45 f2 c4 bd 1a e2 04 bd
       0.031692743 0.06567129 -0.09616522 -0.03244219
0000f0 81 6c 3d 3c b5 a1 1c be 9a aa ad 3d 66 1b ed 3c
       0.011561514 -0.15296061 0.08479805 0.028943729
000100 11 06 3c bd ed a8 49 be d0 ea 43 be 93 94 76 3d
       -0.045904223 -0.19693346 -0.19132543 0.060200285
000110 5d c9 e3 bd aa c1 1d 3e 5b 8e b1 bd d8 7a ee 3c
       -0.111223914 0.15405908 -0.0866973 0.02911131
000120 a2 b9 1c 3e fa d0 9b bd cc bf aa 3d f1 3b 63 bd
       0.15305188 -0.076082185 0.083373636 -0.055477086
000130 a7 a1 d8 bd 73 74 2f 3b 5b eb ab bd b9 7a bb 3d
       -0.10577708 0.002677229 -0.083945 0.09154267
000140 c9 c2 ab 3c d1 77 df 3c 83 0d 03 3e 65 88 a1 3d
       0.020966904 0.027278813 0.12798123 0.07887343
000150 d3 b0 43 3d c4 cb 89 3b 58 2f f3 3d 96 77 b8 bd
       0.047776055 0.004205199 0.118742645 -0.09007184
000160 48 37 b4 bc 48 df 9c 3c ce 4b 10 3d 09 7c a9 3d
       -0.021999016 0.019149438 0.035228543 0.08275611
000170 b6 ca 0f 3d 4d ef 37 bd 78 ef 4d 3d cf c8 0d 3e
       0.03510543 -0.04490595 0.050277203 0.13846134
000180 be 07 e8 3b a9 c3 30 3d 44 9d 4b be 7c db 85 bd
       0.007081001 0.043155346 -0.19884211 -0.06536004
000190 52 11 8e 3d 14 6d 9c bc 3a 91 8c bd 61 2c d8 bc
       0.06936897 -0.019094981 -0.06863637 -0.026388349
0001a0 ee 17 c5 3d b4 b7 d0 bd 0a 27 1f be 0b 69 12 3d
       0.09623705 -0.101912886 -0.15542236 0.035744708
0001b0 90 c6 14 3e 62 7a 28 3d 15 5b 99 3d 60 82 15 bd
       0.1452887 0.04113234 0.07488076 -0.03650129
0001c0 9b 8a 58 bd 35 8d 3e 3e aa 00 24 bd c1 80 0f be
       -0.05286656 0.18608554 -0.040039696 -0.1401396
0001d0 e0 4c d6 3a 4c 44 31 3e 0f 43 20 3e cb 2d a9 3d
       0.0016349815 0.1731121 0.15650581 0.082606874
0001e0 3d 32 07 be b1 b5 df bd 05 93 5f be 7b 12 cb 3d
       -0.13202758 -0.10923327 -0.21833427 0.09915634
0001f0 48 93 72 3c 7c 38 eb 3d 0d 9b 74 3d 6a 99 1d 3d
       0.014805622 0.11485383 0.05971818 0.038476385
000200 b3 b5 c0 bd de 61 d9 3c 25 23 84 bd 1d 60 e4 3d
       -0.094096564 0.026535925 -0.06452016 0.11151145
000210 6f fe 12 3e d6 b7 14 3c 93 a3 ad bd 39 13 dc 3d
       0.14354871 0.009077033 -0.08478465 0.10745854
000220 c1 50 9f bc 9d 20 dd bd a3 62 3c bd 07 e2 c5 3d
       -0.019447686 -0.10797236 -0.045992505 0.09662252
000230 2a 2b da be 10 ed a7 3c 29 e7 d2 3d a4 1f 00 3d
       -0.42611057 0.020498782 0.102979966 0.031280175
000240 70 10 38 3e 0f cb d2 bd 99 7a c9 bc 29 c3 d0 3d
       0.1797502 -0.102926366 -0.024594592 0.10193474
000250 9e 62 33 bd fc 2c 9b 3d 43 bc 2f 3c b3 03 9f 3c
       -0.04379522 0.075769395 0.010726037 0.019410944
000260 7b ec 8b 3d ae e0 5e be 3c 29 93 bd 9f 8e 44 3e
       0.068322144 -0.21765396 -0.07185599 0.1919503
000270 e3 06 18 be 08 27 21 bd 70 38 d7 bd 43 0b 3f be
       -0.14846377 -0.039343864 -0.105088115 -0.1865664
000280 72 16 24 3e 05 eb 91 3c 83 6b e8 bd 74 aa 51 bc
       0.16024187 0.017812261 -0.11348631 -0.012796987
000290 27 a6 ac bd 32 e0 6c 3d f4 de 3f 3c 38 70 24 be
       -0.084301285 0.057830997 0.011710871 -0.16058433
0002a0 fa 4b 30 bc 94 23 2c bc 1c 01 c3 3d e5 45 cc 3d
       -0.010760302 -0.010506529 0.09521696 0.09974269
0002b0 d7 4a e2 3c e0 f8 56 3e 1c b3 28 be ee 44 88 bd
       0.027623577 0.20993376 -0.16474575 -0.06653772
0002c0 9f 7e 1a 3e ad 8e ee bd 87 f7 43 bc bc 61 a6 bc
       0.15087365 -0.11648307 -0.011960871 -0.020310275
0002d0 fe 49 cf bd a3 4f 58 3c 6e 2d 0f 3d a4 5b 18 be
       -0.10121535 0.013202581 0.034955435 -0.14878708
0002e0 fb 4c c2 3d 36 b3 9b 3c 29 22 8b bd f6 8c 0f bd
       0.09487339 0.019006353 -0.06793625 -0.03504654
0002f0 67 b0 e0 bd f7 07 f0 bb bf f7 e7 3c 88 0d 58 3e
       -0.10971146 -0.0073251682 0.028316377 0.21098912
000300 a2 1e 96 3d d9 f0 6a bd d2 a9 9b bd aa a0 c3 3d
       0.073300615 -0.057358596 -0.0760075 0.095521286
000310 2b af 30 be 92 09 68 bd a1 ac 5b 3d 33 29 96 3d
       -0.17254321 -0.056649752 0.05363143 0.07332077
000320 44 0a 0d 3e 93 58 05 3e ce 37 bb bc 4e 35 1e be
       0.13773447 0.1302207 -0.022853758 -0.15450022
000330 b6 13 1b bd c0 d4 b3 bc 41 12 4f 3c 19 df 23 3e
       -0.037860595 -0.021952033 0.012638629 0.16003074
000340 ea 4e 23 bd 22 8b b8 bd 70 5f c7 3d 3c 71 a2 bd
       -0.03987018 -0.090109125 0.09735 -0.07931754
000350 8f e5 99 bd cc 71 4e bd 1a 0e f5 bd 88 66 d5 bd
       -0.07514488 -0.050401494 -0.1196558 -0.10419947
000360 1b 8a c8 bd 5b 8d fc bc c6 a0 d1 bc 19 3d c1 bd
       -0.097919665 -0.030829122 -0.025589358 -0.094354816
000370 a7 1c 4f bd 99 60 82 bd 5f 94 a1 3d 1a 0a 08 3e
       -0.050564434 -0.06366081 0.07889628 0.13285103
000380 04 11 e3 3c 50 5d d9 3c ec 2b 28 bc d5 f5 5d 3c
       0.027718075 0.026533753 -0.010264378 0.01354738
000390 a7 97 8a bd b3 08 3c 3d 30 cf 03 3d 4c 35 49 3d
       -0.06767207 0.045906734 0.03218001 0.049123093
0003a0 c9 ad 1e be 50 05 90 3d 86 c9 0e 3d a9 59 20 3c
       -0.15495981 0.07032263 0.034860156 0.009787002
0003b0 22 f2 1b 3e a5 2f 6c 3e 4f 01 32 3e 1b fd 50 bb
       0.15229085 0.2306505 0.17383312 -0.0031889144
0003c0 1f e5 f4 3d 1e c0 1d be 6a 43 16 be 5c 46 a0 bc
       0.11957764 -0.15405318 -0.14674154 -0.0195648
0003d0 ce 4f 07 be 7a dd ce 3d d9 37 ab 3d 2c a9 d5 3c
       -0.13214037 0.10100837 0.083602615 0.026081644
0003e0 38 67 4e 3b 78 33 45 3d b7 74 b9 bc f1 83 06 3d
       0.0031494629 0.048144788 -0.022638662 0.032840673
0003f0 5b ca cc bd d4 fc 95 3c 4f 26 12 bd 46 85 1c 3e
       -0.09999534 0.018309034 -0.035681065 0.15285215

encoder.model.2.1.weight f4 [16]
000000 03 94 34 3f 9d c3 53 3f 16 c5 40 3f 0d 3a 55 3f
       0.7053835 0.8272036 0.7530073 0.83291703
000010 ef 47 84 3f 01 96 4a 3f ea 3a 48 3f 6d 43 86 3f
       1.0334452 0.7913514 0.78214896 1.0489327
000020 67 7f 82 3f f0 1f 4a 3f 1d 4a 49 3f 81 42 56 3f
       1.019513 0.7895498 0.7862871 0.83695227
000030 0c a0 73 3f 4c 61 62 3f ad 44 3f 3f a4 bc 57 3f
       0.9516609 0.88429713 0.74714166 0.8427222

encoder.model.2.1.bias f4 [16]
000000 50 48 1b 3e f3 bb 8d 3e 38 f3 17 3d fc 62 21 3e
       0.15164304 0.27682456 0.037097186 0.15760416
000010 bb 38 57 3d 6b 1b 2d 3e 95 cc 58 3e 6e c6 c6 3d
       0.052544337 0.1690499 0.21171792 0.09705816
000020 a3 1b fc bd 7d c1 c7 bd 74 33 22 3e 3a 64 f1 3d
       -0.12309959 -0.09753702 0.1583994 0.11786695
000030 54 e1 0a 3d 5f 8c 56 3c 3b 86 c0 3d ce 85 94 bd
       0.033906296 0.0130949905 0.094006024 -0.07252084

encoder.model.2.1.running_mean f4 [16]
000000 1e 62 07 bf ed 43 b5 3c e3 c9 02 bf 89 86 cd 3d
       -0.5288409 0.022127116 -0.51089305 0.10035426
000010 ba 2b 87 bf 35 e5 79 be 6a 27 11 3e 98 f3 06 be
       -1.0560219 -0.24403842 0.14175192 -0.13178861
000020 70 e4 67 be 4e 12 90 be 2f e2 53 be 6f 09 59 3e
       -0.22645736 -0.28138965 -0.20691751 0.21195005
000030 06 55 98 be 42 21 f1 bd 10 bd 27 3f cc 74 66 be
       -0.29752368 -0.117739215 0.6552286 -0.22505492

encoder.model.2.1.running_var f4 [16]
000000 4f 58 c4 3e c0 39 19 3f 45 a7 0b 3f 90 6e 33 3f
       0.38348624 0.59853745 0.5455211 0.7009058
000010 2b 3e 43 3f 63 e9 00 3f d9 d7 21 3f 3e ee 65 3f
       0.76266736 0.5035612 0.6321998 0.89816654
000020 82 f9 5b 3f 10 12 01 3f ec 4a d8 3e d3 19 0d 3f
       0.85927594 0.50418186 0.4224466 0.5511753
000030 1f 54 39 3f 54 7e 4d 3f 66 0b 08 3f ba 4f 5a 3f
       0.72393984 0.80270886 0.5314239 0.85277903

encoder.model.3.0.weight f4 [16, 16, 3, 3]
000000 01 46 7b 3d f9 a3 a8 bc 13 a6 10 3e 2c 1f 8b 3d
       0.061346058 -0.020586 0.14125852 0.06793055
000010 b9 fe 2d 3e 90 b4 37 be e7 9c 61 3b cf 3e 97 3d
       0.169917 -0.17939973 0.0034425796 0.07385027
000020 e6 44 48 3a cc 89 6b 3d 31 4c 36 3c bb b7 db bd
       0.0007639661 0.05750446 0.011126564 -0.10728403
000030 12 9f 15 bb f2 6f 43 3d 98 16 a2 3d a9 67 31 bd
       -0.002283041 0.04771418 0.07914466 -0.04331175
000040 b9 cc 9e bc c3 e4 31 bc 01 1d 5e 3c 40 3d d3 bd
       -0.019384729 -0.010857764 0.01355672 -0.10314417
000050 05 b5 45 3d 54 e0 08 bc 62 53 47 3d f6 12 a0 bd
       0.048268337 -0.008354265 0.048663504 -0.078161165
000060 71 24 25 3e ee 3b 65 3d ab 68 c8 3b 72 f9 5b 3e
       0.16127183 0.055965357 0.006115993 0.21481875
000070 ce fa 73 3d 87 7e 15 bd 4f 42 07 be 7f 76 ea 3d
       0.059565358 -0.03649762 -0.13208888 0.114483826
000080 a0 53 ea 3d 1e 58 ac 3d 01 64 8e 3d dd 7e 30 3b
       0.114417315 0.084152445 0.06952668 0.0026931085
000090 1e 01 b8 3b 24 a8 bc 3d c8 8d 0d 3e 5b bf 30 3d
       0.0056153676 0.09211758 0.13823617 0.04315124
0000a0 90 9c 7b 3d 99 8c dd bc 78 d3 19 3d 91 dd 2c be
       0.061428607 -0.027044581 0.037555188 -0.16881396
0000b0 6b 35 02 3e 82 5a 8f bd 7c fa 9e 3d 2e e8 39 3d
       0.1271569 -0.06999685 0.0776262 0.04538744
0000c0 c1 95 d2 3d 59 1b a4 3d e2 5e 89 bc f8 22 7f bd
       0.102824695 0.08013029 -0.016768876 -0.06228921
0000d0 05 25 5a bc d9 5e 81 3d 2b eb 4c 3d 25 4c 2e bb
       -0.01331449 0.06316919 0.05002896 -0.0026595679
0000e0 0f f3 27 bd a0 a4 97 3d ac ad 44 3c 10 97 e3 3d
       -0.041003283 0.074044466 0.012004297 0.11112797
0000f0 48 33 40 bd 62 f1 8a bd e0 a4 da bd d5 fc 75 3c
       -0.046923906 -0.06784321 -0.10675979 0.015013893
000100 a8 a0 9c 3d 05 4b 0c 3c cc 8b 86 bd 81 d7 df 3c
       0.0764783 0.008562808 -0.06569633 0.02732444
000110 39 7d 8c 3c 8e ef f2 bb 5a 0c f4 bd 00 25 7f bc
       0.017149555 -0.007413811 -0.119164184 -0.015572786
000120 9b c1 10 3c 61 b7 92 bc b8 99 90 be 24 96 81 3d
       0.008835222 -0.017909708 -0.28242278 0.06327465
000130 82 fc f9 3c df 60 47 bd 06 3e 50 be b9 27 3a 3c
       0.030515913 -0.048676368 -0.2033616 0.01136201
000140 6b e6 26 3e f8 df db bd 33 2a 88 3d 25 26 fd 3d
       0.16298835 -0.10736078 0.06648674 0.12360791
000150 09 15 05 3e f1 8e 6e bd d7 d6 b5 bc 4f 42 bc 3b
       0.12996306 -0.05824179 -0.02219717 0.0057452093
000160 71 dc 3d 3d 7c ea f9 bc 18 71 ab bb b7 a2 b6 3b
       0.046352807 -0.030507319 -0.0052319877 0.0055735963
000170 66 37 8e 3d 69 37 9d bd 8c 2b f1 bd fa 6e 0f 3e
       0.0694416 -0.07676584 -0.11775884 0.14007178
000180 e8 6b ab bc ac e2 8a bd 45 f2 d4 bd e4 4d 0d 3e
       -0.020925477 -0.067815155 -0.10397772 0.13799244
000190 5c fa b5 3c 2f 50 a1 bd 99 4b 98 3d 88 90 59 be
       0.022214107 -0.07876622 0.07436294 -0.2124654
0001a0 0d df 3d 3c 8b 97 2d 3c 3e 37 b2 bc aa ea 8a bd
       0.011588824 0.010595213 -0.021754857 -0.0678304
0001b0 2b 01 83 bd fa 55 27 bd d6 c7 17 3d 65 dd a5 bd
       -0.06396707 -0.040853478 0.037055813 -0.08098868
0001c0 7c ab 37 3d 78 2b 3e bd e8 30 51 3d 35 63 b0 3c
       0.044841275 -0.046428174 0.05107203 0.02153168
0001d0 4f 2d 69 bd 5b 97 4e bd ba 2d ac 3c 3b 95 c5 3d
       -0.056927975 -0.050437313 0.021017898 0.09647604
0001e0 b3 58 45 be 6f a8 77 3e e6 ba 9a bb db d6 f6 3d
       -0.19272117 0.24185346 -0.004721987 0.12052699
0001f0 4c 82 8d 3d a2 b8 69 bc e4 72 0c bc 6f 98 57 bc
       0.06909618 -0.014265211 -0.008572314 -0.013158902
000200 56 b0 3e bb cd 97 e4 3d 44 08 08 3d 18 d2 22 bd
       -0.0029096804 0.11161766 0.033211008 -0.039751142
000210 51 8b 96 3c 32 1b 00 3e a3 63 b0 3c 6a 5f 9e 3c
       0.018376978 0.12510374 0.021531885 0.019332606
000220 e5 87 90 bd 09 3d 1b 3d a9 47 e6 3c 35 fe d6 3d
       -0.0705717 0.037900005 0.028110342 0.10497705
000230 4b ee 6b 3d a2 01 c9 bc 1c bd 86 3d b5 d3 fe 3c
       0.0576003 -0.024536911 0.065790385 0.03110681
000240 7e b2 f4 3b ab 80 98 bd c7 33 83 bd 1e 17 97 3d
       0.007467567 -0.074464165 -0.0640636 0.07377456
000250 65 d2 db 3d 14 84 dc bd 5d 21 f4 bb f2 d2 1f 3d
       0.10733489 -0.107673794 -0.0074502663 0.039019533
000260 a2 0a 65 3d 2b dc 2c 3d e3 67 3b 3e 03 fa 0d 3e
       0.055918343 0.042202156 0.18301348 0.13864903
000270 4c 0d 08 3e a7 ad 39 bd 3a 20 21 3b 83 e9 41 3d
       0.13286322 -0.045331623 0.002458586 0.047341835
000280 1b dd 57 3c 48 bc 8d 3d a5 f7 86 bd 3a 8d 6f bc
       0.013175274 0.069206774 -0.06590203 -0.014621073
000290 9d bd 16 3e 97 49 b8 bd fa c8 9a bd 3e be f2 3c
       0.14720769 -0.08998411 -0.075578645 0.02963173
0002a0 a1 5e 63 3d c1 fa ef 3c 62 b0 24 bd 28 58 60 bb
       0.055510167 0.029294373 -0.040207274 -0.0034232233
0002b0 44 57 97 3d 11 4f 6a 3d 53 a5 0b 3c 4e 35 12 3e
       0.073896915 0.05720431 0.008523303 0.14278147
0002c0 02 bc 0a 3c 99 b5 cf 3b bd 22 1e bc 07 c2 49 3e
       0.008467676 0.006338787 -0.009651837 0.19702922
0002d0 1a 2d 84 3d c4 51 22 3e b0 d3 6f bd a8 9e cd bb
       0.06453915 0.15851504 -0.05855149 -0.006275017
0002e0 0a f8 4c bd ce 4d f6 3d 3a 90 07 3e 81 d5 16 be
       -0.050041236 0.12026559 0.13238612 -0.14729883
0002f0 bf 01 0c be 84 c5 ae 3d 52 57 44 bc f3 95 d3 3c
       -0.13672541 0.08533767 -0.011983709 0.025828337
000300 70 5a 87 bc 35 e0 52 3d 0e b3 b7 3c 80 b6 05 bd
       -0.016522616 0.05148335 0.022424247 -0.03264475
000310 50 27 bf bd f3 4a b8 3d 69 41 ce 3d 96 28 0f 3d
       -0.0933367 0.089986704 0.1007107 0.034950815
000320 ae e2 df 3c 07 27 07 bd 90 4a fb 3d 1d 9c b0 bd
       0.027329769 -0.032996204 0.12270081 -0.08623526
000330 f6 35 28 be cc 85 51 3d 6d 4a c8 3d bc 9f 78 bd
       -0.16426834 0.05115299 0.097798206 -0.06069921
000340 31 77 62 3d 19 89 0e 3d b6 44 e5 bd fd 0d 77 bc
       0.05528945 0.034798715 -0.11194746 -0.015079019
000350 60 8d ac bd 8c 38 6a be 09 37 2c bd f0 af e1 bd
       -0.08425403 -0.22873133 -0.042044673 -0.110198855
000360 7b a9 80 3c 70 62 3d 3c 92 31 b6 3d d6 b2 c2 3d
       0.015705815 0.011559114 0.088961735 0.095067665
000370 40 3a e4 3a eb 33 48 be ef 18 2c be a4 67 6c 3c
       0.0017412379 -0.19551055 -0.16806386 0.014429007
000380 77 db 17 bd c1 76 87 3d 90 4e 56 3d 1f f8 2e be
       -0.037074532 0.066144474 0.052321017 -0.17086838
000390 2c c6 fa bc ce af 92 bd 7c c0 73 3d 1a f4 f2 3c
       -0.030612074 -0.07162438 0.05950974 0.029657412
0003a0 06 66 18 be fe 7f a3 3c e0 6e de 3d 67 0e e0 3b
       -0.14882669 0.019958492 0.108609915 0.0068376544
0003b0 17 ab b6 3d 6f b2 49 3b f4 39 b2 bd 21 31 34 3d
       0.089193515 0.003077652 -0.0870246 0.043992165
0003c0 bc 82 17 3d 8f 16 89 3c 55 8c bf bd 61 e9 ba 3c
       0.036989912 0.01673439 -0.09352938 0.022816362
0003d0 80 8c 11 bc 4d 57 2f 3d 26 91 a3 bc d1 f0 de bd
       -0.0088835955 0.042807866 -0.019966673 -0.10885776
0003e0 47 de 63 3d 80 27 bd bc a9 4e 5c bc ca e8 29 be
       0.055631902 -0.023090124 -0.013446488 -0.16592708
0003f0 46 7e 67 3c 84 54 d0 3d 26 19 55 3e fe 51 95 bd
       0.014129227 0.1017237 0.20810375 -0.072910294

encoder.model.3.1.weight f4 [16]
000000 4d 63 54 3f ff 84 54 3f 7a 6f 46 3f 43 26 5e 3f
       0.8296402 0.83015436 0.7751385 0.8677713
000010 19 2c 41 3f 14 0c 41 3f 75 51 45 3f 34 4c 42 3f
       0.7545791 0.75409055 0.7707742 0.75897527
000020 a0 fd 55 3f ae ad 3b 3f c5 4c 54 3f 10 c7 5d 3f
       0.83590126 0.7331189 0.8292964 0.8663187
000030 f3 8b 60 3f a7 1a 34 3f 9e 3c 47 3f 9d e3 49 3f
       0.87713546 0.7035317 0.7782687 0.78862935

encoder.model.3.1.bias f4 [16]
000000 52 14 d9 bc 70 8f 76 3d 3e 41 99 bd 6a 65 a7 3d
       -0.026498947 0.060195386 -0.07483147 0.0817364
000010 be 2c bf 3d 13 1e 41 3d cd ba b0 3d 94 c0 a1 bd
       0.09334706 0.04714782 0.086293794 -0.078980595
000020 53 68 05 3e f9 b7 1a bd b3 2c 72 3d e7 21 09 3d
       0.13028078 -0.037773106 0.05912466 0.033479597
000030 a6 83 81 3d 74 21 5d 3d 9b 7f 7c 3d b3 c9 de bc
       0.06323938 0.05398698 0.06164513 -0.027195787

encoder.model.3.1.running_mean f4 [16]
000000 5b b8 be 3e 8a ab d0 3e b0 8a 21 bf 72 2c 96 3d
       0.37250027 0.40755874 -0.63102245 0.07332696
000010 65 7a 93 bc 77 85 82 be e0 ac 0c 3f 59 a1 04 be
       -0.018002698 -0.2549245 0.54951286 -0.12952174
000020 13 fc 3a bf 3b 35 cc be 5a 8d e4 be 93 ae b1 3d
       -0.73040885 -0.39884362 -0.44639093 0.086758755
000030 b1 34 ba 3c a5 e8 94 3e fd 84 a2 3c 8d aa 41 3e
       0.022730203 0.29083744 0.019838804 0.18912716

encoder.model.3.1.running_var f4 [16]
000000 34 82 bc 3e d9 4b fe 3e 37 c7 c1 3e d8 fd 32 3f
       0.36818087 0.49667242 0.378473 0.69918585
000010 25 36 c6 3e 3c be c1 3e 4d 84 ba 3e b8 ed b6 3e
       0.38713184 0.3784045 0.36429062 0.3572824
000020 85 63 03 3f 40 88 b6 3e 6a 66 01 3f ee 7e 16 3f
       0.5132373 0.35650826 0.50546896 0.5878743
000030 26 e0 40 3f 60 d7 13 3f 83 c6 c5 3e e2 df 8f 3e
       0.75342023 0.5775051 0.38628015 0.28100497

encoder.fc.0.weight f4 [16, 64]
000000 76 bb 11 3e 21 0f b1 bc bd 2f da 3b d4 8f a7 3d
       0.14231667 -0.02161366 0.006658523 0.0818173
000010 cf c0 b7 bd b7 5e 5e 3e e5 9c 81 bd c2 34 07 be
       -0.08972322 0.21715818 -0.063287534 -0.1320372
000020 30 d0 1c 3d 82 9a 87 3d a6 32 76 3c 9a 8c 01 be
       0.03828448 0.06621267 0.015026724 -0.12651291
000030 c5 da 08 be 89 58 83 bd f8 09 49 bd 18 14 2e 3e
       -0.13364704 -0.06413371 -0.049081773 0.16999853
000040 f9 47 5c be b4 79 31 3d 06 49 3c 3d 39 d4 67 3d
       -0.2151183 0.043328956 0.045968078 0.056598876
000050 d6 e9 c5 bd 7c 2d 9e bd 85 88 a9 3c e1 6a 24 3e
       -0.09663741 -0.07723519 0.02069498 0.16056396
000060 d7 be 0b be 54 e4 1d 3d 42 d5 54 bd c7 ec 49 bd
       -0.13647018 0.03854783 -0.05196119 -0.049298074
000070 36 3f db 3d a9 86 29 3d 8b 74 93 bd c4 bb 93 bd
       0.10705416 0.041388188 -0.07199963 -0.07213548
000080 f1 7c d1 3d 47 76 94 3d 55 b7 e4 3d 2a a5 a4 bc
       0.10228909 0.07249122 0.1116778 -0.020098288
000090 83 39 31 bc 6f 70 ea 3c 9e 41 28 3e c1 32 5a bd
       -0.0108169345 0.028618066 0.16431281 -0.05327106
0000a0 c2 7b df 3d cf d1 61 3c c0 22 8a bd a4 e7 35 bb
       0.10912277 0.013782932 -0.06744909 -0.0027756477
0000b0 a9 91 ed 3e eb fc aa 3e d7 b3 00 3d 5e d5 0a bd
       0.46400192 0.33396086 0.03142151 -0.03389489
0000c0 9b c3 ad 3e 6a b5 f7 3d 94 b0 97 3e 31 25 fa 3d
       0.33938298 0.12095149 0.29626906 0.12214125
0000d0 a9 de c9 bc 85 f8 72 bd 92 29 20 3d 24 85 c4 3c
       -0.024642305 -0.059319038 0.039102145 0.023989268
0000e0 27 d3 c4 3d d2 57 00 3e 01 4d c3 bc 0e 45 5a 3d
       0.096105866 0.12533501 -0.02384043 0.053288512
0000f0 29 49 40 bd 6a 7f 22 be 67 8b c2 bb 24 e8 07 bd
       -0.04694477 -0.15868917 -0.005937028 -0.03318037
000100 b8 41 e1 3d 13 4c 97 3c 69 f3 e4 bc 86 d7 06 3c
       0.10998863 0.018468892 -0.027948098 0.008230096
000110 5a e4 05 3e 23 3f 67 3e 09 1c 8d bd 23 8e ef 3d
       0.1307539 0.22582678 -0.06890113 0.11697032
000120 9f 59 8a 3b c5 b5 80 3c c5 15 30 bd 95 9e 7e 3e
       0.0042221094 0.015711674 -0.04298951 0.24865182
000130 5a 3f 0a bd e8 32 89 3d 3a 29 8c 3b d7 da d4 3d
       -0.033751823 0.06699163 0.0042773755 0.10393303
000140 22 24 14 bd 58 ef 67 3e f6 36 63 3d ba e9 09 be
       -0.03616727 0.22649896 0.055472337 -0.13468066
000150 82 b3 69 bd 23 ad d5 bb 57 12 70 bd 3d 5a 48 bc
       -0.057055958 -0.0065208836 -0.05861124 -0.012228546
000160 c4 62 8a bc 0c 63 05 be 73 82 b4 bd 59 45 72 bb
       -0.016892798 -0.13026065 -0.08813944 -0.0036967604
000170 ff 8a 69 bd 0f 16 34 be 99 32 0b 3c 71 b6 45 3b
       -0.057017323 -0.1758654 0.00849595 0.0030168558
000180 02 36 51 3e 00 38 8a 3d 88 b2 3b 3e a5 a0 ee 3d
       0.20430759 0.067489624 0.18329823 0.11651734
000190 66 b2 78 bd e5 07 9f bd 70 71 ae 3c 21 86 5c be
       -0.06071701 -0.07765178 0.021294326 -0.21535541
0001a0 eb 9a 8a 3d f7 90 51 3d 68 9c a9 bb 97 15 ce 3d
       0.067678295 0.05116364 -0.005176116 0.10062712
0001b0 ec 15 56 bf 72 f8 19 bd 21 8f 50 3d 29 c9 2d be
       -0.836272 -0.03759045 0.05091775 -0.16971268
0001c0 d3 10 1f be da 3e cf bd bf 4c 1c 3e 30 2a aa 3c
       -0.15533762 -0.1011941 0.15263651 0.02077207
0001d0 d4 3e bb bd a4 14 50 bd 17 aa 8b 3e d5 bb b4 bc
       -0.09142843 -0.050800934 0.27278206 -0.022062222
0001e0 e2 9e 13 bd 66 5b 0a 3d 79 a7 de bd 88 b5 92 3e
       -0.036040194 0.03377857 -0.108717866 0.28654122
0001f0 7d 1e 58 3d b2 de cc bb 43 b5 bb 3b ff c7 b3 bc
       0.05276345 -0.0062521333 0.005728395 -0.021945952
000200 56 8a ed 3b 9b 89 50 3d 53 c0 47 3d 33 2b 2d be
       0.007249157 0.05091248 0.0487674 -0.1691101
000210 fe 8d 44 be 4f 75 45 3e ac 87 45 3d 0d 26 d8 3d
       -0.1919479 0.19283031 0.04822509 0.105541326
000220 77 58 9a bb 9e b2 5b be 97 9b 9a bd 71 28 36 3d
       -0.004710253 -0.21454856 -0.07549208 0.04447216
000230 ce ea a6 bd 1d 11 00 3e cf d4 25 3e 36 26 41 bd
       -0.08150254 0.12506528 0.16194461 -0.04715558
000240 75 77 6b 3d fd 2f c8 be d5 ca 8b bd 7f 85 24 3d
       0.05748697 -0.39099112 -0.068257965 0.040166374
000250 9a 87 a1 bc 23 2f b1 3c 98 0b 06 3e f8 9b ad bd
       -0.01971798 0.021628922 0.1309036 -0.08477014
000260 bf c5 e7 3c 35 73 33 bd 37 3b 7f bb 70 41 1e bd
       0.028292535 -0.04381104 -0.0038945207 -0.038636625
000270 47 83 98 3d c0 95 7d bd ff 57 b9 bc 4f a2 0e be
       0.07446914 -0.06191039 -0.022624968 -0.13929103
000280 4a dc 41 3e d8 04 aa bd c4 78 b6 3c 9a 8e 41 bd
       0.1893169 -0.08301705 0.022274382 -0.047255136
000290 42 28 a6 3d 77 f6 7e bd c3 e5 1b 3c 08 52 c3 3e
       0.08113147 -0.062246766 0.009515229 0.38148522
0002a0 ed a8 f9 bc 64 4e 15 3e 7d b6 34 bd 1f e8 0a 3e
       -0.030476058 0.14580685 -0.044119347 0.1356511
0002b0 14 36 6d 3e 1a a7 c0 3d e8 2a 3a bd 74 10 28 3d
       0.2316516 0.09406872 -0.045451075 0.041031316
0002c0 34 5d 0c 3d 2f 28 3e 3e 93 93 75 bd cc 80 11 3e
       0.034268573 0.18570016 -0.05995519 0.14209288
0002d0 eb 9e 71 bd d9 46 8f 3c cb 3d a2 3e 15 81 ec bd
       -0.058989447 0.017489837 0.3168777 -0.11548058
0002e0 95 23 0c 3e 51 1a 08 bd 57 45 d7 3d fa a5 6a 3c
       0.13685448 -0.033228222 0.105112724 0.014321798
0002f0 7d bd f1 3c fa a4 c8 bc dc 61 1f be e9 b2 17 bd
       0.0295093 -0.02449273 -0.15564674 -0.037035856
000300 0b 31 ba 3d 20 55 09 3e e9 8f ce bc b5 69 e7 3d
       0.090913855 0.13411379 -0.025215106 0.11299459
000310 a8 cb 37 3c 04 30 4b bd 7d 67 9a 3d 6d 61 76 bc
       0.011217989 -0.04960634 0.0753927 -0.015037877
000320 10 87 0d 3c 94 64 d6 3d 87 48 8a bd 10 c7 04 3c
       0.008638158 0.104684025 -0.06752115 0.008104101
000330 7e e9 de bd 92 e5 2f 3d 75 55 ba 3d 5d 64 ff bc
       -0.10884379 0.042943545 0.09098331 -0.031175787
000340 10 2c 6c bc 55 b9 83 be 64 c4 f4 3c 6a 6b 54 bd
       -0.014414802 -0.25727335 0.029878803 -0.05186025
000350 d4 97 2a bd 53 24 a0 bc f5 ee 01 bd c5 86 c3 bd
       -0.0416487 -0.01954857 -0.031722028 -0.095471896
000360 7c b1 1e bd c7 e9 84 bd 50 37 52 3e 01 33 a7 3c
       -0.03874348 -0.06489902 0.20528913 0.020410063
000370 c7 54 49 3d f0 f0 9d 3d d1 bd 1c 3c 43 0d a7 bc
       0.049153116 0.07711971 0.00956674 -0.020392066
000380 3f f6 d2 b9 44 e9 c2 3a 35 23 27 3d 36 74 da bc
       -0.0004023779 0.0014870544 0.04080506 -0.026666742
000390 60 cc 18 3d 1f b3 4b 3d d8 f8 45 3d 66 0b 0d 3e
       0.037304282 0.04973137 0.04833302 0.1377388
0003a0 88 f8 03 3e e9 74 b0 bc 96 7c 3f bd 0f b0 ff bc
       0.12887776 -0.021540122 -0.046749674 -0.031211881
0003b0 76 32 0b 3f e5 85 0d 3e 91 31 d1 3d e0 19 c0 bd
       0.5437387 0.13820608 0.10214532 -0.09379935
0003c0 c7 c9 de 3c 43 57 53 3b 3c 3c bd bd 38 f1 eb 3d
       0.027195824 0.0032248057 -0.092400044 0.11520618
0003d0 5a 04 ba bc 5c 8e 03 3e 52 84 e3 bd 69 60 57 3d
       -0.022707153 0.12847275 -0.111092225 0.05258218
0003e0 61 9b 05 3e 0f 2b 4e be de 57 b8 bd 04 e1 0d bd
       0.13047554 -0.20133613 -0.09001134 -0.03463842
0003f0 da dd c7 bc bd c1 51 bd ab 7a 47 be 02 3f 9c 3e
       -0.02439778 -0.051210154 -0.19480388 0.3051682

encoder.fc.0.bias f4 [16]
000000 e6 dc c1 3c 1e 2b a1 bd 96 10 ff 3c 9c 2d 37 3c
       0.023664903 -0.07869552 0.031135838 0.011180308
000010 64 31 59 39 cc 90 36 3c 90 ee ad bd be de 2d 3c
       0.00020713132 0.011142921 -0.08492768 0.010612188
000020 e8 d8 e3 3c 2b 42 9e 3d 66 2a a8 bd d6 80 39 3c
       0.02781339 0.07727464 -0.08211212 0.011322221
000030 54 16 29 3e eb b5 f6 3c af 0a 5e 3d 73 8c 8a 3d
       0.16512424 0.030116042 0.054209407 0.0676507

decoder.fc.0.weight f4 [64, 16]
000000 1b bb 19 3e b1 f6 13 3d 6d 42 2b be 1f 53 bc 3c
       0.15012781 0.036123935 -0.16724558 0.022988854
000010 a0 fd 3e be 46 0c 01 3e 32 72 fe bd cb 9f 38 bc
       -0.18651438 0.12602338 -0.12424125 -0.011268566
000020 62 f6 9a be 35 85 2f be 16 be 46 3e f0 e6 02 be
       -0.302661 -0.17140658 0.1940845 -0.12783408
000030 52 36 5b be 5b 81 3a 3e 5a 6e 1c be 9d e1 13 be
       -0.2140744 0.18213408 -0.15276471 -0.14441533
000040 3a ae 45 be 23 16 6f 3d 8c 79 8a 3d a5 8d 78 be
       -0.19304743 0.05837072 0.067614645 -0.24272783
000050 18 89 14 3e 3f 8a f8 3d 3c be bd bd 0c 73 1d bd
       0.14505422 0.12135743 -0.092648 -0.038439795
000060 c1 9d 5f 3d 4c 9b 97 bd b0 5b 54 3e 23 c4 21 3d
       0.054593805 -0.074026674 0.20738101 0.03949369
000070 d2 45 87 be 25 e0 38 bd 59 5d 09 bd 75 af 02 be
       -0.26420456 -0.045135636 -0.03353629 -0.12762244
000080 70 a4 70 bd e7 d2 e0 bd 71 10 92 3d 14 ee 24 3d
       -0.05875057 -0.109777264 0.07132042 0.04026611
000090 61 d2 5d 3e 54 ca 45 3e d7 d2 33 3d 1c 89 83 bd
       0.21662284 0.19315463 0.043902244 -0.06422636
0000a0 83 2f c7 bd 31 51 b1 3d 52 18 81 3c 6d ec 61 bd
       -0.09725859 0.08658064 0.015758667 -0.055157114
0000b0 07 08 cd bd 9e d2 1f 3e 30 ce 18 bd 24 94 6c bd
       -0.10011297 0.15607688 -0.03730601 -0.057758465
0000c0 60 cb 69 3e c7 82 35 3e d1 97 81 bd be 1a 92 3e
       0.22831488 0.17725669 -0.06327785 0.28536028
0000d0 32 cf e3 3d ff 4b 72 3e 94 76 26 3e 0a fc 32 bb
       0.11123504 0.23661803 0.16256171 -0.0027310872
0000e0 5d 0b 66 3c 50 fb bb 3d fc 47 ad bd 36 7d 85 be
       0.014040795 0.091787934 -0.084609956 -0.2607209
0000f0 0b 52 f9 3d d9 68 13 3e c6 1d e7 3d 22 76 89 bd
       0.121738516 0.14395465 0.11284976 -0.06711985
000100 a2 a1 5b 3e 35 c1 29 3e 6b 9e cf bd bb b1 8c be
       0.21448377 0.16577609 -0.10137638 -0.27479348
000110 92 34 1b bd 10 df 22 3e 95 df 31 be 7a ac 9c be
       -0.03789193 0.15905404 -0.17370446 -0.3060034
000120 8d e0 b6 ba 2b 17 a8 bd 89 17 f3 3c ab c7 27 3e
       -0.0013952419 -0.08207544 0.029674308 0.16384761
000130 4d 82 94 bd 14 53 b2 3d cd 58 ef be 63 38 d2 bd
       -0.072514154 0.08707252 -0.46747437 -0.10264661
000140 01 99 c3 3d 2a bf 38 bd c5 d3 61 3d 47 aa 0f 3e
       0.095506676 -0.045104183 0.0551336 0.140298
000150 c2 43 10 3e 2c 26 05 be 0a 7a 99 3c 59 d5 13 3e
       0.14088348 -0.13002843 0.01873495 0.14436854
000160 3d 3e 29 be ca 24 04 be a6 7a 1c 3e 22 00 24 3e
       -0.16527648 -0.12904659 0.15281162 0.16015676
000170 98 c8 28 be 57 b0 a7 bc ec c5 4b 3e b8 62 f6 3d
       -0.1648277 -0.020469828 0.1989972 0.12030548
000180 80 44 68 3d 79 d2 99 bc 0c 8c 9d 3e eb 98 3c 3e
       0.05670595 -0.018777119 0.3077091 0.18417709
000190 2c 3b 16 3d d0 77 2e 3d 1e 90 80 be 88 56 36 3e
       0.036677524 0.04259473 -0.25109953 0.17806447
0001a0 df 17 60 3e 11 97 0e 3e 57 ee 3b 3d 77 ee 8a 3e
       0.21884106 0.13924815 0.045881595 0.2713506
0001b0 83 fd 13 3e 50 2d 01 3e 5d a0 24 bd c9 84 a2 bd
       0.14452176 0.12614942 -0.040191997 -0.07935483
0001c0 85 31 a0 3d 03 ad ec bd a7 2a d5 3d ff 47 eb bc
       0.07821945 -0.11556437 0.10408526 -0.028720854
0001d0 52 b9 9c bc 14 8c 1f 3e 94 2f 0b 3e 3a 97 44 3e
       -0.019131336 0.1558078 0.13592368 0.19198313
0001e0 95 db 11 be 2f 80 54 be 0f 7d 11 be 73 11 2e bb
       -0.1424392 -0.20752023 -0.14207862 -0.0026560694
0001f0 c3 f2 89 3e 00 fb 4f 3e ec c1 cb bd f9 6f 94 3d
       0.26943025 0.20310593 -0.09949097 0.072479196
000200 40 62 a6 3d d9 5a 0b be 45 d0 8d 3e bc f5 83 be
       0.081242085 -0.13608874 0.2769796 -0.25773418
000210 1e 0a 99 3d 99 24 89 be b4 82 0f be e6 57 9f 3c
       0.07472633 -0.26785734 -0.14014703 0.019451093
000220 5d 24 76 be 6b 56 e0 bc 74 bd a6 be 46 b5 d9 3d
       -0.24037309 -0.027384957 -0.32566416 0.10630278
000230 b7 6d 92 bd a6 89 32 3e 0e fd ab be 27 a1 ea bb
       -0.07149833 0.17435321 -0.33591503 -0.007160324
000240 ac 10 5b 3e a8 ce cb bd f0 ce fd 3d 00 2a 40 3c
       0.21393079 -0.09951526 0.12392986 0.011728764
000250 24 74 73 bd 6d 10 92 3e 97 0f 29 3e 00 41 85 3d
       -0.059436932 0.28528157 0.16509853 0.065065384
000260 63 8d 34 3b ad 15 89 be 66 b7 71 be 77 ec 44 3c
       0.0027550093 -0.2677435 -0.23605117 0.012019268
000270 ea 97 26 3e f6 7f a8 3d b9 d0 9e 3d ad 81 fa bd
       0.16268888 0.082275316 0.077546544 -0.12231765
000280 4e 06 2f 3e 04 48 1f bd 1e 39 95 3d 95 7d ab bd
       0.17092249 -0.03888704 0.07286285 -0.08373562
000290 08 d3 3d be ba e5 ce 3e 0f 54 b6 3e 86 4a 2c 3e
       -0.18537533 0.40409642 0.35611007 0.16825303
0002a0 b3 ec 42 be 33 f7 7f 3d 7f 2f 10 be e6 1e 81 bc
       -0.19035606 0.062491607 -0.14080618 -0.015761804
0002b0 c8 09 c1 bd 93 fe 93 bc e4 52 d6 bc 43 68 94 ba
       -0.09425694 -0.018065726 -0.026162572 -0.0011322576
0002c0 d5 d9 4a 3e 2e b8 47 3e a8 f5 8c 3d 7b c5 5e 3e
       0.19809659 0.19503853 0.06882793 0.2175502
0002d0 07 01 92 3d da 11 69 be ce 42 99 be 8b fa 84 3e
       0.07129102 -0.22760716 -0.2993378 0.259724
0002e0 3c c2 f4 3d 3f 9a bc bd c7 95 3e 3e 9c a5 70 be
       0.1195111 -0.092091076 0.18611823 -0.23500675
0002f0 03 fe 67 3e 33 60 92 3e ba 7f d9 3d 85 38 88 3c
       0.22655492 0.2858902 0.10620065 0.016628513
000300 b8 1e 89 3b 1c ff 89 bd 0a 10 a0 3c de e8 6f 3d
       0.00418457 -0.067381114 0.019538898 0.05857169
000310 81 2c d8 bd 26 1c f5 bd 95 74 7f 3e 0c e1 78 be
       -0.105553634 -0.119682595 0.24946816 -0.24304599
000320 c5 26 4c bd a5 8e 1a bd 69 ab 26 bd 8c 0f 80 3e
       -0.04984166 -0.037733693 -0.040690813 0.2501186
000330 a1 87 58 3d 9e d5 61 3e 1d 9e 87 3d d1 b8 ef bd
       0.05286372 0.22054145 0.066219546 -0.11705173
000340 73 45 2f 3e a1 eb d8 bd 56 2e 65 3e 27 38 21 be
       0.17116337 -0.10591818 0.22380957 -0.15744077
000350 00 76 d3 3e 97 29 88 be fa 7c c8 bd f4 9a 8a bd
       0.41300964 -0.2659423 -0.097894624 -0.06767836
000360 ce 84 45 3e 01 2a 95 3c 79 db 9a be 66 f2 38 be
       0.19288942 0.018208506 -0.3024557 -0.18061218
000370 87 9f 32 3e 4d 53 12 bc 1b d2 9b 3a 1a fe f0 3d
       0.17443667 -0.008930993 0.0011888178 0.11767216
000380 0a ba 10 3e 2a 42 12 be 0d b7 8c be 46 d4 ba bd
       0.14133468 -0.14283052 -0.27483407 -0.09122519
000390 5e 74 af bd 3b 4c 20 be 4e 81 4a 3e ef 6a 91 be
       -0.08567117 -0.1565408 0.19775888 -0.28401896
0003a0 f8 39 34 be 1c d0 cf bd 56 99 1c be e6 0c 05 be
       -0.17600238 -0.101471156 -0.15292868 -0.12993202
0003b0 bf f1 47 bd 45 9a 83 bd bf 58 b8 bd cf 1c 79 3e
       -0.04881453 -0.06425909 -0.09001302 0.24327396
0003c0 99 a2 ca bd e6 0b 39 bb 37 95 e7 bc b8 a4 7b bd
       -0.09894294 -0.0028235852 -0.028269393 -0.061436385
0003d0 06 e4 14 bd 59 29 aa bb 55 a6 8f ba 43 c4 a4 3d
       -0.036350273 -0.0051929173 -0.0010959605 0.080452465
0003e0 2d 0b 0c 3e 51 68 08 be 13 34 f2 bc 56 a0 ad 3b
       0.13676138 -0.13321044 -0.029565847 0.0052986545
0003f0 27 fa 11 3d 31 b2 bd 3d 86 2a 42 be 05 dd 9f bd
       0.035638954 0.09262503 -0.18961534 -0.07805828

decoder.fc.0.bias f4 [64]
000000 68 45 1d 3e 8b 2e c2 3c b8 4b 46 3a 3e a8 c4 bd
       0.15358508 0.023703834 0.00075643836 -0.09602402
000010 de d2 fd 3d 5b 64 5c 3e 35 40 98 bd 27 a8 01 3e
       0.12393735 0.21522658 -0.074341215 0.12661801
000020 e6 54 0d be bc 1b 4f 3d 77 3e a2 bd 56 09 f8 bd
       -0.13801917 0.05056356 -0.079220705 -0.12111156
000030 6f 50 93 3e ed a8 2f 3c 37 f9 8c bd 76 db f4 bd
       0.28772303 0.010721427 -0.068834715 -0.11955921
000040 fa f4 e4 3b 01 e3 be 3d 4d e3 75 3d 8f 06 b6 3d
       0.0069872113 0.09320641 0.060031224 0.0888797
000050 d4 69 36 3d 7e be 98 3d e1 1c 23 3e d3 ce e4 bd
       0.04453452 0.074582085 0.15928985 -0.11172261
000060 d1 38 b1 3c 79 f4 91 be 32 2b f1 3c 10 a5 19 bc
       0.021633537 -0.2850683 0.029439542 -0.009377733
000070 b0 09 d5 bd b0 52 2b 3e 70 3a 20 3e 50 f7 86 3c
       -0.10402238 0.16730762 0.15647292 0.01647535
000080 ea 9a af bd d0 2a 80 be d1 5d 6a 3d 14 c7 d7 3d
       -0.085744694 -0.25032663 0.057218377 0.10536018
000090 eb c4 9f 3c 5b 9f a6 3d a4 dd bd 3a 5c d2 e6 bc
       0.019503077 0.081358634 0.001448561 -0.028176479
0000a0 32 0a c5 bc 05 16 25 bd b3 07 ec 3d 04 67 71 3a
       -0.024052713 -0.040304203 0.11524906 0.0009208771
0000b0 36 91 65 bd db 00 60 bd d0 c2 70 be 02 dd 1d 3e
       -0.056046687 -0.054688316 -0.23511815 0.15416339
0000c0 c8 38 fd 3d 4d a4 b0 3d c3 de e5 3d a2 2b 85 be
       0.12364346 0.08625088 0.11224129 -0.26009852
0000d0 a6 99 d2 bd e8 c9 45 be 39 bf 5a 3e 2d 61 0c 3e
       -0.10283212 -0.19315302 0.21362008 0.13708945
0000e0 a3 1c 0c be 68 4e c2 3b 55 d4 3a 3e 97 f7 29 be
       -0.13682799 0.005929757 0.1824506 -0.16598354
0000f0 54 b8 70 bd f8 d7 64 3d 66 b1 39 3e 85 8d b9 3d
       -0.05876954 0.055870026 0.18134078 0.09060196
