data/models/emnist_autoencoder.pth (torch, 72491 bytes, 53 tensors)

encoder.model.0.0.weight f4 [8, 1, 3, 3]
000000 9e f2 17 3e eb aa 87 3e f3 0c 01 3e 05 e9 5d 3e
       0.14838645 0.26497588 0.12602596 0.21670921
000010 65 ba 87 3e ca 94 29 3e 6f da 87 3d 34 af 32 be
       0.26509395 0.16560665 0.0663346 -0.17449647
000020 8c 0a 34 be b7 d4 1f 3e d8 14 b9 be 76 a7 18 bd
       -0.17582148 0.15608488 -0.36148715 -0.03726908
000030 7d ec 78 3d d8 10 45 bb 82 f4 2b bd 9d 9c c5 be
       0.060772408 -0.0030069854 -0.041981228 -0.3859605
000040 03 5b 89 3d 44 a3 96 bb 11 4e aa bd a2 f2 48 be
       0.06706812 -0.0045970995 -0.08315671 -0.19623807
000050 fa 78 e7 bd a5 5d 90 3d 7b d9 bb bb e6 cb f1 bc
       -0.11302371 0.07049111 -0.005732713 -0.029516172
000060 6c f7 9a 3e 4c 25 eb 3e 25 db 94 3e d5 92 df 3e
       0.30266893 0.45926893 0.29073444 0.4366671
000070 80 8a 5c 3e 14 c7 74 3c 22 d0 4a 3e 34 ae 91 bb
       0.21537209 0.014940042 0.19805959 -0.0044458155
000080 fe 98 42 be 3d 7a 57 3d 20 ee 13 be 4a 0c 2c be
       -0.19003674 0.05260681 -0.14446306 -0.16801563
000090 2e 56 8f bc c3 52 aa 3d b1 00 6c 3e da ca 6e bd
       -0.017497148 0.08316567 0.23047139 -0.058298923
0000a0 fe 02 d4 3d 89 cf de 3e 9b d8 a1 bc de 64 08 3e
       0.10352133 0.43517712 -0.019756606 0.13319728
0000b0 cd ac 86 3e 01 01 1f 3e 9c 73 83 3e 7f ad 2c 3e
       0.26303712 0.15527727 0.2567414 0.16863059
0000c0 60 65 73 3e af 34 03 3f d6 71 64 3e 39 0a 28 3e
       0.2376914 0.51252264 0.2230905 0.1641015
0000d0 22 eb 90 3e de be 23 3e 72 ce bb 3c a9 d0 72 3d
       0.28304392 0.15990779 0.02292559 0.059281025
0000e0 24 25 06 bd 76 8a 17 3e 13 1b a9 3e 6d bd ca 3d
       -0.032750264 0.14798912 0.33028468 0.09899411
0000f0 04 35 0f 3e e0 5e b7 3e bf 90 27 3e c1 1b b2 bd
       0.13985068 0.3581457 0.1636381 -0.086967
000100 0c ed 8d 3d 1c 5b f3 3d 53 32 05 be ff cf 63 3b
       0.06929979 0.11882612 -0.13007478 0.0034761427
000110 4f 0e 05 bc 3e 7a 32 be 8e 72 0d be 2a 33 3c be
       -0.008121087 -0.17429444 -0.1381323 -0.18378893

encoder.model.0.0.bias f4 [8]
000000 c3 b8 82 3e e4 4e 30 be cb c0 8d 3e c2 bb 0a bd
       0.25531587 -0.17217594 0.27686152 -0.033870466
000010 90 65 27 3e 2f eb c9 3d 07 b8 92 3e 61 27 a5 be
       0.16347337 0.09859311 0.28656027 -0.32256606

encoder.model.0.1.weight f4 [8]
000000 c5 d5 4e 3f f8 0b 4f 3f a6 ce 67 3f 1a 9c 74 3f
       0.80794936 0.8087764 0.90549695 0.9555069
000010 d0 78 7a 3f ea 6d 88 3f 08 b4 5f 3f 63 c5 02 3f
       0.97840595 1.0658543 0.8738408 0.5108244

encoder.model.0.1.bias f4 [8]
000000 33 44 6f be d9 9e d9 bd c9 35 cb be 73 3d b6 be
       -0.2336586 -0.10626001 -0.39689472 -0.35593757
000010 bc 2e 90 be 33 6e f1 be 91 ed 26 bd 6f 1d 46 3e
       -0.28160655 -0.47154388 -0.040753905 0.19347166

encoder.model.0.1.running_mean f4 [8]
000000 df 28 83 3e bd d8 30 be b2 19 8e 3e 43 38 09 bd
       0.2561712 -0.17270179 0.2775398 -0.03350092
000010 da 89 28 3e f6 2a ce 3d 1d 5b 93 3e ff 69 a5 be
       0.16458836 0.10066788 0.2878045 -0.3230743

encoder.model.0.1.running_var f4 [8]
000000 32 be e2 35 48 4d 58 35 19 60 ce 35 b1 d8 90 35
       1.6893666e-06 8.057873e-07 1.5376164e-06 1.0791902e-06
000010 d9 ee 1d 36 ee 37 e9 36 d8 2e 34 36 34 17 1a 35
       2.353385e-06 6.950452e-06 2.6849357e-06 5.7403236e-07

encoder.model.1.0.weight f4 [8, 8, 3, 3]
000000 92 29 f0 3b 90 78 3b bd f9 ff d5 bd 61 96 46 bd
       0.0073291743 -0.045769274 -0.104492135 -0.048483256
000010 c7 f6 75 bd 5a 61 be bd 37 79 99 3d 9d a8 37 3e
       -0.0600498 -0.09295912 0.07493823 0.17935415
000020 f8 38 ae 3d 83 11 36 3d 68 34 51 bc 73 2c f9 3d
       0.0850696 0.044450294 -0.012768842 0.12166681
000030 ac 66 ba 3d 0e 93 93 3d 8e 4b ef 3c 3a a7 03 3b
       0.09101614 0.07205783 0.029210832 0.0020088688
000040 73 00 16 3d 99 58 fa ba 8b 8e eb 3c ba e9 47 3e
       0.036621522 -0.001909989 0.028754493 0.19522753
000050 70 6e 31 bd 36 f4 20 3d d6 5b 31 3e ef 50 2c 3d
       -0.043318212 0.039295398 0.17320189 0.04206937
000060 2e 8f c2 3d 52 14 9b 3e ee a7 45 3d fc b3 9f 3d
       0.094999656 0.3028894 0.048255853 0.07798001
000070 7b 2e 1f bc 29 2c e8 3d cb 1e 7d bd fa 46 d9 3c
       -0.009715672 0.11336548 -0.061796945 0.026523102
000080 4d d0 45 3d 9a b7 a6 3d fd f5 52 bc 62 a7 e1 3d
       0.048294354 0.08140488 -0.012876031 0.11018254
000090 b8 cf 4b be 1b 92 59 be 38 14 8d bd 90 db 45 be
       -0.19903457 -0.21247141 -0.06888622 -0.19322038
0000a0 bb 38 8d be dd f0 a3 bd 4b 3f 11 be 69 cb 80 bd
       -0.27582344 -0.080049254 -0.141843 -0.062887974
0000b0 04 cf 52 3e f0 6a 34 be 4f 61 f0 be 53 f9 b2 bd
       0.20586783 -0.17618918 -0.4694924 -0.08738961
0000c0 b7 b0 89 be 05 b6 f7 be bb 3c 6f be 62 d9 5b ba
       -0.26892635 -0.48381057 -0.2336301 -0.00083865796
0000d0 af 51 49 bc 76 09 c0 bd a5 ea c7 3d 09 97 83 3e
       -0.012287541 -0.093768045 0.09761552 0.25701168
0000e0 57 e3 8f 3d b7 72 b6 bd 66 84 7e 3c d1 16 77 bd
       0.070257835 -0.08908599 0.015534496 -0.060324494
0000f0 c4 b1 71 3d ee c5 2a 3d 23 bd 0f 3d 7e 28 66 3d
       0.05900742 0.041692667 0.035092484 0.05619096
000100 2f 64 07 be 04 a9 b0 bc 4b 9c 5f 3a b8 53 c6 3d
       -0.13221811 -0.021564968 0.00085300644 0.09683937
000110 79 bd 98 bd 2a 15 37 bd 57 4a 04 3c 85 39 c6 bc
       -0.07458014 -0.044697918 0.008074365 -0.02419735
000120 17 2e a9 bc 1d 62 70 3d b0 45 1c 3d 07 4a 84 bd
       -0.02065186 0.058687318 0.038152397 -0.06459432
000130 54 62 d6 bd ea 0d 9c be b0 13 2e be 38 2d 40 be
       -0.10467973 -0.30479366 -0.16999698 -0.1876725
000140 a5 7c a6 be aa 03 5f 3c 1f e9 c3 3d 9e f6 2b 3b
       -0.3251697 0.013611713 0.09565949 0.0026239525
000150 4e fd c3 3d 24 22 ee 3b 8c 62 45 3e 13 ff 71 3d
       0.095697984 0.0072672535 0.19275874 0.05908115
000160 80 ce 6a 3c 10 47 c2 3d 91 fb cf bd 3b f9 b3 bd
       0.01433146 0.0948621 -0.10155404 -0.08787771
000170 7c 4c 2d 3e 5a 09 3d be b0 85 db be 1a 7d 64 be
       0.16923708 -0.18460599 -0.42875433 -0.22313347
000180 12 ff 8d 3d 57 85 37 be 06 50 84 bc 44 a0 67 bb
       0.069334164 -0.17921959 -0.01615144 -0.0035343328
000190 94 b8 0f 3e 87 07 8c bd 10 ca ad 3e 1b 5d bd ba
       0.14035255 -0.06837373 0.33943224 -0.0014447303
0001a0 bc 2b 08 3d b0 bc 51 3e 23 72 5d bd 03 c9 0c 3e
       0.033244833 0.20482135 -0.054063927 0.13748555
0001b0 37 74 d4 3d 9a 57 a5 bd 16 61 3c 3e 57 fa 80 3d
       0.10373729 -0.08073349 0.1839641 0.062977485
0001c0 ab 99 8b be fd 72 03 be 24 85 ee 3c e1 0d 90 be
       -0.27265677 -0.12836833 0.02911622 -0.2813559
0001d0 11 09 76 3c 7d 76 2f 3c f4 48 bc 3c fc c1 2d bd
       0.01501681 0.010709402 0.022984006 -0.042421326
0001e0 5f 0b 80 bd 92 04 9c be 52 ae aa be c5 6b 33 bd
       -0.06252169 -0.30472237 -0.3333612 -0.04380395
0001f0 41 5c ab be a5 e5 20 be 73 0b a0 3d 32 4f 88 3d
       -0.33468822 -0.15712602 0.07814684 0.0665573
000200 1e 87 d6 bc ea e9 3e 3e c9 2b a2 bd b8 be cd bc
       -0.026187476 0.18643919 -0.079185076 -0.025115356
000210 e4 4f 0e 3e 59 26 c4 bc 1a 95 8d bc 55 3a e8 3d
       0.13897663 -0.023944067 -0.017283011 0.11339251
000220 17 ff d8 3d e9 a3 d3 3d 2b dc f9 bc 17 e3 a8 bd
       0.105955295 0.10333998 -0.030500492 -0.08246439
000230 ec af a1 3d d0 66 6a bd 9e ca eb 3b 97 93 d1 bd
       0.078948826 -0.057226956 0.0071957847 -0.10233229
000240 9a cf 95 3d 4c f4 9f 3d 0a c0 c6 3c d5 00 fe 3c
       0.073149875 0.07810268 0.024261493 0.031006256
000250 ac fa 32 3d e8 72 2b bd 96 fc ab 3d 4c 37 5a be
       0.04369609 -0.04185763 0.08397786 -0.21310157
000260 4a a0 70 bb 2e 28 fe 3b ae b2 36 3d 8c 26 b3 bc
       -0.0036716633 0.0077562546 0.044603996 -0.021868967
000270 1d 2d ec bd ad c6 e7 3c 0e cd af 3d 88 f3 39 bd
       -0.11532042 0.028292978 0.08584033 -0.045398265
000280 87 0f af bd 19 76 89 3d 6e 50 f5 bd 44 f8 b0 3d
       -0.085478835 0.067119785 -0.11978231 0.08641103
000290 7a 23 8f bd de 0e 3f bd d4 cb 92 bd 33 dc 2b be
       -0.069891885 -0.046645038 -0.071677834 -0.16783218
0002a0 53 c9 83 be 32 1d 66 be 46 83 88 3b d5 c2 a5 bc
       -0.25739536 -0.22472075 0.0041660396 -0.020234505
0002b0 2e 2f cc bd 8c 82 1f 3d 25 00 13 be 85 b2 37 be
       -0.09969936 0.03894286 -0.14355524 -0.17939194
0002c0 9c 16 d8 3b 38 80 45 be 57 68 1a 3e ee 40 2d 3e
       0.006594492 -0.19287193 0.15078865 0.169193
0002d0 b5 f4 bf bd be 42 96 3b d1 0a ec 3c ae 15 75 3e
       -0.09372846 0.004585593 0.028813751 0.23934051
0002e0 52 9f 23 bd 3a 6d 8f 3d cf 41 51 3e 0b f9 09 bd
       -0.03994686 0.07003255 0.2043526 -0.03368477
0002f0 ad 17 78 3d d1 bc 9a bc 92 d9 37 be 4f a1 88 3d
       0.060569454 -0.018888863 -0.1795409 0.06671392
000300 e0 05 f2 be 49 82 f7 be 09 58 a9 bc 0b 70 2f bf
       -0.47270107 -0.48341587 -0.020671861 -0.6853034
000310 70 68 be be 0b 1c 2a bd c4 3b 76 bd ea 31 1d be
       -0.37189054 -0.04153065 -0.06011559 -0.15351072
000320 57 ab c7 bd fe 8a a9 3d 8a d1 52 bb 2f d0 dd bb
       -0.09749477 0.08278464 -0.0032168352 -0.006769202
000330 fa f3 21 bd 71 43 08 bd ff c2 c5 3d 6b 14 cb bd
       -0.039539315 -0.033267442 0.09656333 -0.09916004
000340 4e 1a af bb 8d 1d bf 3d 5a 56 ff bd f8 c3 dd bd
       -0.005343712 0.09331808 -0.12467642 -0.10828394
000350 25 08 9c 3d 67 8e 27 3d 6b b7 c0 bd 4e ca 50 3d
       0.07618741 0.04090729 -0.09409984 0.050974183
000360 0a cd 34 3d 54 89 ae 3c 55 05 81 3d f8 e8 aa 3b
       0.044140853 0.021305718 0.06299845 0.0052157603
000370 dc c8 a4 bd 0c 7d d6 3c 9d 29 b3 bd d6 70 18 3e
       -0.080461234 0.026182674 -0.087481715 0.14886793
000380 1e 32 b0 3d a4 4e 77 3b c5 9d 87 bb 04 93 19 3d
       0.08603309 0.0037736082 -0.0041386806 0.03749372
000390 83 91 27 3c e7 e4 63 bd 76 34 9c 3c e7 a4 da 3d
       0.010227564 -0.05563822 0.019067984 0.10675984
0003a0 2b d1 3d bd ff 54 7d 3d 18 5c b6 bb 41 ed 7c bb
       -0.046342056 0.061848637 -0.0055651776 -0.0038593563
0003b0 66 42 5a 3c 01 62 1a be 02 73 60 ba e8 71 4d 3d
       0.013321495 -0.15076448 -0.00085620594 0.050157458
0003c0 08 95 90 be 87 ad c2 be 47 8b af be 01 8d 31 3e
       -0.28238702 -0.38023016 -0.34285948 0.17338945
0003d0 9e 97 48 3d 73 98 06 bd d0 7f fe 3d 9c ee f4 3b
       0.04897272 -0.03286023 0.12426722 0.0074747335
0003e0 98 7a c5 bc 3e 1b 95 3b fa ae b7 3b e6 bd 4c bc
       -0.024106309 0.0045503667 0.0056055756 -0.012496447
0003f0 bd 88 30 3c c1 f3 a9 bd 7b 6f 9f be 86 06 24 be
       0.010774788 -0.082984455 -0.3113974 -0.16018113

encoder.model.1.0.bias f4 [8]
000000 38 54 81 bd ff ca 89 3d af c7 d7 bc 88 de 73 3d
       -0.063148916 0.067281716 -0.026340334 0.059538394
000010 fc 7c 92 3d 96 cd 01 3d 9c 5d a0 3d ef 86 13 bc
       0.07152745 0.031690203 0.078303546 -0.009004339

encoder.model.1.1.weight f4 [8]
000000 db 30 82 3f 31 af 3a 3f 1f d7 96 3f cc ad ae 3f
       1.017116 0.7292357 1.17844 1.3646789
000010 f1 23 c6 3f ae c8 4f 3f 72 3f 29 3f b8 c6 0c 3f
       1.5479718 0.8116559 0.66112435 0.5499072

encoder.model.1.1.bias f4 [8]
000000 0d 49 49 3e 4c 72 29 3f 17 db 33 3e b0 5d 4f be
       0.19656773 0.6619003 0.17564045 -0.20250583
000010 d6 23 62 be 1e 76 8d 3e cc 5f 61 3e fc 87 35 3e
       -0.22083983 0.2762918 0.220092 0.17727655

encoder.model.1.1.running_mean f4 [8]
000000 43 80 b3 be 68 4f 1d be 1f 7e cd be 82 77 88 be
       -0.35058793 -0.15362322 -0.40135285 -0.26653677
000010 80 08 cb be 51 e1 ac 3e c9 59 a9 3e 8f 7d 87 3e
       -0.39654922 0.33765653 0.33076313 0.2646298

encoder.model.1.1.running_var f4 [8]
000000 6d 16 a9 3e 1c b3 b9 3e ba ea d4 3e 38 e6 d1 3e
       0.33024922 0.36269462 0.41585332 0.40995955
000010 97 be e2 3e ae 9c b7 3e 3e b7 ac 3e df e7 45 3e
       0.44286034 0.35861725 0.33733553 0.19326733

encoder.model.2.0.weight f4 [16, 8, 3, 3]
000000 32 00 20 be 1c 57 02 3d 70 0f c0 bc 02 f1 0e 3e
       -0.15625075 0.031821355 -0.023444861 0.13959125
000010 e5 55 fa 3c d1 e1 99 3d aa 42 f2 bd c3 2a 99 3e
       0.030558536 0.07513774 -0.118291214 0.29915437
000020 38 2d bb bc 04 73 f4 3d 6d 8b 35 3e b9 2b c0 bc
       -0.02284871 0.11936 0.17728968 -0.023458349
000030 64 02 96 3e db 93 8d bd 0c 2a ce 3c a8 a3 30 3e
       0.292987 -0.06912967 0.025166534 0.1724993
000040 5a ac 76 bd 09 b5 be bd 4e 18 82 bd ab 7e 08 3e
       -0.06022296 -0.093118735 -0.06352292 0.1332957
000050 77 fb 5d 3d 1d ef 51 3d 37 e4 65 3d d0 e8 b9 3e
       0.054194894 0.051253427 0.056125846 0.36310434
000060 57 f8 7a bd aa 74 cb 3c fd 9d 3a bd 96 89 e4 3c
       -0.06127199 0.024835903 -0.045560826 0.027897637
000070 7c 49 5c 3d a2 4c 6d bc 3c 41 d4 ba 31 1d a3 bc
       0.053781018 -0.014483603 -0.0016193758 -0.01991138
000080 1c 1d 47 3d 37 91 af 3b f7 2e 08 3e e5 6f 83 bd
       0.048611745 0.005357887 0.13299166 -0.064178266
000090 ee 62 0f be 48 21 10 bd 7b 4f 18 3d d9 61 4d 3e
       -0.14002582 -0.03518799 0.037185173 0.20056857
0000a0 c5 55 65 3c bb a4 78 3d ca 72 93 bd b0 8d 1d 3d
       0.0139975 0.060703974 -0.07199629 0.0384652
0000b0 92 54 54 bd 78 8c 57 3e 24 eb de 3c fb 73 b3 3d
       -0.051838465 0.21049678 0.027211733 0.08762356
0000c0 3e 9a 40 3d 5c f6 25 3d 9c a6 12 bd 5d b3 6b bc
       0.047022097 0.04051815 -0.035803422 -0.014386025
0000d0 e8 4f 0d be 0f d8 13 3d ea 9c 1d be 66 50 3e be
       -0.13800013 0.03609472 -0.15391889 -0.18585357
0000e0 fd 6d cd bc d2 cc d9 bd f8 90 c3 3d 6e c1 8b 3e
       -0.02507686 -0.106347695 0.09549135 0.27296013
0000f0 38 6a 3d be 30 73 30 bd ab c1 b0 bd 34 d3 e3 bd
       -0.1849755 -0.0430786 -0.08630689 -0.11124268
000100 74 06 53 be c7 d0 63 bd 02 02 e8 bd 25 1d 85 3d
       -0.2060793 -0.055619027 -0.11328508 0.064996995
000110 f9 49 c8 be 96 81 43 3e e7 06 7b 3d 24 ec 8a bc
       -0.39118937 0.19092402 0.06128588 -0.016958304
000120 6e 8a c8 bd 2e ba 0b 3d dc 7e d5 ba 51 71 ec bb
       -0.09792028 0.0341131 -0.0016288417 -0.007215657
000130 3e 2c df 3c be d8 6f 3d 3a f9 d2 bc 12 fc 72 3d
       0.027242776 0.05855631 -0.025753606 0.059322424
000140 5b 61 9f bd 20 1c e3 be 1f 49 8a bd d5 25 be 3c
       -0.07782241 -0.44357395 -0.06752228 0.0232114
000150 10 6e 87 be db b1 11 be f6 73 88 3d 44 ea 92 bd
       -0.2645116 -0.14228003 0.06662743 -0.07173589
000160 07 14 3b 3e 28 64 34 be b9 c3 03 be 61 b0 d0 3d
       0.18269359 -0.17616332 -0.12867631 0.101898916
000170 8e 9c aa 3c 5e 70 12 bd 9f 99 39 bd be 61 95 3d
       0.020826604 -0.035751693 -0.04531252 0.072940335
000180 76 3d 35 bc 96 41 84 3d 38 b2 ba 39 91 c6 d0 bd
       -0.011062017 0.06457822 0.00035609468 -0.101941235
000190 9e 0b 84 3b bb 72 26 3d 18 1a 9e bd 93 ef fb bd
       0.004029705 0.04063676 -0.07719821 -0.123015545
0001a0 69 40 97 3d dd 21 8c bc 1d fe a6 3e 16 97 81 be
       0.07385332 -0.017105991 0.32615748 -0.25310582
0001b0 27 c5 3c 3c ce be 83 3d ac 1a 80 bc 9a ff 03 3e
       0.011521614 0.064328775 -0.015637718 0.12890473
0001c0 f6 97 f4 bc 09 e4 0e 3e ed 36 74 3d e1 ac 10 3e
       -0.029857617 0.13954176 0.059622694 0.14128448
0001d0 41 4d 7b be 57 63 87 be c4 f2 fe bd 64 69 d5 bc
       -0.24541189 -0.26442978 -0.124486476 -0.02605123
0001e0 1d 7b 02 be 94 df e5 bd ff 34 1a 3d 53 67 75 bd
       -0.12742276 -0.11224285 0.037648197 -0.05991299
0001f0 f7 90 5e bd 3f 36 01 3e 34 11 71 be 5b 63 1f 3e
       -0.054337468 0.1261835 -0.23541719 0.15565245
000200 94 b4 ce 3b c5 14 62 be 1a 24 c2 bb 94 57 2a bc
       0.0063081477 -0.22078235 -0.005924714 -0.010396857
000210 0e e7 3e bd 7a 0e 37 be af e9 0c 3e 7f 8f fa bd
       -0.04660707 -0.17876616 0.13761018 -0.12234401
000220 09 f3 45 bd 76 bc 1f 3c ae 81 13 be cb 82 2d be
       -0.04832748 0.009749522 -0.14404938 -0.16944425
000230 75 ca 62 bc 92 5a 2c bd c5 36 b2 bd 59 08 e3 bd
       -0.013842215 -0.042078562 -0.08701853 -0.110855766
000240 d5 19 3a 3d e4 82 62 3d 09 82 d3 bc f5 12 a4 3d
       0.04543479 0.05530061 -0.025818842 0.08011428
000250 0a f2 9a be 31 c4 1b 3e ff 27 c9 3b ed 44 83 be
       -0.30262786 0.1521156 0.006138801 -0.25638524
000260 29 fd 1c 3d 34 de a8 bc 91 2d 38 bd 6c de 9d bc
       0.03832737 -0.020613767 -0.04496533 -0.019271098
000270 04 53 6d 3d aa e4 96 3d 7e f6 e1 3d 2a 93 76 3d
       0.057940498 0.07367833 0.11033343 0.06019894
000280 06 e4 8b 3e 8f ac f5 3c d8 5f f7 3c e4 d0 cf 3c
       0.27322406 0.029989509 0.030197069 0.025368161
000290 dc fe 9c 3d 3a 1a 2c 3e f5 db a0 be b0 f4 6e 3e
       0.07665798 0.1680688 -0.31417814 0.23335528
0002a0 2d 42 18 bd ce ed c5 ba cd 44 97 3d b6 d9 94 bd
       -0.037172485 -0.0015100779 0.073861696 -0.072680876
0002b0 24 42 f3 bd b4 97 ae 3d f8 fc 1f 3d df ec 28 bd
       -0.1187785 0.08525029 0.03905961 -0.041241523
0002c0 f8 3e 78 3e 2c 64 d5 bd 8c 38 50 3e 07 b6 74 3d
       0.2424277 -0.10419497 0.20334071 0.059743907
0002d0 20 8f 6c 3d 8f b5 2e bd c9 90 a9 3d 2b ff 18 3e
       0.057753682 -0.042653617 0.08279569 0.14941089
0002e0 22 ff fb bd af 04 91 3e df 65 0b be c0 40 28 bc
       -0.12304522 0.28323886 -0.1361308 -0.010269344
0002f0 e5 68 29 3e d6 c7 51 bc bf 16 e9 3d 43 1f 3b 3d
       0.1654392 -0.012803992 0.113812916 0.04568411
000300 1e b8 ef 3c d1 d5 54 3e 7d 53 7d bd 40 13 ee 3d
       0.029262599 0.2078469 -0.0618472 0.116247654
000310 fd 2c 83 3e 5c 43 1a 3c e8 72 6c bc 04 45 8c 3d
       0.2562026 0.009415474 -0.014431693 0.06849101
000320 65 3f 13 be 7b dd 50 3e 31 d9 b8 3d 82 54 60 3d
       -0.14379652 0.20396988 0.09025801 0.054768093
000330 07 97 66 3e db 50 3b be 5d 81 50 3d e3 c4 59 bd
       0.2251855 -0.18292563 0.05090462 -0.05316628
000340 c4 d9 b4 3d 3c a0 6e bc ba d0 ec bd b8 79 0e 3e
       0.08830598 -0.01456457 -0.11563249 0.1391362
000350 1d bd 5d bd 00 87 44 bc e9 c9 ea 3c a8 ce 97 3b
       -0.05413543 -0.011995077 0.028660731 0.0046327896
000360 a6 80 c8 bd a5 1a 21 be 33 9a 9d bd a1 d1 d0 3d
       -0.09790163 -0.1573282 -0.07695427 0.101962335
000370 85 15 b8 3c af 76 04 3e a6 9b 16 bd 05 f8 d7 bd
       0.022471199 0.12935899 -0.03676953 -0.10545353
000380 c4 c7 c0 bc 8f a9 1f bd f6 51 e4 bd de ae 9c bd
       -0.023532756 -0.038980063 -0.11148445 -0.07650541
000390 dd 8a 0b 3c d7 02 b4 be 23 ae f0 3a 2c df 15 3d
       0.008516994 -0.35158417 0.0018362444 0.036589786
0003a0 2a 5a 11 3e 71 f9 a8 bd d3 7b ef bd 5e 07 31 bd
       0.14194551 -0.08250702 -0.116935395 -0.043219917
0003b0 45 d2 11 bd 47 a1 a7 3d a1 5f f9 bd 68 23 1f be
       -0.03560092 0.08185058 -0.12176443 -0.1554085
0003c0 87 7e bc bd 29 82 b1 bd 2c 3e 60 be 11 1d 32 3c
       -0.09203821 -0.08667404 -0.21898717 0.010871188
0003d0 72 dc c5 bd 76 8e 1a 3d b4 01 34 3d 27 74 c3 be
       -0.09661187 0.037733518 0.043946937 -0.38174555
0003e0 fd e5 67 3e bf 20 a8 bc 65 bb fa 3d 0b 67 49 be
       0.22646327 -0.020523427 0.12242774 -0.19668214
0003f0 5d e9 20 bd 6c d0 14 be c6 88 dc bd 82 3a d1 3d
       -0.039285053 -0.14532632 -0.10768275 0.102162376

encoder.model.2.0.bias f4 [16]
000000 ba 5e 8a 3d b6 0f d5 bd 4f e2 39 bd a3 58 d2 3d
       0.06756349 -0.10403387 -0.04538184 0.10270812
000010 e3 69 b2 bd db 4b 11 3d a6 2b 5f 3d ce 2e ab bd
       -0.087116025 0.035472732 0.054484986 -0.08358537
000020 2d 02 d3 bd 49 a0 3d bd d5 b9 bc bd a3 d4 3c bd
       -0.10303149 -0.046295438 -0.09215132 -0.046101224
000030 b1 4c f0 bd fa 78 d9 bd 32 26 87 3d 4d 74 9f bd
       -0.11733378 -0.106187776 0.06599082 -0.077858545

encoder.model.2.1.weight f4 [16]
000000 16 4c 86 3f 60 36 97 3f 65 f3 4b 3f 53 e5 23 3f
       1.049197 1.1813469 0.79668266 0.64021796
000010 d2 4e 0c 3f d6 91 6e 3f 12 29 53 3f e1 4e 89 3f
       0.5480777 0.9319128 0.82484543 1.0727197
000020 90 ed 19 3f 85 7b 60 3f 00 66 29 3f b6 12 b1 3f
       0.60128117 0.87688476 0.66171265 1.3833835
000030 3d dd a5 3f 5a 8e 61 3f 32 e9 4d 3f 16 18 5b 3f
       1.2958142 0.88107836 0.8043395 0.8558363

encoder.model.2.1.bias f4 [16]
000000 8b 4a 0d bf fe e5 9a 3d 28 72 4e 3e 35 7b ff 3e
       -0.5519187 0.07563399 0.20160735 0.49898687
000010 f7 7f d2 3e 78 57 16 3f 66 c3 4b 3e ed 0a 66 be
       0.41113254 0.58727217 0.19898757 -0.22465105
000020 8d c2 01 bd da a9 3a 3f 7f 22 24 3d b7 a9 fa 3d
       -0.03167968 0.7291542 0.04007196 0.12239402
000030 09 8c 3c be da 1d 2b 3f 7a 9b 87 3e b3 e0 a5 3e
       -0.18412794 0.66842425 0.26485807 0.32397994

encoder.model.2.1.running_mean f4 [16]
000000 fc 63 24 3f 72 e7 6f bf a1 43 83 3f c0 15 38 bf
       0.64215064 -0.9371253 1.0255014 -0.7190819
000010 25 54 3f be 34 34 18 bf 26 0f 3b 3e 4d 4b ec be
       -0.18684442 -0.59454656 0.18267497 -0.461512
000020 b2 8d 04 3f b3 08 4a be ce 14 1a 3f 62 2a 48 bf
       0.5177871 -0.19729881 0.60187995 -0.7818967
000030 be 81 9f 3e 64 d5 19 3e 22 ba 62 be cc d4 13 3f
       0.31153673 0.15022808 -0.22141317 0.5774658

encoder.model.2.1.running_var f4 [16]
000000 8d 1b e4 3e ec 8d 62 3f 24 5a 20 3f 2e 22 20 3f
       0.4455227 0.88497806 0.62637544 0.62552154
000010 ee 1b ca 3e 66 5c 9e 3f 88 f3 55 3f 80 c7 65 3f
       0.39474434 1.2371948 0.83574724 0.8975754
000020 b9 06 99 3e 7d 58 45 3f 1a 3f cf 3e 1a 8f 9e 3f
       0.2988794 0.7708815 0.4047783 1.2387421
000030 51 da be 3f 8d e7 88 3f 4c 38 6a 3f 7c 74 31 3f
       1.4910375 1.0695664 0.9149215 0.69318366

encoder.model.3.0.weight f4 [16, 16, 3, 3]
000000 18 2b 9b bc 1f eb 78 bd b8 29 c5 3a 4e 97 4d be
       -0.018941447 -0.060771104 0.001504234 -0.2007725
000010 53 db 12 be d5 0d b0 3d 9c 1e 8e bc 1e 59 98 3c
       -0.14341478 0.08596388 -0.01734858 0.018597182
000020 10 0e 2c bd 0f 17 c8 3d fd 6a 83 3d 96 b0 13 be
       -0.0420056 0.09770023 0.06416891 -0.14422831
000030 d5 f2 b1 bd bb 7f 50 3c cb 4b 08 3e c5 90 15 3e
       -0.08688895 0.012725766 0.13310163 0.14606006
000040 3a a6 72 bd 32 24 4d 3d 5a f5 e5 bc 6f 74 be bd
       -0.059240557 0.050083347 -0.028071094 -0.09299552
000050 5c 39 85 3c fe f0 1b be bf 5d 91 3e 19 67 92 3c
       0.016262703 -0.1522865 0.28391835 0.017871426
000060 d7 3a b7 be 3c 87 4f 3e 03 90 c0 3c 59 2b b3 3c
       -0.3578708 0.20266432 0.02350617 0.021871256
000070 09 27 87 3d aa 0e a9 bd e1 b7 32 bd e2 5e 82 bd
       0.06599242 -0.0825475 -0.04363239 -0.06365754
000080 b9 e8 93 3d 8d af 68 be cd ee b4 3d 32 f5 4e 3e
       0.07222123 -0.22723217 0.0883461 0.20210722
000090 4c a0 8b 3d 80 8a 6d 3d b1 2d f0 bd bc cc ea 3c
       0.068176836 0.057993412 -0.11727465 0.028662078
0000a0 ba 4e 6e ba 15 43 8b 3d 9f 9f 68 3e fb b6 ac bd
       -0.00090907107 0.06799904 0.2271714 -0.08433338
0000b0 fc 08 ff bc 49 7e 0e bd 11 fa 1f bb cf 21 a1 3d
       -0.031132214 -0.034788404 -0.0024410526 0.078677766
0000c0 ad 9b f7 bd 3b cb ce 3c d3 e6 a6 3d a2 9b 69 be
       -0.1209024 0.025243392 0.08149495 -0.22813275
0000d0 d5 75 55 bd d5 6a 20 3e 8f e5 33 be 0d a1 4d bd
       -0.052114327 0.15665753 -0.17568038 -0.050202418
0000e0 b8 97 5f bd 83 58 f3 bd ac ac ae bd 23 66 33 3e
       -0.05458805 -0.11882117 -0.08529028 0.17519431
0000f0 46 97 8f bc 55 d5 bb bd 5c f0 02 bd d7 47 11 3c
       -0.017528187 -0.09171549 -0.031967506 0.008867226
000100 32 56 f9 bc 7c 69 04 3c 6e fb 1d bd 5c af df 3c
       -0.030436609 0.00808179 -0.03856986 0.027305298
000110 39 b7 bd bc bf 00 29 3d a4 ce b3 3b 21 b3 35 3d
       -0.023158656 0.041260477 0.00548728 0.044360284
000120 da f9 af bd c9 e7 25 bc 4d 1b bc bc 18 e7 7b be
       -0.08592577 -0.010126063 -0.022962237 -0.24599874
000130 e0 5b f5 bc e4 df 28 3d df ac a3 bd 18 c3 41 3d
       -0.029951036 0.041229144 -0.07991957 0.047305197
000140 af 17 3a 3c b1 2c 00 3c 66 2a 4a bd 51 e5 92 3d
       0.011358186 0.007823155 -0.04935684 0.07172645
000150 c3 76 00 be 44 a4 33 3e 53 5d 71 bd 33 f4 4c be
       -0.12545304 0.17543131 -0.05892689 -0.2001503
000160 73 1f 30 3d 1b 20 37 bd 61 0c 50 bd 76 1d 14 3d
       0.042998742 -0.044708353 -0.050793055 0.03616091
000170 5b 7c e0 3d 68 c0 59 3d 12 2a fe bc 6d 7b a9 bd
       0.10961219 0.05316201 -0.03102592 -0.08275495
000180 3d 77 57 bd 78 c1 c1 bd 7a b2 93 bd df ab 5c 3e
       -0.05260395 -0.09460729 -0.07211776 0.21549939
000190 37 43 ea 3c 09 cf 2b 3d 9d 61 56 bd 33 86 9f bd
       0.028596504 0.04194549 -0.052339185 -0.07789268
0001a0 cd 60 d8 bd bf 69 b9 3e d0 08 45 bd c2 92 ec bd
       -0.10565338 0.3621349 -0.048104107 -0.11551429
0001b0 cc 15 48 be d6 c6 25 3d 0e 96 a5 3c 18 22 bb 3c
       -0.19539565 0.040472828 0.020213153 0.022843406
0001c0 1b c0 3b 3c d2 67 4b bd 8a 1b fc bb 35 3e 71 3c
       0.011459376 -0.049659558 -0.0076937126 0.014724304
0001d0 d2 79 01 3d f8 4b b8 3d 0d 07 9a 3d ef 32 ba bd
       0.031610318 0.08998865 0.07520876 -0.09091746
0001e0 0a 4a 82 be fd 8a 1a 3c 33 2c 86 be 3d 2a ab be
       -0.25447112 0.009432551 -0.26205596 -0.33430663
0001f0 9d 8e b7 3c 3f 33 4f 3e 82 f7 ae bd b8 6b 8a bc
       0.02240687 0.20234393 -0.08543302 -0.016897067
000200 0f f6 73 3c 38 d2 c5 be 33 68 0f 3e 20 42 af bb
       0.014890208 -0.38636947 0.14004593 -0.005348459
000210 9d 7c 99 be 37 50 bf 3c b7 7f 3c bd d5 c2 51 bd
       -0.29977885 0.02335368 -0.046020236 -0.051211197
000220 59 d3 09 3d fc bb 95 bc 69 bc a2 bc c1 97 d4 3c
       0.033648822 -0.018278114 -0.019865232 0.025951268
000230 de 27 38 3e bb 3a 2e be ee 3a 26 3e 29 38 df bd
       0.17983958 -0.17014591 0.16233417 -0.108993836
000240 83 f2 de 3c 66 aa ff 3c 0a e7 d6 bc c3 cd 09 bd
       0.027215248 0.031209182 -0.026233215 -0.033643495
000250 c2 33 3d 3e 28 bd 1d 3e 86 19 24 3d 7d 70 f9 bd
       0.18476775 0.15404189 0.040063404 -0.121796586
000260 4e ea f4 3d d6 07 e9 b8 e0 cd 2f 3d 29 ba 08 3d
       0.119587526 -0.00011111765 0.042920947 0.03338066
000270 3c ae 41 be 2a 63 13 bd 3d 1a 19 be 3f 54 50 3d
       -0.18914121 -0.035983242 -0.14951415 0.050861593
000280 17 29 8a bb 6f 3c 4c bd ad b5 3e 3d ba 1d 93 3d
       -0.004216324 -0.04986232 0.04655998 0.07183404
000290 1e dd fe bb 2c 4c 56 bb ad f5 bb bc b1 73 61 bc
       -0.007777824 -0.003269921 -0.022944296 -0.013760493
0002a0 4c 86 16 3d 9f a8 ab 3d 07 d8 16 3d 9c 7f 23 3d
       0.03674917 0.08381771 0.036827113 0.03991662
0002b0 73 a3 2d 3d ce 6b 88 3d da 8e 31 bc 91 10 2a be
       0.042392205 0.06661187 -0.010837281 -0.16607882
0002c0 46 7e e0 3c a4 90 5e bd 70 37 74 3e 39 fc d7 bd
       0.027403962 -0.05433716 0.23849273 -0.105461545
0002d0 da 7e b5 3d c6 f0 ad 3d a0 4c a3 3c 79 ff a8 3d
       0.08862086 0.084931895 0.019933999 0.082518525
0002e0 89 54 2a bc 71 ca da bc e2 45 ad bc fc 20 e4 3d
       -0.010396131 -0.02670786 -0.021151487 0.11139104
0002f0 c9 90 c7 3d f0 9a 4e 3c 32 fd a2 3d 9a e2 77 3b
       0.097444125 0.012610182 0.079584494 0.0037824274
000300 b8 d1 b2 3c a9 09 75 be 15 73 c5 3d c0 66 e9 38
       0.021828517 -0.23929466 0.09641091 0.000111294445
000310 51 ef aa bc 8c be 79 be 43 e4 ae bb 88 2c 9d 3d
       -0.020866068 -0.24389094 -0.0053372695 0.07674509
000320 c1 96 73 3c 71 4a f9 3d 3a 22 0d 3e 98 b3 c1 3d
       0.0148674855 0.12172402 0.13782588 0.09458083
000330 9a 3f 7c be 9b d1 54 be 6b a4 12 bc c5 46 c7 3d
       -0.24633637 -0.20783083 -0.008950333 0.09730295
000340 86 a2 bc 3c 5e dc d2 bc 63 80 15 3c 8e 06 00 bd
       0.023026716 -0.025739845 0.009124848 -0.03125625
000350 e8 9d a6 3e 26 bc 0e bc cc ab b3 bc d5 1a 93 3d
       0.32542348 -0.00871185 -0.021932505 0.07182852
000360 7c 88 be 3d 27 d8 ec 3c 64 6d e5 bb 5f b1 97 bd
       0.09303376 0.028911663 -0.007001566 -0.07406878
000370 61 f7 09 3d fa 28 62 bd f6 f4 64 3d ef 17 75 bb
       0.033683185 -0.05521486 0.055897675 -0.0037398299
000380 9b 17 ab bc da 2f f4 bc ed b7 92 3d 1e 2b c4 3c
       -0.02088528 -0.029807974 0.07163987 0.023946341
000390 06 9b aa 3d c0 e1 4b be 46 ed c3 3d ed 3e a2 bd
       0.083303496 -0.19910336 0.09566741 -0.079221584
0003a0 db 01 19 bd 6f 83 11 bc d7 08 8c 3d 18 dd cd ba
       -0.037355285 -0.008881434 0.068376236 -0.001570615
0003b0 fd e5 40 3d 69 48 53 bd b1 9e 4d be ce 2f bd 3c
       0.047094334 -0.051582728 -0.20080067 0.023094084
0003c0 03 fc 14 bd 91 ac d0 3c f9 de f2 bc 4f 49 ab 3d
       -0.03637315 0.025472911 -0.029647337 0.08363592
0003d0 0d 18 91 3d 63 b2 ad bc dc 4e 58 bf a1 a5 83 be
       0.070846654 -0.021203225 -0.8449533 -0.25712302
0003e0 fc 42 6b be 64 96 92 bd 8c b3 68 3c 99 c4 f7 3d
       -0.22974771 -0.07157591 0.014202964 0.12098045
0003f0 c5 86 02 3e ab 15 2b bd 05 2e c8 bd 6f 5b ee bd
       0.12746723 -0.04176871 -0.097744025 -0.11638533

encoder.model.3.0.bias f4 [16]
000000 4d c2 a4 bc 3d e0 d3 3c 88 64 fd 3c 05 f9 d2 39
       -0.020112181 0.025863761 0.030931726 0.00040239855
000010 8c b4 0c 3d 7e 51 b4 3c 98 38 8b 3c a6 50 88 bb
       0.03435187 0.022011515 0.01699476 -0.0041600047
000020 43 4d 24 bd e6 f0 db 3c d8 53 a3 bd 5f dd 2b 3d
       -0.040112745 0.026848268 -0.07974976 0.041959163
000030 2a 23 c3 3c a3 24 71 3c ed a3 4c bd b8 11 1d bd
       0.023820478 0.0147182075 -0.04996102 -0.038346976

encoder.model.3.1.weight f4 [16]
000000 da 83 53 3f 9d fd 2f 3f 3c b0 2d 3f 92 82 7a 3f
       0.82623065 0.6874636 0.6784704 0.97855484
000010 11 e4 24 3f a0 50 5e 3f c5 ee 4a 3f 84 57 6e 3f
       0.644105 0.86841774 0.79270583 0.9310229
000020 0d 26 e3 3e 56 2c 76 3f 5d 5f 55 3f 51 b4 d7 3e
       0.44364968 0.961614 0.8334864 0.42129758
000030 45 85 5b 3f 66 05 41 3f 33 59 5c 3f 2b 50 38 3f
       0.8575023 0.7539886 0.8607361 0.71997327

encoder.model.3.1.bias f4 [16]
000000 f5 e4 c9 bd cb a5 65 3e 38 6e 1c 3e 0d ad 34 3d
       -0.09858123 0.22426526 0.1527642 0.044110347
000010 13 44 3e 3e b5 6c 96 bd ea 88 91 3e 1a 4d f7 bb
       0.18580656 -0.07344953 0.2842477 -0.007547033
000020 5e 67 b8 3e 6a 87 8a 3c e8 4c 2d bd ed af f0 3e
       0.36016363 0.016910274 -0.04230967 0.4700922
000030 f1 ea ba bd 2a 9d f7 3d dc 2d 9c bd 16 d4 92 3e
       -0.09126843 0.120905235 -0.076259345 0.28677434

encoder.model.3.1.running_mean f4 [16]
000000 2e 65 5f bf 1d f5 61 bf 1a 8c 95 bf a0 28 c1 bf
       -0.8726376 -0.8826464 -1.1683381 -1.5090523
000010 36 39 73 3e 02 be c7 be b9 19 32 3d 89 ea 85 be
       0.23752293 -0.39012152 0.043481562 -0.261555
000020 d6 4a d2 3e cc 21 12 be ef 24 76 bf d8 13 e3 be
       0.4107272 -0.14270705 -0.96150106 -0.44351077
000030 7d e5 a9 bf 9d af bd bf 57 c6 b3 bf c4 9a 50 be
       -1.3273159 -1.4819218 -1.4044904 -0.20371538

encoder.model.3.1.running_var f4 [16]
000000 48 a7 00 40 7d 06 bc 3f f2 97 bd 3f 17 0e 94 40
       2.01021 1.468948 1.4811995 4.62672
000010 de d2 e8 3f 65 2f b1 40 8e f8 81 40 6b a6 6a 40
       1.8189352 5.5370355 4.061591 3.6664073
000020 84 10 88 3f 0b 66 9a 40 f1 4c 4e 40 64 b6 4a 3f
       1.063004 4.8249564 3.2234461 0.79184556
000030 23 70 4a 40 49 64 34 40 4a af 2b 40 74 09 3e 40
       3.1630943 2.818621 2.6825738 2.969327

encoder.fc.0.weight f4 [32, 64]
000000 62 a4 56 bd 67 df 1b 3e 8c 49 93 bd 21 4f 14 be
       -0.05240286 0.1522194 -0.07191762 -0.1448331
000010 09 9b ae bb 30 cc 29 3c 76 4d ae bd 47 94 12 be
       -0.00532854 0.0103636235 -0.08510868 -0.14314376
000020 a0 7f 12 3e c6 0c ef bb 29 d8 73 be 1f 07 2b 3d
       0.14306498 -0.007295224 -0.23812927 0.041754838
000030 8a 02 27 be 88 83 ab bd 1f 02 a1 bd bb eb aa bd
       -0.16309562 -0.08374697 -0.07861733 -0.08345743
000040 18 b5 bc 3d 98 8e 92 bd 8d 68 12 bd 8a ed 00 3e
       0.092142284 -0.07156104 -0.03574424 0.12590614
000050 0b f8 5f bd c5 c3 d1 3d 63 df b9 3d 85 18 83 bc
       -0.05467991 0.10242418 0.09075811 -0.016002903
000060 3b 38 8f be 01 d8 b3 3c 60 97 20 be 61 a6 f3 3c
       -0.27972588 0.021953585 -0.15682745 0.029742422
000070 67 2a dc bd 9c 6b 55 3b 1c 88 12 3e 74 cc 64 bd
       -0.10750275 0.003256536 0.14309734 -0.055859044
000080 9b fb f2 3d 47 6b 0d bd 1b d0 5b 3d 46 37 b4 be
       0.11864396 -0.034526136 0.05366526 -0.3519842
000090 71 0f de 3c 76 70 24 be 73 9f 3d bc cc 1c fe bc
       0.027106972 -0.16058525 -0.01157366 -0.03101959
0000a0 d2 2d a5 bd 20 a7 31 3d e7 9d 1c 3c 91 e6 23 bd
       -0.0806538 0.043372273 0.009559131 -0.040014807
0000b0 8b bf 35 3d be a7 f3 bd 72 7e 8d 3d 35 ff 9f bd
       0.044372123 -0.11897229 0.06908883 -0.07812349
0000c0 74 e8 ed bd 81 d0 a9 3c 0b 90 6c 3d fa 7d ab bd
       -0.116166025 0.020729305 0.057754558 -0.083736375
0000d0 a9 b9 ce 3a 29 50 51 be 41 ec 0f bd e6 ca 3d be
       0.0015771884 -0.20440735 -0.03513742 -0.18534431
0000e0 d3 b1 d0 bd bc e0 cc bb 4d 68 8c be 50 4d 5d 3d
       -0.10190167 -0.0062523764 -0.27423325 0.05402881
0000f0 d5 89 f7 bd e1 dc 45 bd 0c 42 15 3d f2 cf c1 3d
       -0.12086836 -0.04830635 0.03643994 0.094634905
000100 83 5b 30 3e b4 01 5c bd 3e 0e 5e bd 9d fa af bd
       0.17222409 -0.05371256 -0.0542128 -0.085927226
000110 f6 8a 20 3d 7b a1 2c 3e 84 6b 8c 3d 33 d9 04 3d
       0.039195023 0.16858475 0.068564445 0.0324337
000120 7e 3d 61 3d 08 11 79 bd ab b8 d0 3d c8 4b 4c 3d
       0.054990284 -0.060807258 0.101914726 0.049876958
000130 45 06 3b 3d af 4b 96 bc 5c 65 e8 3d 68 b9 e7 bd
       0.045660276 -0.018346636 0.11347458 -0.1131466
000140 dc 3b 8d bd e1 af fd bc 23 f1 d5 bd 94 cc 4e 3d
       -0.06896183 -0.030967655 -0.10446384 0.05048807
000150 69 54 ae bd 56 7c 99 bd f2 9d 1a bc 2b e8 66 bd
       -0.08512194 -0.07494418 -0.009437071 -0.056373756
000160 3d 24 0e be 60 28 68 3c e6 42 19 be 8b 21 bf 3d
       -0.13881011 0.014169782 -0.14966926 0.0933257
000170 05 57 d6 bd 8b 14 6b 3d 6a db e5 ba 43 9f 8a bd
       -0.104658164 0.05739264 -0.0017536704 -0.06768658
000180 eb 3f 27 3d 8d b4 4a 3e 53 e3 ea bd ed f1 e5 bc
       0.04083244 0.19795437 -0.1146914 -0.02806946
000190 77 46 55 3c d4 38 6f bc 9f 44 27 be e3 48 78 3c
       0.013017288 -0.014600951 -0.1633477 0.015154096
0001a0 4d c9 44 3d d5 1d 17 3e ef d3 09 be 12 e0 9d 3d
       0.048043538 0.14757474 -0.13459753 0.07708754
0001b0 7b 4c 48 bd f2 4c 41 3e a2 b4 df b9 91 13 85 bd
       -0.048901062 0.18877009 -0.00042668456 -0.064978726
0001c0 ad 9c 6e bc 35 24 ed 3d 11 cc 2d bd 8a fd 95 3a
       -0.014563722 0.115791716 -0.04243094 0.0011443358
0001d0 d1 c0 04 3d ad 14 ea bd ac 60 c1 bd fd 5c 47 bc
       0.032410447 -0.11429725 -0.09442267 -0.012168166
0001e0 a9 9e 9b be 57 56 1e be 51 e5 3e bd 43 e7 8b 3c
       -0.30394486 -0.15462624 -0.046605412 0.017078048
0001f0 84 14 1f be 21 3a 9f 3d 93 21 6f 3e 7c 9e 9f 3d
       -0.1553517 0.07774759 0.23352651 0.077939
000200 d1 03 24 bd 19 e0 c1 bb 18 f8 96 bc 35 11 bf 3c
       -0.040042702 -0.005916607 -0.018428847 0.023323635
000210 f8 a2 43 3c 7e 72 29 3e 2b 8c 78 3d ac b2 81 3d
       0.01194071 0.16547582 0.06068055 0.06332907
000220 d4 d1 a3 3c b7 9f b1 bd d8 f5 70 3d 40 ae 1a be
       0.019997515 -0.08673041 0.058828205 -0.15105534
000230 63 73 21 3e 7d 95 74 3e cd 5f 8e bd fb 4f b9 bd
       0.15766673 0.2388515 -0.06951866 -0.09048458
000240 fc 60 2b 3e 64 5e ad bd 0b f9 07 3e e2 39 96 bd
       0.16736215 -0.08465269 0.13278596 -0.07335259
000250 c7 00 94 3c cd a0 46 3d 88 1f 4c bc 4e ee c5 3d
       0.018066777 0.048493195 -0.0124586895 0.09664594
000260 4b 0d f9 bc 90 29 9b bd 12 3b f7 3c ed 62 39 bd
       -0.030401846 -0.07576287 0.030179534 -0.04526036
000270 de b4 71 3d 7b 2a 5a bd 31 4a 19 be 0b 72 24 3c
       0.05901038 -0.05326317 -0.14969708 0.010036956
000280 5d 73 40 bc ad 9d 6a 3d ad 71 9e 3d c6 db 46 ba
       -0.011746255 0.057279278 0.07736526 -0.00075858494
000290 a4 fb 60 bd 3c f6 d4 bd 81 56 85 3b e0 4c 36 bd
       -0.054927483 -0.10398528 0.00406915 -0.044506907
0002a0 0a 2e ba 3c 15 59 9e 3d a7 3a 9b bd 1e 61 84 3d
       0.022727031 0.07731835 -0.075795464 0.06463836
0002b0 b6 d4 2a bd 93 f4 90 3d e3 12 81 3d a1 f4 98 3d
       -0.041706763 0.07077899 0.063024305 0.07468534
0002c0 ba c5 61 bd cd 25 1a be d3 01 ae bd b6 46 af bd
       -0.055120207 -0.15053482 -0.08496442 -0.08558409
0002d0 4a 95 5c 3d 40 e8 e3 bd dc 27 b0 3d f0 cb 82 be
       0.05385331 -0.111282825 0.086013526 -0.25546217
0002e0 2d 5d 0a 3e c5 b3 8e bd 0b 03 76 3d c8 72 b6 3d
       0.13512106 -0.06967882 0.060061496 0.089086115
0002f0 8a 82 50 3d 86 c7 8d 3d 35 aa da bd d8 84 ff bc
       0.05090574 0.06922822 -0.10676996 -0.031191275
000300 7c 4f cc bd 8a b9 a3 bd d6 43 2c 3d 0e 5d c8 3c
       -0.09976098 -0.07994373 0.04205688 0.024458434
000310 0a 74 1e bd 95 f3 9b 3d 23 97 70 bd b5 b5 3e 3d
       -0.038684882 0.07614819 -0.058737885 0.046560008
000320 5b ae 2f bd 6d 75 b6 3d d8 bd d3 3d 8a 91 83 3d
       -0.042890888 0.08909116 0.10338944 0.06424244
000330 fe 65 14 3d 78 1d 78 3d 97 bf c4 bd 89 31 27 bd
       0.03623008 0.06057498 -0.09606855 -0.040818725
000340 90 95 37 be 96 c5 2f be e3 0d 74 3a c0 41 d4 bd
       -0.17928147 -0.17165217 0.00093099306 -0.10364103
000350 32 97 b3 bc d5 4e 01 3d 5d aa bb bc 01 61 f3 3d
       -0.021922681 0.03156932 -0.022908384 0.118837364
000360 5c 78 5b 3d 0f fe 54 3c 02 ae 32 be fd 06 59 3e
       0.05358158 0.013000025 -0.17449191 0.21194072
000370 dd 88 4d 3d b0 11 1f 3e c7 44 99 bd 1d 30 8b bd
       0.05017935 0.15534091 -0.07483821 -0.06796286
000380 2f 0d a0 3d 7f b4 6e bd 9d 89 be bb d5 b1 5f bd
       0.078150146 -0.058277603 -0.0058147446 -0.054612953
000390 49 a4 89 3d fd 74 1f 3e 9f 63 78 3d 74 b2 a9 3d
       0.06720788 0.15571971 0.06064188 0.0828599
0003a0 b2 ef ce 3d 23 b0 04 bd b1 17 f2 3d 23 9a e6 3d
       0.10104312 -0.03239454 0.11820925 0.11259868
0003b0 ff 18 42 be 98 d2 0d 3e 10 60 28 be b0 3e a7 3d
       -0.18954848 0.13849866 -0.16442895 0.081662536
0003c0 13 68 12 3e aa b7 a6 3d 76 d2 49 3a 76 ff 05 be
       0.14297514 0.081405 0.00076989026 -0.13085732
0003d0 85 49 0a 3d e0 a4 c6 3d 80 9b 0a be 3e 94 f4 bd
       0.03376152 0.09699416 -0.13535881 -0.119423375
0003e0 84 cb 0b 3e 6b 45 aa 3d fe 3f 08 bd cd 5a 5e 3d
       0.13651854 0.08314022 -0.033264153 0.054285813
0003f0 87 18 47 3e 11 bb 33 bc e6 bb 1a be 1e 1e 27 bc
       0.1944295 -0.010969893 -0.1511074 -0.010200052

encoder.fc.0.bias f4 [32]
000000 92 f2 ee 3b 92 2b cb 3d 38 9d 01 3e db 1b 2d 3d
       0.0072921 0.0992042 0.1265763 0.042262893
000010 93 3e 26 3d 09 ac 4d bd 5e f9 3f 3d e4 d5 f5 bd
       0.04058702 -0.050212894 0.046868674 -0.12003687
000020 3d 64 28 be 5f 45 9f bd 7a f1 44 bd f7 f3 11 be
       -0.16444488 -0.07776903 -0.048081852 -0.14253221
000030 ac 05 e3 bd e8 cf 15 be 8b 93 c0 bd 47 8b c5 bd
       -0.11085066 -0.14630091 -0.094031416 -0.09645706
000040 21 d2 c3 3d 29 d2 4a bc bc 1c fa 3d 13 7c be bb
       0.09561563 -0.012379208 0.12212512 -0.0058131306
000050 4b e4 09 bd 94 8c 55 bd 14 7e b6 bd 2f b6 3a be
       -0.033664983 -0.05213602 -0.08910766 -0.1823356
000060 e5 6d ee bd f7 86 eb 3d 7c 60 df bd ac fc 04 be
       -0.116420545 0.11500352 -0.10907075 -0.12987012
000070 db 15 74 3d 7c b4 09 3e dd 14 d4 bd 69 eb 1f 3d
       0.059591155 0.13447756 -0.10355542 0.039042864

decoder.fc.0.weight f4 [64, 32]
000000 94 42 62 be 0b a6 af 3e d4 1a cf bd 0b ef 02 3e
       -0.2209571 0.34306368 -0.10112539 0.127865
000010 9d 45 30 3d 95 07 b1 3d a6 c2 b4 bd b7 94 8c 3d
       0.04303514 0.08644024 -0.08826189 0.068643026
000020 c4 fe 7e bd 37 05 26 3c 3f ad 8a bc 5c 94 06 3f
       -0.062254682 0.010133079 -0.016928313 0.5257013
000030 9d 43 76 3e 87 9f 80 be 0e 5f 94 be 70 27 6f be
       0.2404923 -0.2512171 -0.2897877 -0.23354888
000040 e6 4c 23 3e d9 22 53 be 33 b1 79 be 31 99 32 3e
       0.15947303 -0.20618762 -0.24384002 0.1744125
000050 7f 7f 3a be 21 25 4d 3e c0 b9 42 be 19 35 73 bd
       -0.18212698 0.20033695 -0.1901617 -0.05937681
000060 8e c3 b7 bd 23 4a d0 3e c1 dd 76 be 94 89 54 bd
       -0.08972846 0.40681562 -0.2410803 -0.051889017
000070 49 ff db 3d 0f f5 1c 3d 7c 51 bb 3e 32 a7 4c be
       0.10742051 0.038319644 0.36585605 -0.19985655
000080 26 1b 68 be 91 d0 a7 bd d3 bd 91 be b3 e6 55 3d
       -0.22666606 -0.08194078 -0.28465137 0.052221965
000090 3f 78 e6 3c ba 82 ab bd d0 63 1e 3e 5c 73 65 3d
       0.02813351 -0.083745435 0.15467763 0.05601822
0000a0 f9 5b 5f 3e 68 f2 0e 3e 6d 38 0d 3e 89 22 b0 bc
       0.21812429 0.13959658 0.13791056 -0.021500843
0000b0 96 d6 6f 3d 5b 79 af bc 9f 59 b5 ba 36 c6 d3 3d
       0.058554254 -0.021420171 -0.0013835913 0.1034054
0000c0 f7 de 13 3e 72 ee 17 be e3 b6 bb 3d 9d 61 f3 bc
       0.14440523 -0.14837053 0.09165742 -0.029709632
0000d0 b0 3c 91 3d cc 0e fb 3d 35 50 fe bc 74 25 f8 3e
       0.07091653 0.12258682 -0.031044105 0.48466074
0000e0 67 9f 21 bd 28 91 de 3d 17 f8 37 be 73 42 f6 bd
       -0.03945866 0.1086753 -0.17965733 -0.12024393
0000f0 b9 81 68 bd 48 95 2c 3e e9 69 b6 be b5 b1 d6 3c
       -0.05676434 0.16853821 -0.35627678 0.026207784
000100 ee 7b fe 3d 42 c9 85 3d 8e 75 2d bd 9a cd 23 bd
       0.124259815 0.065325275 -0.042348437 -0.039991
000110 bd b1 1a 3e 12 3c c4 3d a8 cd 37 bd 5f 07 89 3e
       0.15106864 0.0958177 -0.044873863 0.26763436
000120 97 1e 65 3d 17 41 8e 3d 5b 6d 1a bc f4 8f bb bd
       0.055937376 0.06946009 -0.009425486 -0.09158316
000130 b5 95 3c be 32 a9 94 bc 32 6d 56 bd ec 53 7d 3c
       -0.18416484 -0.018147085 -0.05235023 0.015461903
000140 2b ec 00 be af 7c d9 bc 8d a8 41 be 8c 23 41 3d
       -0.12590091 -0.026548712 -0.18911953 0.04715304
000150 a6 ed 82 3d d2 71 08 3e ce 85 26 3e e8 57 98 bc
       0.06392984 0.13324669 0.1626198 -0.018596604
000160 94 6d 1f be 76 c0 cd 3b cd 3a e8 bd 90 be 9d 3d
       -0.15569144 0.0062790466 -0.1133934 0.077023625
000170 01 a8 34 be b0 fd 55 bd 8b 25 93 3c 32 1a 61 3d
       -0.17642213 -0.05224389 0.017962238 0.054956622
000180 51 af 5b 3b 21 92 12 3d c0 6f 13 3e d7 d6 f4 ba
       0.0033521245 0.03578389 0.14398098 -0.001867975
000190 72 06 d4 3d e3 74 0d 3e bd 5f 2e 3c f4 c1 07 3e
       0.10352792 0.1381412 0.010642943 0.13257581
0001a0 79 6f c2 3d 94 41 d9 bd fa c9 12 bd ed 8d 57 3c
       0.09493918 -0.10608211 -0.03583715 0.013156396
0001b0 e5 8d b6 3d 83 88 f0 bc aa 42 02 be da fd dd bd
       0.08913783 -0.029361969 -0.12720743 -0.10839434
0001c0 7f ee 0a be 63 5f 21 be 1e 2d 26 3e e0 f8 b9 3d
       -0.13567542 -0.15759043 0.16228148 0.09080672
0001d0 08 5a 29 3e 99 97 b7 bd 0d bc f2 ba 0d 52 a8 3d
       0.1653825 -0.08964462 -0.0018519178 0.08218775
0001e0 25 19 20 3c db 75 5d 3c d9 97 e9 3d ee b7 a4 bd
       0.00977162 0.013516868 0.11405916 -0.08042894
0001f0 df 41 41 be 9a 94 e3 3d ec fc 45 bc a4 b4 d8 bc
       -0.18872784 0.11112328 -0.012084227 -0.026453324
000200 f6 70 8b bc 32 20 23 3e 9e b8 23 be bf f6 8a bc
       -0.017021637 0.1593025 -0.15988395 -0.01696336
000210 e4 43 3b 3e 09 df 8f 3d 04 1c 26 3e 56 78 d1 bd
       0.18287617 0.070249625 0.16221625 -0.102280304
000220 62 07 b8 be 53 8f 00 3f 47 21 4b be a9 7d 95 3e
       -0.35943133 0.50218695 -0.19836913 0.29197434
000230 c9 7a 3f bd f3 d9 19 3e c2 b5 64 3e f0 b6 2c be
       -0.046747956 0.15024547 0.2233496 -0.1686666
000240 57 c7 13 3e 81 59 e6 bd 41 3b c1 3c da 09 11 3c
       0.14431511 -0.1124754 0.023587825 0.008852446
000250 2d f2 0b be 72 22 11 be c3 34 87 be 77 5d 1d be
       -0.13666601 -0.14173296 -0.26407441 -0.15367685
000260 e8 11 6c be 45 1d 5c be fb 87 d9 bb 9d 8b ba 3d
       -0.23053706 -0.2149554 -0.0066385246 0.0910866
000270 f9 bb 06 be df 5d a3 3e 63 4d 6a bd 52 81 85 3e
       -0.13157643 0.31907555 -0.057202708 0.26075226
000280 0e 71 a4 bc eb 36 00 be 13 46 05 be 48 8e 1f 3e
       -0.02007344 -0.1252095 -0.13015012 0.1558162
000290 3b 7f 66 bd da 99 3e 3d 28 ec 05 be f7 23 36 be
       -0.05627368 0.046533443 -0.13078368 -0.17787157
0002a0 86 36 59 be 44 7f 6f be a8 e1 0a bd 93 b7 84 bd
       -0.21212205 -0.23388392 -0.03390661 -0.064803265
0002b0 bf 0a 3b be f5 ae ba bd da d0 2b be 82 00 69 bd
       -0.18265818 -0.09115402 -0.1677889 -0.05688525
0002c0 db 2a 77 3d eb 1c 20 bd b6 cc ac 3d 33 ab 58 3e
       0.060343605 -0.03909008 0.08437483 0.21159057
0002d0 99 c0 63 be 29 26 2a bd 5b ea d6 3d 8f 15 e8 bd
       -0.22241439 -0.0415403 0.104939185 -0.11332237
0002e0 80 c1 06 3e 88 78 2c bd 00 8b 62 be 2d 69 11 be
       0.13159752 -0.042107135 -0.22123337 -0.14200278
0002f0 86 4b 45 bb 6e 6d 83 3e e7 cf ca bd 16 da cf 3d
       -0.003010483 0.25669426 -0.099029355 0.101490185
000300 f0 1d 05 3e 1f 12 20 bc b9 1c f3 3d 7d b7 62 be
       0.12999701 -0.009769945 0.11870713 -0.22140308
000310 f7 57 f9 3d ad 65 12 be a7 b1 15 be c1 86 c7 bd
       0.12174981 -0.14296599 -0.1461855 -0.09742499
000320 80 aa c5 bc b2 c0 04 be 04 8f e3 bd 59 f4 2b 3d
       -0.024129152 -0.12964132 -0.111112624 0.041981075
000330 91 64 ac bd 1b 48 ab bc 28 e5 61 bd 73 5a 25 3e
       -0.08417619 -0.020908406 -0.05515018 0.16147785
000340 e9 c7 9b 3d e0 0f ad 3d 43 44 77 3d 50 b6 81 3d
       0.07606489 0.084502935 0.060367834 0.063336015
000350 37 b6 b3 3c d7 00 e7 3d b3 81 b9 3d b6 4c 92 3d
       0.021937473 0.11279457 0.09057941 0.07143538
000360 4e 7d 34 3d 31 cd cb 3d 52 3b 0d 3e 75 0a 1e 3d
       0.044064812 0.099512465 0.1379216 0.03858419
000370 1a a9 7d bd 3b 08 b9 bd 0c 9c 24 bd ec 69 b4 bd
       -0.061928846 -0.09034773 -0.04018788 -0.088092655
000380 59 97 47 3c cf 30 11 3e be a2 84 be e4 af 64 bd
       0.01218208 0.14178775 -0.25905412 -0.055831805
000390 7a d5 02 bd d7 64 36 3e bc 62 f7 3d 4a 7c c0 bd
       -0.03194187 0.17811905 0.12079379 -0.09398706
0003a0 e8 87 74 3e 68 77 b2 bd 12 c4 94 3d 30 27 f3 3d
       0.23879969 -0.08714181 0.0726396 0.11872709
0003b0 dc c6 cd bd 8b 05 a7 3c 3e e9 1b be 20 b0 c5 3d
       -0.10047695 0.020388385 -0.15225694 0.09652734
0003c0 4b 18 15 bc 5f 32 50 be d6 fb 09 3e 77 8a 06 be
       -0.00910003 -0.20331715 0.13474974 -0.13138758
0003d0 41 c9 37 be 09 94 5d be 60 44 85 bc e4 a4 55 3d
       -0.17947866 -0.21638502 -0.016267955 0.052159205
0003e0 c0 e9 11 bc 69 36 2b 3e 44 5a 63 3e d8 29 19 be
       -0.008905828 0.16719975 0.22202402 -0.14957368
0003f0 af e4 14 be 9e 96 1b 3e cc ba 74 3e 0d cb 43 3e
       -0.14540361 0.15194175 0.23899382 0.19120426

decoder.fc.0.bias f4 [64]
000000 51 b9 d0 3d 0f 29 2d 3d e0 0b 3a be 92 bb 92 3d
       0.10191596 0.042275485 -0.18168592 0.071646824
000010 be a2 2c 3e 3e 77 64 3d 57 35 41 bc 08 a6 56 3e
       0.16858956 0.05577778 -0.011792502 0.20961773
000020 9f af 1e 3e 5b 3a 0b 3e c4 31 34 be 61 a0 0f be
       0.15496682 0.1359648 -0.17597109 -0.14026023
000030 08 f5 43 3d bf 19 9b bc 21 6e da 3d 7c b3 45 bd
       0.047841102 -0.018933175 0.10665537 -0.048266873
000040 76 72 15 3d 4c 91 00 be cf 45 28 3e 89 6f de bd
       0.03648611 -0.12555426 0.1643288 -0.108611174
000050 52 8a 0f 3d af 00 58 3e 3f 8c 3e 3e 22 b9 11 be
       0.035044022 0.21094011 0.18608187 -0.14230779
000060 86 bf 0a be 33 e3 5a be 59 87 45 3e 2a eb 3a 3e
       -0.13549623 -0.21375732 0.19289912 0.1825377
000070 42 77 26 3e fa e2 f3 3c 8d 48 6b bc 95 10 ec bd
       0.16256431 0.029771317 -0.014360559 -0.115266
000080 11 36 ee ba a8 d8 45 bc b3 17 a6 bd ba ee 71 3e
       -0.0018174072 -0.012075581 -0.08109989 0.23626223
000090 e8 d3 a2 3d b6 25 09 be 94 08 2f be 33 57 62 3e
       0.07950574 -0.13393292 -0.17093116 0.22103576
0000a0 af 41 13 bd 66 b2 00 be 1d ca 65 3e 47 ca 11 be
       -0.035951313 -0.12568054 0.22440381 -0.14237319
0000b0 0d 03 39 bd fd 34 1e bd d7 f8 43 bd 5e ca 6c 3c
       -0.045168925 -0.038624752 -0.047844734 0.014452545
0000c0 b1 6e 34 be 01 54 18 bd 55 3e 05 bd 5a 0d ed 3d
       -0.1762035 -0.037189487 -0.032530148 0.11574812
0000d0 c6 4c 3e be 8f d1 72 bb 5b 95 72 be 84 cb d1 3d
       -0.18583974 -0.0037051176 -0.23689787 0.10243896
0000e0 04 a9 28 be 52 97 5f 3e 44 29 c5 bd c5 02 4f 3e
       -0.16470724 0.21835068 -0.096270114 0.202159
0000f0 dd 3b 28 3e e4 fd 26 3d 02 2a 18 be c4 1a 9f bc
       0.16429086 0.040769473 -0.14859775 -0.019421943
