data/models/kuzushiji_autoencoder.pth (torch, 72491 bytes, 53 tensors)

encoder.model.0.0.weight f4 [8, 1, 3, 3]
0.06715437 0.12600411 0.055024665 0.1718803 0.3387157 0.18205355 0.24175155 0.43309504
0.30332518 0.48736575 0.081482515 0.036089174 0.060456462 -0.30515054 -0.25671002 0.062725
-0.2502223 0.071239874 -0.14524017 -0.124104396 0.3323488 -0.16606012 -0.0050976723 0.40289834
-0.095118195 -0.018657582 0.173939 -0.0408907 -0.02872112 -0.38158974 0.07866537 0.032329876
-0.05889475 -0.08961603 -0.12823331 -0.2776627 -0.35659447 -0.27701938 -0.14851643 -0.28750908
-0.22241108 -0.058950577 -0.24311335 -0.09415435 0.02736852 0.36509728 0.33829033 0.12188127
0.43362424 0.38108322 0.10175185 0.26514125 0.020180358 -0.15845203 -0.00035029146 0.09615294
0.11743478 0.067469425 0.0671731 0.028899632 -0.0043007806 -0.013375598 -0.6562401 0.13496423
0.25184903 0.22545981 0.056921445 0.3108506 0.10736732 -0.041346245 0.0011289801 0.20402305
00000000: 3b88 893d 3907 013e 8b61 613d 6401 303e
00000010: 256c ad3e 3f6c 3a3e b88d 773e a2be dd3e
00000020: 704d 9b3e 0188 f93e 4ee0 a63d 3ed2 133d
00000030: 32a1 773d b13c 9cbe 7f6f 83be f775 803d
00000040: 231d 80be 36e6 913d d7b9 14be 722a febd
00000050: 9f29 aa3e aa0b 2abe 600a a7bb b148 ce3e
00000060: 54cd c2bd c9d7 98bc 111d 323e 027d 27bd
00000070: 8e48 ebbc bb5f c3be 4f1b a13d 556c 043d
00000080: 9f3b 71bd 9c88 b7bd 984f 03be ce29 8ebe
00000090: 8d93 b6be 7cd5 8dbe b114 18be 6434 93be
000000a0: bbbf 63be 2976 71bd b5f2 78be ffd3 c0bd
000000b0: f233 e03c 08ee ba3e 6434 ad3e e39c f93d
000000c0: ff03 de3e 571d c33e 4663 d03d 98c0 873e
000000d0: 4751 a53c 4041 22be 53a7 b7b9 d5eb c43d
000000e0: a581 f03d 692d 8a3d 0d92 893d ecbe ec3c
000000f0: 90ed 8cbb 5325 5bbc 5aff 27bf 1034 0a3e
00000100: 5bf2 803e f0de 663e 7626 693d cf27 9f3e
00000110: 66e3 db3d ae5a 29bd 49fa 933a 6beb 503e

encoder.model.0.0.bias f4 [8]
0.07319392 0.32203206 0.21331987 -0.22419125 0.2270014 -0.22120829 0.11210548 -0.18569614
00000000: b2e6 953d 63e1 a43e 8670 5a3e 6492 65be
00000010: 0e73 683e 6d84 62be 8f97 e53d 2127 3ebe

encoder.model.0.1.weight f4 [8]
0.97171086 0.7724319 1.0510718 0.8248432 0.8761586 0.8926422 0.9541837 0.8208119
00000000: 0bc2 783f 19be 453f 8589 863f ed28 533f
00000010: ee4b 603f 3384 643f 6245 743f bb20 523f

encoder.model.0.1.bias f4 [8]
-0.19153383 0.0053778207 -0.27699277 0.4014272 0.68805546 -0.29284668 0.2226166 0.0154661
00000000: 7221 44be 6e38 b03b ffd1 8dbe de87 cd3e
00000010: 6724 303f 00f0 95be 9bf5 633e 8665 7d3c

encoder.model.0.1.running_mean f4 [8]
0.07519275 0.321994 0.2137007 -0.22512126 0.22529452 -0.21928926 0.111785114 -0.18439904
00000000: a8fe 993d 66dc a43e 5bd4 5a3e 3086 66be
00000010: 9bb3 663e 5d8d 60be 98ef e43d 1ad3 3cbe

encoder.model.0.1.running_var f4 [8]
5.594356e-06 1.0420852e-06 1.1520439e-06 1.3945457e-06 4.274393e-06 5.945599e-06 1.0341038e-06 2.4714727e-06
00000000: 27b7 bb36 c6dd 8b35 ed9f 9a35 3a2c bb35
00000010: c26c 8f36 4e80 c736 89cb 8a35 94db 2536

encoder.model.1.0.weight f4 [8, 8, 3, 3]
0.047136374 -0.027411744 -0.13389689 0.06026611 -0.0026458974 -0.21708672 0.043567825 0.08047105
-0.13330619 0.050456483 0.14381056 0.0051165065 0.15130745 0.08542646 0.046555035 0.022260584
-0.17706954 -0.15908508 0.16417342 0.02628906 -0.063338965 0.41251424 0.021179438 -0.08111525
0.2990734 0.257297 -0.16310422 0.17813204 0.06123641 -0.00925524 0.175249 -0.08747864
-0.09301012 -0.08155572 -0.13364983 -0.036551476 0.044892237 0.035208993 0.06694287 -0.1224137
0.033831675 0.028793387 -0.2559866 -0.083348505 0.17146789 0.04897797 0.038388353 -0.18269458
0.1348776 -0.047641598 -0.5607481 0.05194543 0.054702654 -0.24403828 0.10346449 0.07200994
0.044305187 0.08976087 0.018699897 0.08570408 0.037840556 -0.044956397 0.040737785 0.008403645
-0.109285064 -0.059498597 0.18240683 -0.03626373 -0.0007065914 0.07804188 -0.10608395 0.044800755
0.056987125 0.071177185 -0.024518814 -0.04647184 0.047686677 -0.17694956 -0.07046215 0.055059426
0.010513947 0.10487945 0.051642656 -0.08466114 0.117175736 -0.15400292 -0.15613861 0.039808556
-0.14214353 -0.0712928 -0.07841845 -0.15109059 -0.103501454 0.07469877 -0.008099267 -0.079398096
0.006845233 -0.13704816 0.10249213 0.042780116 -0.06759501 0.036924787 -0.16322803 -0.17127411
0.07684467 -0.07142923 0.13852939 -0.14610602 0.1363364 0.10276906 0.042265937 -0.015954662
-0.1761506 -0.2046785 -0.021881426 -0.4156597 -0.7038512 -0.0123280985 -0.022606583 -0.09800137
0.09632859 0.04916576 -0.11148893 -0.035679203 -0.17520505 -0.04040571 0.17196332 0.14278394
-0.013580825 0.17458455 0.05457244 0.029089425 0.073745556 0.074948415 -0.015259433 0.027836539
0.077648394 0.003928771 0.14608817 0.23894405 0.16917022 0.052634794 0.19984998 0.16460957
0.04720855 0.117000796 -0.028507546 -0.11615934 -0.058109697 0.0824068 -0.32512298 -0.62808233
-0.012371244 0.032853052 -0.05106263 -0.08489976 0.018602712 -0.06345589 -0.13578114 0.021597007
0.026354808 -0.10095849 -0.01858101 0.0206032 0.24834342 -0.013122542 0.033471316 0.33945286
0.0151605895 0.068885274 0.13708365 0.019314142 -0.042133316 0.05555195 -0.09085877 -0.057709053
-0.46501097 -0.041819748 0.14515987 0.008010065 0.109200135 -0.025107184 -0.12098936 -0.013955165
0.013515313 -0.23117052 0.09377118 0.010910874 0.10000775 -0.032571357 -0.003969718 0.067730226
-0.044622127 0.007558595 0.15637945 -0.2366807 -0.38622874 0.048397567 0.14550848 0.056004316
0.27504104 0.1363949 -0.09184442 0.023172462 0.045362644 -0.12289175 -0.041325603 0.06324702
0.0033984836 0.091644034 0.040090967 0.023162918 -0.09083615 -0.014362766 -0.20514944 -0.0019570114
0.01836037 0.009593239 0.07430237 0.027568294 -0.018326204 0.05488064 0.04772321 0.2005958
0.028089648 0.1262797 0.101091005 0.26927942 0.15733574 0.11152266 0.260755 -0.01325329
0.07966021 -0.029073032 0.043215916 -0.022671897 -0.050312553 -0.09189611 0.012386751 0.18439706
-0.127577 0.19507629 0.27305636 0.0894994 0.21528794 0.20203966 -0.033895116 0.0985077
-0.08239315 -0.17558773 -0.2156507 -0.31701037 0.11631064 0.07631927 0.23651466 0.119759925
00000000: 1212 413d 988e e0bc 441c 09be 99d9 763d
00000010: cb66 2dbb fb4b 5ebe 2d74 323d 02ce a43d
00000020: 6b81 08be 75ab 4e3d 1343 133e 5ea8 a73b
00000030: 57f0 1a3e 11f4 ae3d 7eb0 3e3d d45b b63c
00000040: b851 35be 33e7 22be 141d 283e 285c d73c
00000050: dcb7 81bd 1135 d33e 8080 ad3c c11f a6bd
00000060: 2620 993e 6fbc 833e cb04 27be 3f68 363e
00000070: 08d3 7a3d 4aa3 17bc 7974 333e 0028 b3bd
00000080: 177c bebd af06 a7bd 80db 08be 00b7 15bd
00000090: ece0 373d 4e37 103d 5819 893d 09b4 fabd
000000a0: 1593 0a3d 1ce0 eb3c ad10 83be 9fb2 aabd
000000b0: 4795 2f3e 209d 483d 1b3d 1d3d 4a14 3bbe
000000c0: 5b1d 0a3e d623 43bd 308d 0fbf bbc4 543d
000000d0: e40f 603d 2ce5 79be 31e5 d33d f379 933d
000000e0: 5b79 353d 8cd4 b73d 8730 993c 9f85 af3d
000000f0: b3fe 1a3d 3324 38bd aadc 263d 71af 093c
00000100: d9d0 dfbd cdb4 73bd dbc8 3a3e 4789 14bd
00000110: 8c3a 39ba 6cd4 9f3d 8b42 d9bd ff80 373d
00000120: 556b 693d 58c5 913d aedb c8bc 4259 3ebd
00000130: 1b53 433d 4432 35be 764e 90bd fe85 613d
00000140: b142 2c3c 09cb d63d 4087 533d d262 adbd
00000150: d5f9 ef3d f1b2 1dbe cde2 1fbe 4c0e 233d
00000160: 138e 11be f601 92bd da99 a0bd 7eb7 1abe
00000170: 92f8 d3bd abfb 983d cab2 04bc 789b a2bd
00000180: fa4d e03b 5a56 0cbe 65e7 d13d 343a 2f3d
00000190: 416f 8abd 723e 173d 4025 27be 7b62 2fbe
000001a0: bd60 9d3d 7d49 92bd a6da 0d3e d19c 15be
000001b0: c59b 0b3e 9678 d23d 0c1f 2d3d 5ab3 82bc
000001c0: d360 34be 3e97 51be ad40 b3bc 59d1 d4be
000001d0: 982f 34bf cbfb 49bc 7131 b9bc f1b4 c8bd
000001e0: ec47 c53d 0962 493d 4f54 e4bd 5b24 12bd
000001f0: f468 33be 7580 25bd 2717 303e f435 123e
00000200: 1c82 5ebc 4bc6 323e 5a87 5f3d f24c ee3c
00000210: e907 973d 8e7e 993d b302 7abc 7409 e43c
00000220: 1f06 9f3d ebbc 803b 2398 153e c0ad 743e
00000230: f53a 2d3e 9597 573d 79a5 4c3e 698f 283e
00000240: c15d 413d 1d9e ef3d a888 e9bc f3e4 edbd
00000250: 6f04 6ebd e5c4 a83d 8576 a6be 01ca 20bf
00000260: c2b0 4abc ec90 063d 0c27 51bd eddf adbd
00000270: b764 983c 29f5 81bd 360a 0bbe 35ec b03c
00000280: 0ae6 d73c 53c3 cebd 3437 98bc 0bc8 a83c
00000290: bd4d 7e3e eeff 56bc 3819 093d c4cc ad3e
000002a0: 1f64 783c b913 8d3d a85f 0c3e b138 9e3c
000002b0: fc93 2cbd 718a 633d 2a14 babd 5460 6cbd
000002c0: eb15 eebe 2f4b 2bbd caa4 143e a63c 033c
000002d0: 52a4 df3d 95ad cdbc 45c9 f7bd 34a4 64bc
000002e0: 556f 5d3c f7b7 6cbe 1b0b c03d 86c3 323c
000002f0: ddd0 cc3d 8b69 05bd 6814 82bb 25b6 8a3d
00000300: b1c5 36bd 17ae f73b ef21 203e 6d5c 72be
00000310: c6bf c5be 873c 463d 2d00 153e c864 653d
00000320: 2ed2 8c3e 1bab 0b3e ed18 bcbd 2dd4 bd3c
00000330: 2ece 393d abae fbbd 0945 29bd a787 813d
00000340: 18b9 5e3b deaf bb3d 6d36 243d 29c0 bd3c
00000350: 4e08 babd cf51 6bbc b212 52be 3441 00bb
00000360: 7d68 963c f62c 1d3c d72b 983d e7d6 e13c
00000370: d620 96bc 86ca 603d 6a79 433d fc68 4d3e
00000380: 431c e63c 774f 013e cd08 cf3d fede 893e
00000390: 9f1c 213e fe65 e43d ae81 853e 5424 59bc
000003a0: e424 a33d 912a eebc 2c03 313d 6aba b9bc
000003b0: 8914 4ebd 0734 bcbd cdf1 4a3c 95d2 3c3e
000003c0: 8ca3 02be 14c2 473e 0bce 8b3e 764b b73d
000003d0: 7174 5c3e 7ce3 4e3e 9bd5 0abd 68be c93d
000003e0: bdbd a8bd 45cd 33be 89d3 5cbe 2f4f a2be
000003f0: 4634 ee3d 474d 9c3d e630 723e b144 f53d

encoder.model.1.0.bias f4 [8]
-0.04555681 -0.07601307 -0.028380046 0.11111192 -0.083134666 0.046614762 -0.06340684 -0.07949999
00000000: c799 3abd beac 9bbd 457d e8bc a58e e33d
00000010: 8242 aabd 1fef 3e3d 72db 81bd e4d0 a2bd

encoder.model.1.1.weight f4 [8]
0.8477875 0.8223327 0.92821485 0.73362935 1.0023224 0.83526015 1.3312222 1.1659187
00000000: 9a08 593f 6584 523f 7d9f 6d3f 22cf 3b3f
00000010: 1a4c 803f 9cd3 553f 7d65 aa3f d33c 953f

encoder.model.1.1.bias f4 [8]
-0.4159741 -0.47978866 -0.40140763 -0.13409379 -0.15092982 -0.18536207 0.593631 0.07760854
00000000: 8ffa d4be dca6 f5be 4d85 cdbe e24f 09be
00000010: 598d 1abe 8ecf 3dbe 34f8 173f 3af1 9e3d

encoder.model.1.1.running_mean f4 [8]
-0.11155777 -0.92983764 -0.42004558 0.8138453 -0.035028003 0.18095823 -1.3951699 0.20486978
00000000: 6678 e4bd d709 6ebf 3710 d7be 2a58 503f
00000010: 8679 0fbd 1d4d 393e ed94 b2bf 62c9 513e

encoder.model.1.1.running_var f4 [8]
0.2013304 0.3600371 0.2905752 0.23829325 0.6071863 0.55267924 0.55602527 0.3695016
00000000: 8e29 4e3e c856 b83e 46c6 943e 2503 743e
00000010: 9070 1b3f 637c 0d3f ac57 0e3f 502f bd3e

encoder.model.2.0.weight f4 [16, 8, 3, 3]
-0.040300712 0.026846377 0.103586845 -0.26993454 -0.29297924 -0.039021663 0.07880003 -0.112557314
-0.011914759 -0.0374398 -0.14290768 -0.010861094 -0.06276317 0.1133322 0.26489624 -0.2554838
-0.124647625 -0.06610134 0.032906767 -0.24432842 -0.0024026027 -0.09923596 -0.098685995 0.13197482
-0.13814776 -0.06488855 0.15276958 -0.043404378 0.050272252 -0.061599933 -0.012352575 -0.09655202
0.017834347 -0.21500272 -0.4784462 -0.05667433 -0.043633632 -0.07976426 0.005550311 -0.0058168527
0.0051381635 0.1891194 0.04199002 -0.1439202 -0.044749144 0.020913724 -0.012706498 0.07678938
-0.17218815 -0.057797916 0.14099658 -0.042661592 -0.24657723 0.29812434 -0.103411704 -0.010286519
0.0037186265 0.0154483495 -0.09322398 -0.048303347 -0.03234471 0.0834255 0.21539825 -0.0022845168
-0.070585035 -0.12452692 -0.086769104 0.21475267 -0.1567326 0.16893603 0.349201 -0.09555645
0.06603881 0.16961758 -0.06828122 0.09258685 0.23733194 -0.064095415 -0.1989776 -0.22925703
-0.1248763 0.072579324 0.010271414 -0.021174597 0.120212026 0.29602295 0.11056956 0.108631186
0.101059996 -0.13766138 0.020370327 -0.10378711 0.008945628 -0.006637345 -0.038893707 -0.09947658
-0.040591024 -0.084717214 0.06869395 0.013559109 0.105767526 -0.06114506 0.029501447 -0.01494544
0.13943759 -0.017716557 -0.2599544 -0.015841346 0.030388655 0.080065094 0.044544365 0.107263826
0.013237441 -0.058332868 -0.0762944 0.51081336 0.0714695 -0.014121475 -0.028001182 -0.1341076
0.016918542 -0.010880768 0.014097933 0.18094894 0.41171944 -0.038702864 0.21179463 -0.08184795
0.06613473 0.06445709 -0.10515818 -0.08691162 0.2575338 -0.49006295 -0.033385534 0.15873505
-0.017919982 0.2089706 0.112889506 -0.16830352 -0.11946868 0.14374733 -0.0062342235 0.16313803
0.051475994 0.117131196 0.05883183 -0.07463461 -0.054423425 0.1096256 0.042088408 0.017810324
-0.37854037 0.03884991 0.08485533 0.001490222 -0.025526093 -0.19461195 -0.12423299 -0.06096373
-0.15634534 -0.29214233 -0.12177523 0.046993412 0.12927482 -0.19676434 -0.046447203 0.24102092
-0.04131602 -0.19875933 -0.35220885 0.0031664316 -0.06379657 0.15658864 0.12541594 -0.061331954
-0.20360732 0.17357256 -0.2344805 -0.27295688 -0.006981049 -0.1362369 0.035547514 -0.052797895
0.051664475 -0.13314575 -0.023902187 0.06338639 0.05526679 -0.04412599 0.03554834 -0.020905733
0.0934633 -0.22771381 -0.07992024 -0.08365419 -0.072066486 -0.27357012 -0.00447254 0.07460386
-0.07432803 0.13605054 0.024327625 -0.059271526 0.05358592 0.035319105 0.22282061 -0.014863039
0.07457512 -0.24193123 0.07169469 0.18513998 0.2778908 -0.11947439 0.13024034 0.26644865
-0.094045475 -0.16313559 -0.18969965 0.10794128 -0.041264288 0.31623003 0.23901157 -0.3064854
-0.13268103 -0.098753594 -0.05705161 0.21234842 -0.15344834 -0.10250379 0.019552099 0.024647694
-0.24158356 -0.2206897 -0.10587565 0.1075695 0.18830432 -0.09165261 -0.0062069586 -0.06402883
-0.23498738 0.07545119 -0.37465802 0.031635437 -0.15620236 0.15246487 -0.0824865 -0.1443937
-0.05783304 -0.22055262 -0.15234053 0.106343016 0.017588306 0.035380553 -0.04388013 0.042649288
00000000: 5c12 25bd efec db3c 5725 d43d dc34 8abe
00000010: 6001 96be 2ed5 1fbd e961 a13d 7384 e6bd
00000020: 1f36 43bc 7a5a 19bd 6456 12be bbf2 31bc
00000030: fa89 80bd b61a e83d 7ba0 873e c6ce 82be
00000040: 4147 ffbd 2460 87bd 3fc9 063d 3b31 7abe
00000050: fc74 1dbb 393c cbbd e21b cabd 6824 073e
00000060: 9b76 0dbe 4ae4 84bd a16f 1c3e cac8 31bd
00000070: 47ea 4d3d 3650 7cbd 7462 4abc 11bd c5bd
00000080: 5619 923c ac29 5cbe e6f6 f4be 5823 68bd
00000090: 2eb9 32bd 725b a3bd 62df b53b 4c9b bebb
000000a0: 0a5e a83b 84a8 413e bafd 2b3d d15f 13be
000000b0: e14a 37bd 4253 ab3c ea2e 50bc c043 9d3d
000000c0: 1752 30be 82bd 6cbd 6861 103e ecbd 2ebd
000000d0: be7e 7cbe c1a3 983e 84c9 d3bd ca88 28bc
000000e0: 33b4 733b 131b 7d3c 37ec bebd bbd9 45bd
000000f0: e37b 04bd fdda aa3d 5c91 5c3e d5b7 15bb
00000100: e38e 90bd f807 ffbd 00b4 b1bd 20e8 5b3e
00000110: 837e 20be 91fd 2c3e 79ca b23e 1ab3 c3bd
00000120: 5b3f 873d 3bb0 2d3e 06d7 8bbd 2d9e bd3d
00000130: 2507 733e 7544 83bd c9c0 4bbe 5bc2 6abe
00000140: 25bf ffbd 78a4 943d 6f49 283c 5976 adbc
00000150: b931 f63d 5290 973e 4b72 e23d 077a de3d
00000160: 8bf8 ce3d 1bf7 0cbe acdf a63c 568e d4bd
00000170: af90 123c 167e d9bb 024f 1fbd 61ba cbbd
00000180: c642 26bd 3880 adbd 6aaf 8c3d 0627 5e3c
00000190: a59c d83d 3e73 7abd 05ad f13c b8dd 74bc
000001a0: bac8 0e3e 5022 91bc be18 85be b6c5 81bc
000001b0: a1f1 f83c 2bf9 a33d 2774 363d 23ad db3d
000001c0: dae1 583c 72ee 6ebd 3d40 9cbd aac4 023f
000001d0: 9a5e 923d c25d 67bc bc62 e5bc 8153 09be
000001e0: c198 8a3c 4045 32bc 04fb 663c ae4a 393e
000001f0: e4cc d23e e586 1ebd b1e0 583e e69f a7bd
00000200: a571 873d 1402 843d 2c5d d7bd b8fe b1bd
00000210: 78db 833e 88e9 fabe 45bf 08bd 718b 223e
00000220: edcc 92bc 64fc 553e 9d32 e73d c257 2cbe
00000230: ffab f4bd 8032 133e 7548 ccbb a80d 273e
00000240: 7ed8 523d 7be2 ef3d a5f9 703d 08da 98bd
00000250: 19eb 5ebd 6383 e03d e564 2c3d f5e6 913c
00000260: 0bd0 c1be 1521 1f3d a2c8 ad3d 8e53 c33a
00000270: 191c d1bc 5b48 47be de6d febd 1bb5 79bd
00000280: fe18 20be ae93 95be 4b65 f9bd 2a7c 403d
00000290: 9e60 043e 977c 49be 6c3f 3ebd 30ce 763e
000002a0: fd3a 29bd 9187 4bbe b854 b4be e883 4f3b
000002b0: c7a7 82bd c658 203e 096d 003e 3737 7bbd
000002c0: 707e 50be 01bd 313e a81b 70be 01c1 8bbe
000002d0: 49c1 e4bb b081 0bbe 459a 113d 9b42 58bd
000002e0: 219e 533d 5c57 08be 85ce c3bc b9d0 813d
000002f0: 6e5f 623d 74bd 34bd 239b 113d 8042 abbc
00000300: b069 bf3d cf2d 69be 39ad a3bd e352 abbd
00000310: 9897 93bd 6211 8cbe 638e 92bb e9c9 983d
00000320: 4b39 98bd d550 0b3e ba4a c73c b3c6 72bd
00000330: e97c 5b3d c4aa 103d 162b 643e 1b84 73bc
00000340: d7ba 983d d2bc 77be aad4 923d 5695 3d3e
00000350: b447 8e3e fdae f4bd b95d 053e f56b 883e
00000360: ea9a c0bd 040d 27be a040 42be 5110 dd3d
00000370: be04 29bd e7e8 a13e 73bf 743e a8eb 9cbe
00000380: 89dd 07be 533f cabd f3ae 69bd dd71 593e
00000390: 9021 1dbe 82ed d1bd b92b a03c f6e9 c93c
000003a0: ae61 77be 7bfc 61be 55d5 d8bd 664d dc3d
000003b0: d9d2 403e 5db4 bbbd be63 cbbb 8c21 83bd
000003c0: 88a0 70be 2786 9a3d 2dd3 bfbe 2994 013d
000003d0: 83f3 1fbe c01f 1c3e afee a8bd f1db 13be
000003e0: 56e2 6cbd 8cd8 61be 28ff 1bbe 5eca d93d
000003f0: 5a15 903c 33eb 103d a7bb 33bd 05b1 2e3d

encoder.model.2.0.bias f4 [16]
-0.010338914 -0.013746791 0.074522726 0.11641519 0.012867488 0.08089764 -0.10798257 -0.06855373
0.08796608 -0.03174311 -0.017796429 0.11209768 -0.03998979 -0.03392582 -0.08854551 0.07784706
00000000: 8c64 29bc 383a 61bc 5f9f 983d 166b ee3d
00000010: 28d2 523c a9ad a53d f725 ddbd e665 8cbd
00000020: 8f27 b43d 1005 02bd d1c9 91bc 7893 e53d
00000030: 56cc 23bd cdf5 0abd 5957 b5bd 486e 9f3d

encoder.model.2.1.weight f4 [16]
0.8550235 1.0158333 0.8382659 1.1704296 0.95104027 1.1542714 1.1855575 1.1593084
1.0797206 0.84535533 0.88425004 1.0444436 0.7537955 0.82413197 1.0002162 0.7175935
00000000: d2e2 5a3f d306 823f 9898 563f a3d0 953f
00000010: 6077 733f 2abf 933f 59c0 973f 3864 943f
00000020: 4934 8a3f 3569 583f 365e 623f 54b0 853f
00000030: bef8 403f 50fa 523f 1607 803f 35b4 373f

encoder.model.2.1.bias f4 [16]
0.17228362 0.27978137 0.079868644 -0.15143512 0.27490357 0.17025325 -0.023076648 -0.029920464
0.70837533 0.42602062 -0.17338999 0.37905392 -0.17143737 0.16217105 0.32698557 0.24272987
00000000: 1e6b 303e 813f 8f3e 2c92 a33d cf11 1bbe
00000010: 29c0 8c3e de56 2e3e 3d0b bdbc c31b f5bc
00000020: 1658 353f 601f da3e 258d 31be 5b13 c23e
00000030: 478d 2fbe 2b10 263e a76a a73e 2e8e 783e

encoder.model.2.1.running_mean f4 [16]
-0.31733865 0.15061438 0.09815705 -0.053306058 0.24911731 -0.24316362 -0.6819495 -0.54641837
0.0033855594 0.39443344 0.7354802 0.11116846 0.051639985 -0.16298245 0.48938957 -0.038191788
00000000: 367a a2be a83a 1a3e 9006 c93d 7457 5abd
00000010: 9c18 7f3e e2ff 78be 3e94 2ebf 13e2 0bbf
00000020: 43e0 5d3b 2ef3 c93e 6e48 3c3f 4aac e33d
00000030: 7384 533d dfe4 26be 4591 fa3e fe6e 1cbd

encoder.model.2.1.running_var f4 [16]
0.76307 1.6445988 0.8445749 1.1372606 0.89784735 1.9964112 1.6860783 1.1240138
1.8858733 0.83412737 0.6773717 1.4778595 1.285113 0.80349064 1.3446059 0.9073942
00000000: 8e58 433f 3782 d23f 1036 583f c191 913f
00000010: 53d9 653f 678a ff3f 6ad1 d73f afdf 8f3f
00000020: 4c64 f13f 5f89 553f 3b68 2d3f 802a bd3f
00000030: 957e a43f 90b1 4d3f 0c1c ac3f fc4a 683f

encoder.model.3.0.weight f4 [16, 16, 3, 3]
-0.37041354 -0.051229622 -0.10207394 0.04893197 -0.009712748 0.0018756483 0.011598923 -0.021462476
0.1631444 -0.06652484 -0.22775753 0.094076194 -0.08509842 -0.10279153 -0.009798 0.05426003
5.2227522e-05 -0.2015599 -0.68135977 -0.18553138 -0.03608676 -0.019433035 0.3199694 -0.030606993
0.063459106 -0.04592474 0.004517002 -0.64047533 -0.04107429 -0.21827734 -0.021287065 -0.004737306
0.09440407 -0.082403354 0.08002357 0.5088542 -0.27088016 -0.18049176 0.09883268 -0.035038274
-0.07174911 0.047708627 0.033422932 0.0038770677 -0.14483222 -0.113720916 -0.27235675 -0.07762224
-0.11716291 -0.16462748 -0.0877186 0.02601833 -0.13569367 -0.05597991 -0.48948646 -0.06106758
-0.083512545 0.03495859 -0.077177905 0.0452118 -0.009118385 0.016065074 0.31818938 -0.6135109
0.13565959 -0.11868169 0.033852123 -0.25913307 0.032798782 -0.04690697 0.052966647 0.21090786
-0.18900892 -0.02422731 0.048514828 -0.3274829 0.058890145 -0.05624962 0.06549516 0.019334557
-0.062396962 -0.30536687 0.0931947 0.118206374 -0.056035206 -0.15877333 -0.096366294 -0.009075072
-0.028949028 -0.065008074 -0.5570028 0.08873912 0.038406897 -0.2744857 0.0072775246 -0.038189836
-0.049288433 0.030066265 0.16588847 -0.25709233 -0.38574377 -0.075648315 -0.2674569 -0.31602216
0.0065310323 0.035969365 0.09166969 0.029718084 -0.043897677 0.012185144 -0.05551657 0.012340591
-0.048218675 0.14520796 0.014421628 -0.20601487 -0.18981282 -0.23600997 -0.015830325 0.03232144
0.032428827 0.1052714 -0.059357677 0.016581284 -0.036219165 0.055918198 -0.2478907 -0.30898395
-0.012102924 -0.30609962 -0.02854404 -0.019678028 0.09105543 0.06123371 -0.15308529 -0.15115456
0.15506999 -0.032794897 -0.012703977 -0.26555556 0.11143132 -0.051883638 0.11867656 0.08167541
-0.11749404 0.053106405 -0.0412353 -0.030463582 0.010512179 0.081931666 -0.09816284 0.12632127
0.00043283924 -0.37341315 -0.18985654 0.06556754 0.06729218 0.059497084 0.07994845 0.031505235
0.26402402 0.039429516 0.20124117 0.023187947 0.019233894 0.0011624024 0.22376008 0.03259291
-0.010214466 0.10754203 -0.044688795 0.17524612 -0.001125022 0.06665507 0.052453108 -0.11637278
0.23517336 0.20469855 -0.022579147 -0.06444523 -0.17006926 -0.023665646 0.007048934 0.0838584
-0.029787384 -0.1309055 0.022035243 -0.28916442 0.025520777 -0.46849868 -0.22548069 0.010372235
-0.068746455 -0.15032178 -0.07733378 -0.012667635 0.022233209 0.09497131 0.1600465 -0.032372404
-0.14832662 0.0061263596 -0.028567486 -0.0061883377 0.099445134 -0.003948489 -0.14704457 0.12926528
-0.0073385057 -0.023949234 0.0531592 -0.06304696 0.099892564 0.09450267 -0.05864425 0.058074497
-0.39630622 0.034685794 0.055869922 0.031785704 -0.09252254 0.21993078 -0.052116808 0.15034008
0.01978576 -0.32811 0.08796408 -0.028795933 0.021702934 -0.28318045 -0.018285451 -0.028805563
-0.06215037 -0.0299623 0.048300773 -0.13937666 0.010344195 -0.2645201 -0.06620054 -0.30365965
0.10775806 -0.038688775 -0.009580342 -0.33768392 -0.27652076 -0.033673696 -0.37368712 -0.16630934
-0.23743585 0.02044954 0.19454665 0.05352032 -0.4701271 -0.03528844 -0.012280855 -0.11536745
00000000: d8a6 bdbe 27d6 51bd 240c d1bd e46c 483d
00000010: 3822 1fbc 50d8 f53a 6909 3e3c 13d2 afbc
00000020: 530f 273e 2d3e 88bd 4539 69be 05ab c03d
00000030: 1548 aebd 5e84 d2bd ca87 20bc c43f 5e3d
00000040: e00e 5b38 b865 4ebe 986d 2ebf f0fb 3dbe
00000050: b6cf 13bd 0732 9fbc 07d3 a33e 84bb fabc
00000060: d9f6 813d 951b 3cbd 5c03 943b 31f6 23bf
00000070: 843d 28bd 1884 5fbe 3662 aebc 673b 9bbb
00000080: ec56 c13d 17c3 a8bd 66e3 a33d 4544 023f
00000090: ceb0 8abe d5d2 38be ca68 ca3d 4b84 0fbd
000000a0: 33f1 92bd 1f6a 433d 7ce6 083d 6716 7e3b
000000b0: e64e 14be 83e6 e8bd 5872 8bbe 69f8 9ebd
000000c0: 1cf3 efbd 1b94 28be cfa5 b3bd 6524 d53c
000000d0: 48f3 0abe 314b 65bd f89d fabe 0022 7abd
000000e0: a008 abbd bd30 0f3d 730f 9ebd 0230 393d
000000f0: 4765 15bc e79a 833c b8e9 a23e 0d0f 1dbf
00000100: 59ea 0a3e 630f f3bd 86a8 0a3d 17ad 84be
00000110: 0458 063d 8621 40bd 8ef3 583d 3bf8 573e
00000120: 8e8b 41be 5a78 c6bc 7cb7 463d d7ab a7be
00000130: cb36 713d 0066 66bd 5422 863d 8163 9e3c
00000140: f593 7fbd 0c59 9cbe dddc be3d 2f16 f23d
00000150: 2c85 65bd 7a95 22be b15b c5bd 9caf 14bc
00000160: 8326 edbc f422 85bd bc97 0ebf dbbc b53d
00000170: 8d50 1d3d 6489 8cbe 4d78 ee3b f26c 1cbd
00000180: abe2 49bd 874d f63c abde 293e 9ba1 83be
00000190: 3580 c5be 81ed 9abd 1cf0 88be a8cd a1be
000001a0: 4502 d63b 9d54 133d 52bd bb3d 5773 f33c
000001b0: 0dce 33bd 33a4 473c 5865 63bd 3130 4a3c
000001c0: f280 45bd 65b1 143e b148 6c3c 90f5 52be
000001d0: 4b5e 42be 99ac 71be 99ae 81bc 7c63 043d
000001e0: 17d4 043d 8898 d73d 0921 73bd 79d5 873c
000001f0: 8c5a 14bd 7b0a 653d 0fd7 7dbe 2533 9ebe
00000200: 584b 46bc 17b9 9cbe 31d5 e9bc d133 a1bc
00000210: 457b ba3d 33d0 7a3d 64c2 1cbe 43c8 1abe
00000220: abca 1e3e f153 06bd 5724 50bc e6f6 87be
00000230: 1b36 e43d f083 54bd b20c f33d 7045 a73d
00000240: b7a0 f0bd 1a86 593d 59e6 28bd c38e f9bc
00000250: 463b 2c3c cacb a73d 9909 c9bd 5d5a 013e
00000260: b3ee e239 0230 bfbe c169 42be 4648 863d
00000270: 7cd0 893d 37b3 733d 03bc a33d a20b 013d
00000280: 282e 873e d880 213d 2a12 4e3e a6f4 bd3c
00000290: 6690 9d3c c15b 983a 5d21 653e 2580 053d
000002a0: 935a 27bc ff3e dc3d 990b 37bd b873 333e
000002b0: 7975 93ba 7482 883d 12d9 563d da54 eebd
000002c0: 49d1 703e 7f9c 513e e7f7 b8bc dcfb 83bd
000002d0: a326 2ebe 75de c1bc bffa e63b f4bd ab3d
000002e0: ac04 f4bc 170c 06be 4183 b43c 5c0d 94be
000002f0: f310 d13c 0fdf efbe 69e4 66be 4ff0 293c
00000300: f1ca 8cbd f4ed 19be 2c61 9ebd ea8b 4fbc
00000310: 6b22 b63c 5180 c23d 3be3 233e ed98 04bd
00000320: efe2 17be a1bf c83b 5c06 eabc 8ac7 cabb
00000330: e4a9 cb3d 5462 81bb da92 16be 1e5e 043e
00000340: d977 f0bb 2f31 c4bc 76bd 593d c41e 81bd
00000350: 7994 cc3d 9e8a c13d f434 70bd 86df 6d3d
00000360: a6e8 cabe b112 0e3d dcd7 643d ba31 023d
00000370: 757c bdbd 8935 613e 6f78 55bd c0f2 193e
00000380: bf15 a23c 09fe a7be 8326 b43d 73e5 ebbc
00000390: 5aca b13c 07fd 90be 5fcb 95bc a5f9 ebbc
000003a0: 6391 7ebd 7f73 f5bc 08d7 453d c1b8 0ebe
000003b0: b37a 293c 2e6f 87be 2694 87bd 4779 9bbe
000003c0: 42b0 dc3d 1f78 1ebd def6 1cbc e8e4 acbe
000003d0: 2194 8dbe 6eed 09bd eb53 bfbe ff4c 2abe
000003e0: 6222 73be cb85 a73c 3d37 473e 2038 5b3d
000003f0: 80b4 f0be 9c8a 10bd a435 49bc c545 ecbd

encoder.model.3.0.bias f4 [16]
0.040994186 -0.05289792 0.045780435 -0.05803058 -0.027682532 0.00034015608 0.065564536 0.011911933
0.06508987 0.08109526 0.0471752 0.038752776 -0.056893937 0.027414862 0.023153543 -0.06222271
00000000: 85e9 273d 7dab 58bd 4484 3b3d 79b1 6dbd
00000010: 7ac6 e2bc fa56 b239 b346 863d 452a 433c
00000020: d64d 853d 4615 a63d c83a 413d 3bbb 1e3d
00000030: 9e09 69bd 2295 e03c 80ac bd3c 3edd 7ebd

encoder.model.3.1.weight f4 [16]
0.8243732 0.7381857 0.87998617 0.9373548 0.655837 0.83798915 0.5912958 0.5419577
0.8646033 0.63518965 0.4712588 0.5766589 0.6276598 0.51255053 0.91845435 0.56238335
00000000: 1f0a 533f bdf9 3c3f c646 613f 7cf6 6f3f
00000010: efe4 273f 7586 563f 295f 173f bdbd 0a3f
00000020: a456 5d3f ca9b 223f d548 f13e eb9f 133f
00000030: 50ae 203f 8336 033f d31f 6b3f 5bf8 0f3f

encoder.model.3.1.bias f4 [16]
0.06957582 -0.12605666 0.09907685 0.044496104 0.16217715 0.0049806572 0.35636827 0.37451163
-0.00037616616 0.1757957 0.32798672 0.32205772 0.061773904 0.21433201 0.053241327 0.4662491
00000000: c47d 8e3d ff14 01be cee8 ca3d 8c41 363d
00000010: c411 263e c834 a33b e775 b63e fdbf bf3e
00000020: 2b38 c5b9 ca03 343e e0ed a73e c0e4 a43e
00000030: a206 7d3d da79 5b3e 9413 5a3d 34b8 ee3e

encoder.model.3.1.running_mean f4 [16]
-1.6753213 -0.45729947 -1.4708353 -0.8834041 -0.69125307 -0.46089467 0.64135 -0.58778816
-1.2317903 -0.8768 -0.050459426 0.45343748 0.27188116 -0.12306366 -1.4343407 -0.66872394
00000000: ee70 d6bf 2823 eabe 5544 bcbf c526 62bf
00000010: f6f5 30bf 63fa ebbe 832f 243f 4979 16bf
00000020: 4eab 9dbf f775 60bf 8bae 4ebd f528 e83e
00000030: 0234 8b3e cd08 fcbd 7a98 b7bf 7e31 2bbf

encoder.model.3.1.running_var f4 [16]
6.1050878 6.2515664 4.652696 5.6378274 3.2946496 3.0649583 3.6187155 2.7390194
3.9237695 3.2804651 2.231769 2.9442286 6.6975474 2.623322 7.663098 3.0534325
00000000: e15c c340 d50c c840 e3e2 9440 1569 b440
00000010: 8adb 5240 4728 4440 0999 6740 184c 2f40
00000020: 0a1f 7b40 24f3 5140 4ed5 0e40 3e6e 3c40
00000030: 4f52 d640 82e4 2740 1938 f540 706b 4340

encoder.fc.0.weight f4 [32, 64]
0.04720918 -0.19910024 -0.04748952 0.2232445 0.031106032 -0.19979614 -0.0706401 -0.02146639
0.004413064 -0.2211914 -0.08978892 0.029629081 0.0013537763 -0.21163052 -0.030717809 -0.20681727
0.16660063 -0.039675023 0.1682051 -0.03644649 0.012475398 0.09402253 -0.07509068 -0.029235838
0.007264105 0.061004467 0.036926456 0.04720354 -0.0029032044 0.13222256 -0.027367368 -0.025531763
-0.059254605 0.09561678 0.032176457 -0.3502193 -0.0046419255 0.14806643 0.1562575 -0.010425133
0.042609032 0.10935008 -0.12574057 0.013018524 -0.019342832 0.14602517 0.055880085 -0.22674757
-0.04163135 -0.054312922 -0.07670742 0.049776617 -0.007468251 -0.033302218 0.0012025472 0.20716025
-0.017197823 0.08787463 -0.042276144 -0.25713682 -0.061918434 0.086794585 0.034253303 -0.023031944
-0.18158516 0.08325713 0.18178686 0.06179039 -0.09144084 -0.027576597 0.020063179 -0.031956933
-0.099642724 -0.103789516 0.14213715 -0.017861838 0.16137473 -0.038493756 0.16510889 -0.047655266
-0.10138439 0.05343111 0.19638492 -0.02956701 -0.051932894 -0.12933588 0.1152875 0.0684757
0.21850109 0.029048536 -0.18355608 -0.021083854 -0.1989227 -0.10083822 0.32169527 -0.1360836
-0.14379306 0.14009349 -0.03189964 0.06964492 -0.09820349 0.00070650387 0.16416517 -0.102305815
0.0357318 0.030125132 0.2071349 -0.003900331 -0.0072690938 0.0041952063 -0.035706513 0.04664184
0.14207615 0.026426032 -0.09403651 0.040296905 -0.17474882 -0.0062239203 0.014655747 0.13902657
0.026350956 -0.1296826 0.09869708 -0.037351668 -0.03536446 -0.0923691 -0.0051871343 0.041416083
0.001562088 0.06274193 -0.05774205 0.020818925 -0.08913482 0.13555178 0.1624391 -0.046382103
0.0015935502 -0.017258074 0.04196824 -0.09792603 0.16324158 0.09583783 -0.20749564 0.110177286
-0.18793868 0.0029310621 -0.13367681 0.012688757 -0.06535213 -0.08037831 0.021233227 -0.117647864
0.12026042 -0.039064135 -0.038093466 0.040041033 0.055179693 0.12417227 0.043408588 -0.14913352
0.10295209 -0.17818953 -0.061921045 0.13349077 -0.11819776 -0.0039415425 0.019643871 0.16132481
0.1880378 -0.07704233 0.04782158 0.05844045 0.06818237 0.023565687 0.10533376 -0.14565119
0.0074535334 0.00909492 -0.035956245 0.016855173 0.006075098 -0.029300733 -0.01037801 0.01501616
-0.2028287 0.18112814 -0.08815014 -0.23716357 -0.035516977 -0.06542746 -0.07864384 0.24406618
-0.026465373 -0.103250355 -0.100830115 0.18776326 0.16347887 0.13546753 -0.115104705 -0.007774375
-0.020477787 0.15428509 -0.15807535 0.00443856 -0.12231379 -0.09472737 0.15304923 -0.006655754
0.11655973 0.024942711 -0.3249437 0.03794799 0.10192942 -0.08359391 -0.050473426 0.027948875
0.011490526 -0.07136972 -0.110484555 -0.05752489 -0.10647982 0.0851546 0.04202833 0.002650924
-0.14154078 0.00060768094 0.03713634 -0.1723367 0.002139289 -0.059524737 -0.025620736 -0.3101671
0.18997031 -0.017878735 -0.06369576 -0.1760227 0.07068809 -0.03287644 -0.002909653 0.021928778
-0.005723082 0.14241178 -0.08379417 0.112068765 -0.04586444 0.099756986 0.11096555 0.23060092
0.014479629 -0.003872649 0.10017858 -0.029006919 0.06436484 -0.11385164 0.016312374 0.08087226
00000000: 6a5e 413d efe0 4bbe 5f84 42bd 359a 643e
00000010: 14d2 fe3c 5c97 4cbe c2ab 90bd 48da afbc
00000020: 779b 903b 0080 62be 41e3 b7bd b0b8 f23c
00000030: 3271 b13a acb5 58be eaa3 fbbc e8c7 53be
00000040: 5b99 2a3e 4782 22bd f53d 2c3e ea48 15bd
00000050: 9d65 4c3c e28e c03d 24c9 99bd ff7f efbc
00000060: bb07 ee3b d2df 793d 3240 173d 8058 413d
00000070: b043 3ebb 5a65 073e 8831 e0bc fd27 d1bc
00000080: f5b4 72bd bbd2 c33d 76cb 033d f24f b3be
00000090: 4b1b 98bb ba9e 173e f701 203e 2dce 2abc
000000a0: cf86 2e3d eff2 df3d 23c2 00be a64b 553c
000000b0: dc74 9ebc 9f87 153e 84e2 643d 8430 68be
000000c0: a285 2abd 3a77 5ebd c818 9dbd 91e2 4b3d
000000d0: 3bb8 f4bb e867 08bd ca9e 9d3a d121 543e
000000e0: 73e2 8cbc 9df7 b33d c029 2dbd 70a7 83be
000000f0: 2f9e 7dbd 5cc1 b13d 314d 0c3d 7dad bcbc
00000100: 76f1 39be b782 aa3d 5626 3a3e ec17 7d3d
00000110: 5645 bbbd 51e8 e1bc 895b a43c 46e5 02bd
00000120: 7c11 ccbd 998f d4bd 678c 113e fd52 92bc
00000130: 6b3f 253e a1ab 1dbd 4e12 293e 2b32 43bd
00000140: 9ea2 cfbd 94da 5a3d 2119 493e 8436 f2bc
00000150: 96b7 54bd a070 04be da1b ec3d fd3c 8c3d
00000160: c0be 5f3e 32f7 ed3c 20f6 3bbe 0cb8 acbc
00000170: 64b2 4bbe 4584 cebd 3eb5 a43e 8059 0bbe
00000180: 7d3e 13be ab74 0f3e 32a9 02bd ffa1 8e3d
00000190: e91e c9bd ac34 393a ea1a 283e b685 d1bd
000001a0: 825b 123d fbc8 f63c 2c1b 543e b29c 7fbb
000001b0: 9431 eebb f177 893b fe40 12bd 840b 3f3d
000001c0: 697c 113e 687b d83c 3796 c0bd 5e0e 253d
000001d0: 5bf1 32be 07f2 cbbb a91e 703c fb5c 0e3e
000001e0: f6dd d73c 84cb 04be b221 ca3d 10fe 18bd
000001f0: 53da 10bd 032c bdbd d6f8 a9bb e9a3 293d
00000200: fabe cc3a d77e 803d ee82 6cbd 738c aa3c
00000210: 518c b6bd 16ce 0a3e 6f56 263e 29fb 3dbd
00000220: acde d03a ce60 8dbc e4e6 2b3d 718d c8bd
00000230: cd28 273e a046 c43d bd79 54be a1a4 e13d
00000240: ff72 40be 1017 403b 93e2 08be 81e4 4f3c
00000250: 56d7 85bd 629d a4bd 4ef1 ad3c 5df1 f0bd
00000260: 184b f63d b701 20bd e507 1cbd 1102 243d
00000270: 1a04 623d 084e fe3d 34cd 313d 75b6 18be
00000280: 8cd8 d23d 5177 36be eca0 7dbd ceb1 083e
00000290: ab11 f2bd 0e28 81bb 2fec a03c 5532 253e
000002a0: fb8c 403e 5ec8 9dbd 90e0 433d 415f 6f3d
000002b0: 33a3 8b3d d40c c13c 3ab9 d73d 9625 15be
000002c0: c53c f43b dc02 153c db46 13bd dc13 8a3c
000002d0: 9e11 c73b 1708 f0bc 8708 2abc 5706 763c
000002e0: 54b2 4fbe a879 393e 1088 b4bd 02db 72be
000002f0: 407a 11bd d5fe 85bd 0610 a1bd 7cec 793e
00000300: e9cd d8bc ec74 d3bd 0580 cebd 0345 403e
00000310: 0167 273e 00b8 0a3e 04bc ebbd 2fc0 febb
00000320: 08c1 a7bc e9fc 1d3e 81de 21be 5771 913b
00000330: a77f fabd 6c00 c2bd f0b8 1c3e 8318 dabb
00000340: deb6 ee3d a854 cc3c 055f a6be 5a6f 1b3d
00000350: 5fc0 d03d 4933 abbd 39bd 4ebd 0af5 e43c
00000360: c242 3c3c 4a2a 92bd ba45 e2bd 389f 6bbd
00000370: 1812 dabd 8965 ae3d e625 2c3d 20bb 2d3b
00000380: 11f0 10be c74c 1f3a 461c 183d 0879 30be
00000390: 5033 0c3b 36d0 73bd 94e2 d1bc 39ce 9ebe
000003a0: 9487 423e 6d76 92bc ec72 82bd 4b3f 34be
000003b0: ebc4 903d 72a9 06bd e0af 3ebb fba3 b33c
000003c0: b188 bbbb 65d4 113e 479c abbd 4f84 e53d
000003d0: 5adc 3bbd 644d cc3d e841 e33d a622 6c3e
000003e0: f73b 6d3c 45cc 7dbb 6d2a cd3d eb9f edbc
000003f0: b7d1 833d 0c2b e9bd 87a1 853c 5ba0 a53d

encoder.fc.0.bias f4 [32]
0.04571825 -0.18621024 -0.017969092 0.04833816 0.007855973 -0.14911678 -0.03665678 -0.05231338
-0.1367844 -0.13515024 -0.03508526 0.06551107 -0.044885244 -0.0144777475 0.04759563 0.034038637
0.040569343 0.059413955 -0.08537105 0.12813422 -0.060054276 0.043376006 -0.10206569 0.110972725
0.059695013 -0.13165668 -0.10459254 -0.0058124447 -0.00629526 -0.099720314 0.1029612 -0.033066582
00000000: 0f43 3b3d e6ad 3ebe eb33 93bc 3cfe 453d
00000010: 57b6 003c 12b2 18be 6b25 16bd 8e46 56bd
00000020: 3611 0cbe d364 0abe 90b5 0fbd ab2a 863d
00000030: 97d9 37bd 1334 6dbc a3f3 423d 196c 0b3d
00000040: 0a2c 263d 0c5c 733d 04d7 aebd 9e35 033e
00000050: 79fb 75bd 0aab 313d d107 d1bd ab45 e33d
00000060: c282 743d 02d1 06be 9d34 d6bd 5276 bebb
00000070: 7848 cebb 2a3a ccbd 52dd d23d d370 07bd

decoder.fc.0.weight f4 [64, 32]
-0.15485232 -0.043802876 0.10196175 0.08195258 0.027487058 0.17957014 0.1901805 0.11403153
0.08787587 0.03269825 -0.03479426 0.115593635 -0.042422295 0.12785006 -0.055594724 -0.09071286
0.058869842 -0.1153682 0.22356735 0.051021118 -0.09293939 0.05448994 -0.037508596 -0.08666344
-0.038198296 0.10970502 0.16471706 -0.03894121 -0.08689903 -0.113033466 -0.035634886 0.061166637
0.006102092 -0.010401867 -0.15598279 0.051607527 0.22565676 -0.10354865 0.03280991 -0.015745983
0.03471561 -0.00811307 0.065201506 -0.4336963 -0.027436642 -0.08893688 -0.054688297 0.20010681
-0.2073159 0.041940965 -0.042550493 -0.12769258 0.21629329 0.19991536 0.2971914 -0.26427385
0.16961877 -0.14557472 -0.0147410985 -0.03281658 0.1655539 0.012358321 -0.0852912 0.16789953
0.053987887 0.109724246 -0.084786244 -0.16701569 0.22165684 -0.25527382 -0.17946225 -0.005735526
-0.040385228 -0.05206082 0.27212802 0.15918608 0.2746418 0.11908193 -0.14287019 -0.06050688
-0.19428518 -0.25452724 -0.28608337 -0.07939498 -0.0757031 0.26670492 0.1621311 0.078032896
0.018214438 -0.015936198 0.06941336 -0.04675565 0.053897914 -0.1642698 0.19617714 0.07562553
-0.036296368 -0.23575328 -0.19597761 -0.15656821 0.08802266 -0.15523317 0.15687537 -0.16269828
-0.046770137 -0.14396952 -0.08640841 0.07528926 -0.23043507 0.2546166 -0.05899732 0.13866206
-0.06772567 0.092555486 -0.16256668 -0.010384962 -0.030594418 -0.02517371 0.20843741 0.030352574
0.15370733 0.022214483 -0.1414166 -0.10528464 -0.17725302 -0.013464413 0.3062819 -0.02603993
0.0005794562 -0.5358916 0.089861766 0.2816006 0.08444883 -0.024156248 -0.1038296 -0.15903027
0.23636441 0.1558165 0.10068413 0.114695616 0.23742509 0.13399132 0.17459351 0.03210598
-0.1907881 0.25130916 -0.02369838 -0.27794793 0.020373754 0.01891486 0.020891141 -0.10326632
0.2546969 -0.0023420546 0.2986116 -0.25250667 -0.11549436 -0.09618312 -0.21591574 -0.005835753
0.24963675 -0.15072063 0.22168541 0.23285575 -0.0032961164 -0.12645434 -0.06986525 -0.04112873
0.170615 -0.21236186 0.08521891 -0.17771837 0.071884066 0.101823404 0.13123187 0.02607747
-0.009069094 -0.1837194 0.026832893 -0.15277207 0.048259947 0.15380432 0.09980039 -0.26461256
0.17229553 0.13719314 -0.17020512 0.30642852 -0.0343084 0.21959543 0.2103784 -0.21195614
0.027758297 0.03797047 0.2794029 -0.10003113 0.07204298 -0.0043479325 0.02570825 -0.10837793
-0.32827076 0.07958568 -0.07654595 -0.41412312 0.20752577 -0.0062248944 -0.028926978 -0.21020171
0.2916713 0.235945 0.19518967 0.033776723 0.09626838 0.25697508 -0.00089349144 0.14051613
0.27447635 0.024310468 -0.31792724 -0.18522057 -0.27741194 0.068893716 0.21069911 0.16075875
-0.18201092 0.07005807 0.080184706 -0.07419051 -0.108355545 0.042281948 0.105128 0.14280482
0.04291102 0.15631111 0.13286586 0.080590054 0.089722484 -0.070806004 0.07168491 -0.00055904954
0.12825136 0.0034721221 -0.021906238 0.09010256 -0.118983164 -0.100363664 -0.0052986424 -0.16419567
-0.26155865 -0.052324604 -0.09160229 0.043438807 0.1490952 0.108421244 0.021400446 0.020861758
00000000: 9b91 1ebe a56a 33bd 52d1 d03d c1d6 a73d
00000010: 8a2c e13c 3ce1 373e adbe 423e 5d89 e93d
00000020: 44f8 b33d 9aee 053d 6d84 0ebd 5bbc ec3d
00000030: 00c3 2dbd 20eb 023e 4bb7 63bd aac7 b9bd
00000040: 8121 713d 2a46 ecbd d7ee 643e 85fb 503d
00000050: 0257 bebd d830 5f3d 9da2 19bd 9a7c b1bd
00000060: d175 1cbd 07ad e03d 97ab 283e d180 1fbd
00000070: 1ef8 b1bd 177e e7bd e3f5 11bd de89 7a3d
00000080: 0ff4 c73b 986c 2abc f4b9 1fbe 6a62 533d
00000090: 9112 673e 5111 d4bd af63 063d b8fd 80bc
000000a0: f531 0e3d afec 04bc 5e88 853d 710d debe
000000b0: cfc2 e0bc 8a24 b6bd d600 60bd cde8 4c3e
000000c0: 9f4a 54be 4aca 2b3d 6d49 2ebd d8c1 02be
000000d0: fd7b 5d3e 9db6 4c3e 7929 983e e74e 87be
000000e0: 8bb0 2d3e 8a11 15be a684 71bc ae6a 06bd
000000f0: f686 293e 8e7a 4a3c 27ad aebd dbed 2b3e
00000100: 6722 5d3d 1bb7 e03d 69a4 adbd 2906 2bbe
00000110: 03fa 623e 40b3 82be f4c4 37be 14f1 bbbb
00000120: fb6a 25bd ba3d 55bd 5d54 8b3e ad01 233e
00000130: da9d 8c3e 3ae1 f33d 904c 12be 10d6 77bd
00000140: b2f2 46be 6551 82be 8579 92be d699 a2bd
00000150: 3a0a 9bbd 8c8d 883e b205 263e b6cf 9f3d
00000160: 7236 953c a18c 82bc 9728 8e3d da82 3fbd
00000170: 0fc4 5c3d 5836 28be a9e2 483e 8fe1 9a3d
00000180: 80ab 14bd 4f69 71be 5bae 48be 6b53 20be
00000190: 3945 b43d 72f5 1ebe f0a3 203e 619a 26be
000001a0: 0b92 3fbd bf6c 13be e4f6 b0bd 4131 9a3d
000001b0: 2cf7 6bbe 1b5d 823e 2ca7 71bd 6dfd 0d3e
000001c0: c2b3 8abd bb8d bd3d e177 26be b025 2abc
000001d0: 25a1 fabc 1939 cebc 9e70 553e f6a5 f83c
000001e0: 7465 1d3e 26fb b53c 83cf 10be 799f d7bd
000001f0: d181 35be d799 5cbc fbd0 9c3e b151 d5bc
00000200: a6e6 173a 3130 09bf 7209 b83d f42d 903e
00000210: 82f3 ac3d 53e3 c5bc 9da4 d4bd d5d8 22be
00000220: 8309 723e 5c8e 1f3e 7b33 ce3d 89e5 ea3d
00000230: 901f 733e 0535 093e a4c8 323e 8f81 033d
00000240: f55d 43be 98ab 803e 1b23 c2bc 314f 8ebe
00000250: dce6 a63c 56f3 9a3c e623 ab3c 4b7d d3bd
00000260: a267 823e 287d 19bb 9fe3 983e 8e48 81be
00000270: 4f88 ecbd a8fb c4bd 0419 5dbe d839 bfbb
00000280: c7a0 7f3e 8256 1abe 8001 633e bd71 6e3e
00000290: a803 58bb 3f7d 01be 8315 8fbd 9976 28bd
000002a0: b3b5 2e3e 6375 59be 4087 ae3d cefb 35be
000002b0: f437 933d ca88 d03d a661 063e 6ba0 d53c
000002c0: 8a96 14bc f020 3cbe a8d0 db3c 4870 1cbe
000002d0: 39ac 453d e17e 1d3e 2664 cc3d 4c7b 87be
000002e0: 3d6e 303e 5c7c 0c3e 404a 2ebe 33e4 9c3e
000002f0: f786 0cbd a0dd 603e 6f6d 573e 080b 59be
00000300: 5e65 e33c ec86 1b3d e60d 8f3e 1fdd ccbd
00000310: 458b 933d 1a79 8ebb 1c9a d23c 40f5 ddbd
00000320: 1b13 a8be d1fd a23d 1fc4 9cbd f207 d4be
00000330: a381 543e 33fa cbbb 45f8 ecbc 1e3f 57be
00000340: f155 953e 919b 713e cddf 473e 7659 0a3d
00000350: 5b28 c53d 3d92 833e 3239 6aba 76e3 0f3e
00000360: 2a88 8c3e bf26 c73c 5cc7 a2be 76aa 3dbe
00000370: f008 8ebe 2618 8d3d 82c1 573e f19d 243e
00000380: 1261 3abe 9b7a 8f3d e137 a43d 32f1 97bd
00000390: 83e9 ddbd d62f 2d3d 594d d73d 6d3b 123e
000003a0: 77c3 2f3d 0510 203e fd0d 083e 660c a53d
000003b0: 6cc0 b73d bd02 91bd 8acf 923d 2e8d 12ba
000003c0: 5354 033e 8b8c 633b b674 b3bc b187 b83d
000003d0: 72ad f3bd 778b cdbd 3ca0 adbb e922 28be
000003e0: 04eb 85be 5352 56bd fb99 bbbd e4ec 313d
000003f0: 69ac 183e f50b de3d fd4f af3c 47e6 aa3c

decoder.fc.0.bias f4 [64]
-0.16556215 0.15769418 0.03235462 0.10994058 0.15819344 0.10254942 0.077161655 -0.12070208
-0.24402443 0.10712538 -0.053426962 -0.22064969 -0.042466547 0.08150039 0.21126921 -0.13509703
-0.16762981 -0.04180359 0.18953533 0.1507651 -0.18578674 0.21393459 -0.23498967 -0.11481699
0.0055720853 -0.0377339 -0.18699531 -0.1309346 0.16857082 -0.020631772 0.18815187 -0.1262992
0.14535737 -0.23539431 -0.019310297 -0.26847488 -0.19584794 0.2009171 0.16474195 -0.25487855
-0.0063921884 -0.11394873 0.16716202 -0.15947391 0.056978695 -0.043418188 -0.13973387 0.13804124
-0.17264631 -0.16748393 -0.11786899 -0.0383484 -0.17856644 0.009429152 0.16862889 -0.21467459
0.025500327 0.077157564 0.030237354 0.26604018 0.007960251 0.15726572 -0.1688452 0.102549
00000000: 2089 29be 957a 213e 4786 043d 8728 e13d
00000010: 76fd 213e 6e05 d23d ee06 9e3d a732 f7bd
00000020: 8ae1 79be 8d64 db3d 3bd6 5abd fef1 61be
00000030: 67f1 2dbd ade9 a63d f556 583e e056 0abe
00000040: 26a7 2bbe 3e3a 2bbd 8d15 423e 2b62 1a3e
00000050: e13e 3ebe ab11 5b3e 22a1 70be 2c25 ebbd
00000060: 0a96 b63b dd8e 1abd b37b 3fbe b813 06be
00000070: d49d 2c3e f603 a9bc e2aa 403e 9454 01be
00000080: 90d8 143e 350b 71be a130 9ebc 8a75 89be
00000090: 5d8c 48be 36bd 4d3e 1db2 283e 717f 82be
000000a0: 9075 d1bb f45d e9bd 852c 2b3e 214d 23be
000000b0: 7e62 693d 45d7 31bd 6516 0fbe af5a 0d3e
000000c0: 32ca 30be e880 2bbe 4c65 f1bd 3613 1dbd
000000d0: 1fda 36be bb7c 1a3c 0dad 2c3e a8d3 5bbe
000000e0: 10e6 d03c c904 9e3d 54b4 f73c 6b36 883e
000000f0: b66b 023c 440a 213e c2e5 2cbe 3605 d23d

decoder.model.0.0.weight f4 [16, 16, 3, 3]
0.06923768 0.0037747459 0.042339683 0.087659895 -0.05181349 -0.22909148 -0.27565396 -0.054457434
-0.08483898 -0.025378054 -0.07404886 -0.027945017 -0.013592346 0.04092009 -0.05399381 -0.08872697
-0.002071917 0.056333404 -0.015849182 0.027651252 -0.0165476 0.014887 -0.021386832 0.050597668
-0.09593711 0.023331434 0.06982659 -0.010900372 -0.0034036427 0.005777799 -0.0019564952 -0.06940626
-0.046600256 0.08041493 -0.04160285 0.020250602 -0.054092657 0.015993433 -0.06587625 0.031679183
0.1669062 0.0074735307 0.04101772 0.020449726 -0.058006678 -0.069652066 0.07184026 0.021873288
0.007865992 0.024977779 0.19161698 -0.06362758 0.081058994 0.0026300007 0.008052663 0.06792035
0.051182866 -0.023410833 0.04705081 0.17364955 0.13305518 -0.059657 0.2867987 -0.05489924
-0.03787043 -0.0047387155 -0.014107819 0.15139684 -0.1734001 0.009321425 -0.078850955 -0.14872088
-0.007166479 -0.010521073 0.08080284 0.0378389 0.010228749 -0.13419451 -0.047989424 -0.04703723
0.27313128 -0.0047115856 0.008610529 0.03724999 -0.06400017 -0.058072418 0.1094286 -0.14104842
-0.0040022573 0.098471284 -0.06828357 0.0062785763 -0.066955015 0.016891621 0.03739468 0.193355
0.03892344 -0.0557166 -0.0928097 -0.017785998 0.025575956 0.0024614544 -0.075310096 -0.048106357
-0.050473932 0.0026063842 0.0044325297 0.04877343 0.062555715 -0.061483346 0.0363759 -0.064012304
0.05493172 0.05793864 0.070951216 -0.010354971 -0.301598 -0.04729068 0.03499912 -0.07567786
-0.0068008048 0.11936789 -0.03598306 -0.03169034 0.05044434 0.0224862 -0.057685785 0.015339644
-0.10630959 -0.0069276798 -0.08094381 -0.20541613 -0.08728135 -0.044896998 0.057759844 0.045304723
-0.046852432 -0.04840771 0.035192985 0.0056233862 0.12969707 0.055503882 0.021432772 -0.01360133
-0.02506947 0.045074843 0.03594411 -0.04281817 0.026695993 -0.09758013 0.19474697 -0.047973458
0.20568952 -0.063304946 0.015612986 0.016085831 -0.014732094 -0.032374643 0.021223862 -0.027852686
-0.2213091 -0.028561195 -0.057755776 0.020653943 0.068570256 0.015613849 0.12272174 0.030841196
-0.0362024 0.032555677 0.053947423 0.012101682 -0.11029178 0.035670966 -0.16339631 -0.05787555
0.03698254 -0.1315444 0.05484777 0.12848976 0.023847358 -0.004794085 -0.062655896 -0.033730585
-0.024609607 -0.01761894 -0.049786024 -0.056625962 0.13814111 -0.0049983733 0.024745489 0.039239984
0.011815953 -0.08051566 0.16186152 0.029212456 0.20080116 -0.03386465 0.00555078 0.100916155
0.056689292 0.06852297 0.11086032 0.038864233 -0.030471042 0.14009589 0.26111507 0.037967954
-0.02147036 -0.05969134 0.07595984 0.02251671 -0.04827828 -0.073254205 0.028220715 -0.11784969
0.05353576 -0.016845727 0.017597726 -0.0329696 0.053903338 0.00053969235 -0.026231838 0.09395948
0.078805834 0.0181501 0.020613112 0.033899996 0.031292636 0.033140086 0.019895367 0.027894605
-0.054520063 0.078133374 -0.064187065 0.14711459 -0.0689724 -0.0060945833 -0.015173293 0.123813435
-0.13975231 0.09762624 -0.09905042 -0.023477023 -0.14273714 -0.017956773 -0.09576812 0.0100675225
0.123618715 -0.045722812 -0.09727065 -0.49838847 -0.017790552 0.033155996 -0.0069194697 0.080829486
00000000: 7ccc 8d3d ba61 773b 606c 2d3d 0887 b33d
00000010: 623a 54bd f596 6abe 8422 8dbe c20e 5fbd
00000020: 0fc0 adbd a3e5 cfbc eea6 97bd f3ec e4bc
00000030: 6eb2 5ebc d39b 273d 9d28 5dbd 7cb6 b5bd
00000040: 00c9 07bb dbbd 663d 25d6 81bc e184 e23c
00000050: d58e 87bc 9be8 733c 7033 afbc 803f 4f3d
00000060: ad7a c4bd 9021 bf3c 3e01 8f3d 7997 32bc
00000070: a60f 5fbb b153 bd3b 8b38 00bb df24 8ebd
00000080: e9df 3ebd 95b0 a43d c067 2abd 97e4 a53c
00000090: 4390 5dbd a904 833c 21ea 86bd 08c2 013d
000000a0: 75e9 2a3e 85e4 f43b 3202 283d 2f86 a73c
000000b0: 6998 6dbd bea5 8ebd fc20 933d 9c2f b33c
000000c0: 5de0 003c 339e cc3c 3e37 443e 2d4f 82bd
000000d0: 4202 a63d 175c 2c3b 51ef 033c d319 8b3d
000000e0: 20a5 513d 13c8 bfbc 5ab8 403d 30d1 313e
000000f0: 9e3f 083e e65a 74bd 47d7 923e 07de 60bd
00000100: 061e 1bbd 3a47 9bbb 7b24 67bc c607 1b3e
00000110: cc8f 31be e4b8 183c 9c7c a1bd 494a 18be
00000120: c8d4 eabb 9460 2cbc f67b a53d f6fc 1a3d
00000130: 7c96 273c 496a 09be 8f90 44bd 1caa 40bd
00000140: ddd7 8b3e a563 9abb 2d13 0d3c 7293 183d
00000150: 8512 83bd 58dd 6dbd 1a1c e03d ff6e 10be
00000160: 5e25 83bb 50ab c93d 42d8 8bbd 84bc cd3b
00000170: b61f 89bd 4c60 8a3c 2a2b 193d dafe 453e
00000180: 2f6e 1f3d 1737 64bd 0313 bebd f1b3 91bc
00000190: ab84 d13c 5a50 213b 2e3c 9abd 2c0b 45bd
000001a0: c1bd 4ebd dfcf 2a3b c13e 913b a6c6 473d
000001b0: 361d 803d f6d5 7bbd e5fe 143d e218 83bd
000001c0: 1500 613d 1151 6d3d df4e 913d e5a7 29bc
000001d0: 0e6b 9abe dfb3 41bd 3d5b 0f3d fefc 9abd
000001e0: 49d9 debb 2777 f43d f962 13bd bbcd 01bd
000001f0: b99e 4e3d fb34 b83c ee47 6cbd 2153 7b3c
00000200: d8b8 d9bd 9701 e3bb dec5 a5bd 9b58 52be
00000210: 90c0 b2bd eae5 37bd 9695 6c3d 7291 393d
00000220: 56e8 3fbd 2a47 46bd 8526 103d 6244 b83b
00000230: 4fcf 043e 0a58 633d c893 af3c 1dd8 5ebc
00000240: 7d5e cdbc 66a0 383d 223a 133d 1b62 2fbd
00000250: 8eb1 da3c 17d8 c7bd c06b 473e d17f 44bd
00000260: 46a0 523e 06a6 81bd 9ccd 7f3c 6fc6 833c
00000270: e15e 71bc 469b 04bd aadd ad3c 512b e4bc
00000280: da9e 62be 2bf9 e9bc 5291 6cbd 7532 a93c
00000290: 906e 8c3d 3bd1 7f3c 8955 fb3d ada6 fc3c
000002a0: f848 14bd 1a59 053d f9f7 5c3d 2246 463c
000002b0: a8e0 e1bd b81b 123d 5d51 27be ea0e 6dbd
000002c0: 017b 173d 93b3 06be 0ea8 603d d292 033e
000002d0: 895b c33c b317 9dbb bc51 80bd 1529 0abd
000002e0: 169a c9bc 9855 90bc 6eec 4bbd a0f0 67bd
000002f0: dd74 0d3e 65c9 a3bb 0db7 ca3c 1bba 203d
00000300: b397 413c 65e5 a4bd 07bf 253e f64e ef3c
00000310: d29e 4d3e a9b5 0abd 51e3 b53b 21ad ce3d
00000320: 0833 683d c555 8c3d bc0a e33d 1a30 1f3d
00000330: 689e f9bc 4c75 0f3e e0b0 853e 4984 1b3d
00000340: 9ce2 afbc e87e 74bd d590 9b3d f774 b83c
00000350: 72bf 45bd 4d06 96bd 212f e73c 2e5b f1bd
00000360: 5048 5b3d 0d00 8abc 1b29 903c 220b 07bd
00000370: bfc9 5c3d 247a 0d3a 27e4 d6bc d46d c03d
00000380: f464 a13d 85af 943c d4dc a83c b9da 0a3d
00000390: b52c 003d e6bd 073d 9cfb a23c 3a83 e43c
000003a0: 6e50 5fbd 6404 a03d 8274 83bd 35a5 163e
000003b0: 6741 8dbd 12b5 c7bb 6799 78bc e691 fd3d
000003c0: 3b1b 0fbe 44f0 c73d f2da cabd e352 c0bc
000003d0: af29 12be 151a 93bc 1322 c4bd 40f2 243c
000003e0: cf2b fd3d d847 3bbd d635 c7bd c62c ffbe
000003f0: 7ebd 91bc 95ce 073d b8bc e2bb ee89 a53d

decoder.model.0.0.bias f4 [16]
0.052366033 0.015866598 -0.06695692 0.03846498 0.018171106 0.07690261 0.028237447 -0.05118372
-0.026978979 -0.05353252 -0.036414083 0.07863911 0.0696116 -0.06713152 -0.058293395 0.0012636378
00000000: c47d 563d abfa 813c b620 89bd 748d 1d3d
00000010: 92db 943c 1e7f 9d3d 3852 e73c 05a6 51bd
00000020: 0503 ddbc ea44 5bbd ef26 15bd 8b0d a13d
00000030: 8790 8e3d 407c 89bd 0ec5 6ebd a6a0 a53a

decoder.model.0.1.weight f4 [16]
1.1723928 1.0454743 0.98998433 0.98543566 0.95958537 0.934836 0.99875563 1.0153626
0.94402045 1.044451 0.8644692 1.0355167 1.0071783 1.0390246 0.97564644 1.0693672
00000000: f810 963f 1ad2 853f 9d6f 7d3f 8345 7c3f
00000010: 63a7 753f 6951 6f3f 73ae 7f3f 67f7 813f
00000020: 53ab 713f 92b0 853f da4d 5d3f d08b 843f
00000030: 38eb 803f c2fe 843f f7c3 793f 06e1 883f

decoder.model.0.1.bias f4 [16]
0.1184382 -0.055312254 -0.19612382 0.06333502 -0.05845548 -0.14661126 -0.1933909 -0.23668958
-0.21565562 0.02102473 -0.18474457 0.0149195725 -0.08376433 -0.023874095 0.033098176 0.06474697
00000000: ba8f f23d 1a8f 62bd afd4 48be cab5 813d
00000010: 036f 6fbd 4321 16be 4408 46be c15e 72be
00000020: d4d4 5cbe 0e3c ac3c ae2d 3dbe 3971 743c
00000030: a28c abbd 9b93 c3bc f491 073d 0f9a 843d

decoder.model.0.1.running_mean f4 [16]
-0.18511164 -0.06427948 -0.04706154 -0.033168465 -0.04124831 0.24533623 0.18048215 -0.280485
0.023615818 -0.14248982 -0.020015959 -0.028198328 -0.15880558 -0.011753814 -0.3050647 -0.059857003
00000000: e88d 3dbe f6a4 83bd 9ac3 40bd a8db 07bd
00000010: fdf3 28bd 6c39 7b3e 50d0 383e bb9b 8fbe
00000020: f675 c13c dae8 11be 82f8 a3bc 2e00 e7bc
00000030: ee9d 22be 1293 40bc 7131 9cbe 9e2c 75bd

decoder.model.0.1.running_var f4 [16]
0.040154487 0.029354583 0.015593838 0.036499612 0.02068472 0.022728428 0.023775216 0.023877177
0.019563198 0.04597692 0.030455803 0.036772028 0.03128992 0.023199154 0.036535487 0.03909566
00000000: 0879 243d 0679 f03c 4c7d 7f3c 9e80 153d
00000010: 0073 a93c f830 ba3c 3ec4 c23c 129a c33c
00000020: 0043 a03c 4b52 3c3d 737e f93c 449e 163d
00000030: dc29 003d 270c be3c 3ca6 153d c522 203d
