data/models/trial_0_emnist_autoencoder.pth (torch, 62531 bytes, 45 tensors)

encoder.model.0.0.weight f4 [8, 1, 3, 3]
00000000: c9c9 c0be 9867 a9bf 591c 2bbf b129 2dbf
00000010: 1f1c cebf c4a7 2dbf 3f6f efbe 0bc9 2bbf
00000020: ab08 39be 0d52 86bd 2b3b 75be 4e31 03be
00000030: 0452 6f3f b895 7e3f b832 a63e eb8b 613f
00000040: b573 723f 1852 7fbe d04f 5d3e 985a 333f
00000050: 1322 663f 6044 7ebe ae9b 643e 4d0a 6e3f
00000060: 0154 5cbf 4b6a f4be 3f8b 093f 3c9d 843f
00000070: a429 1f3f 7d97 34be 102f a63f 087a f73e
00000080: a25a 04bf 4e4a 7c3f cbd4 883e 7cd1 68be
00000090: e36d 343e 8376 933f 1ae3 4a3f e184 4c3e
000000a0: 055f 8a3f 80b1 4f3f 5a54 04be 9627 afbc
000000b0: 73da 933d 77ee 92be 7bee 8fbb 8ab2 013f
000000c0: 401e 6ebd 40dd eb3e a4b8 213f c6a2 033f
000000d0: 183c 843f 74f9 833f 652b 3fbe 70cc 393f
000000e0: e6a7 2a3f b624 18bf 9465 a4be 8c2f 6ebe
000000f0: 18f5 21bf 6184 0abf c587 02c0 30fa 44c0
00000100: 57d5 303f bfe4 00be f92a 5c3e badf 6b3f
00000110: 64b1 593e 3f18 42c0 57f1 023e ba31 58bf
-0.3765395 -1.3234739 -0.6684013 -0.6764174 -1.6102332 -0.67834115 -0.46764562 -0.6710364
-0.18069713 -0.06558619 -0.23948352 -0.12811777 0.9348452 0.994472 0.3246057 0.8810412
0.94707805 -0.2493366 0.21612477 0.7006011 0.89895743 -0.2483077 0.22325012 0.9298447
-0.8606568 -0.47737345 0.537281 1.0360484 0.62172914 -0.17635913 1.2983112 0.4833529
-0.51700795 0.9855088 0.26724848 -0.22736162 0.17620043 1.1520542 0.7925278 0.19972564
1.0810248 0.8113022 -0.12922803 -0.02138118 0.072194 -0.2869756 -0.0043924428 0.50663054
-0.058134317 0.46067238 0.63172364 0.5142025 1.0330839 1.0310502 -0.18668897 0.7257757
0.6666244 -0.59431016 -0.32108748 -0.23260325 -0.6326461 -0.54108244 -2.0395367 -3.0777702
0.6907553 -0.1258726 0.21500768 0.92138255 0.21259075 -3.0327299 0.12787376 -0.84450877

encoder.model.0.1.weight f4 [8]
00000000: 2a29 c63f d0ba 933f 6c97 693f fb3b ad3f
00000010: 2726 d03f 52f8 b53f c6cf 793f 0cec 563f
1.5481312 1.1541386 0.91246676 1.353393 1.6261643 1.4216406 0.9758266 0.8395393

encoder.model.0.1.bias f4 [8]
00000000: 4b5b 2d3f c048 0e3f 8d71 f5be 3cf3 fcbe
00000010: d821 103f 5267 56be 9438 683e 3a7b 8ebd
0.67717427 0.5557976 -0.47938195 -0.49404323 0.5630164 -0.20937851 0.22677833 -0.06957097

encoder.model.0.1.running_mean f4 [8]
00000000: 0867 a7bf faf9 2a3f 24c0 c23e e453 3d3f
00000010: e94a 503f 72fd 413f 66d3 1fbf d7d3 76bf
-1.3078318 0.66787684 0.38037217 0.7395613 0.81364304 0.7577735 -0.62431943 -0.9641699

encoder.model.0.1.running_var f4 [8]
00000000: 62e6 9d40 200a bf3f 2085 393f 6e98 f33f
00000010: 4a69 0340 f2a4 e23f 76fa bb3f d69a 4c40
4.934373 1.4924965 0.7246876 1.9030893 2.0533013 1.7706587 1.468581 3.1969504

encoder.model.1.0.weight f4 [8, 8, 3, 3]
00000000: 44ac 053f b3e1 c13e 6821 653e da1f 843f
00000010: f7f8 a83f f6e5 db3e 0f74 b93d 0a9e 1c3e
00000020: cc1a f6be 7f17 713e f77f 003f 2827 e6be
00000030: fff0 ac3e e2ba 6e3f c459 dcbd a3e3 08bf
00000040: 5b23 a83e 7f48 a0be 3625 f4be 750a 0dbf
00000050: fbb0 36bf dd9d 69bf 27c8 93be b47f b0be
00000060: c04e 07bf 4946 2b3f 0413 87bd 37e5 7cbe
00000070: 301c 9c3f 6c8b 2e3f b38c ff3d 910f b23f
00000080: b84c e93e 1996 303e e474 a73e 5591 913b
00000090: 4cb0 0e3f ba0b 943f 9d5f cd3e 2e42 a63f
000000a0: d9d9 cf3f 17f8 3b3e dd15 3a3f 8b3d 69bd
000000b0: 1e42 03be 57ec 4a3e 7c4e 183f cc7b 01be
000000c0: 940a f93e 7736 213f 040d 15bf cd2d 963e
000000d0: ba14 0a3e b2f5 a1bd 139f ec3e a75c 333d
000000e0: 6163 3cbf a0bd 09bf 2865 b9be a0eb f2be
000000f0: 91c7 e9be c915 45be eb23 a6bc 17f8 473e
00000100: 0d8c 36bf fc32 553f 2f14 4b3f 41a3 0ebd
00000110: 30eb 2d3f 3340 173e 713b c13f e0f0 10be
00000120: 3aec 49bf 7684 43bf bcaf 79bf 02d9 c9be
00000130: 7e0a aabf e374 37bf 35bd 97bf 1a73 80bf
00000140: 4b24 81be 9900 55bf 56a5 3abf 4e4d 23bf
00000150: e297 72bf 9288 92bf 60c7 43bf fa63 afbe
00000160: cb43 fcbe 3ca3 8ebe d7cd 1abf 2446 72be
00000170: 9f74 bfbb 784a 0bbf 6688 92be e4ce 95be
00000180: b904 ddbd 7cec 0cbe 6bbd 653e c3a1 7ebf
00000190: 2230 70be a8c9 2ebf f419 cabf a0b2 a2be
000001a0: 1fed 5ebf b8c6 17bf d80f 07bf 358b e3be
000001b0: 76fa 0abf eeaa 08bf cffd 02bf c924 bdbd
000001c0: d0c8 86bf 56e8 2ebf 01e9 49bf 4a1a 63bf
000001d0: 6332 b0be 38d5 b0be 4471 b3be 9d82 68be
000001e0: 053a 01bf 68b2 07bf 3c51 b6be 3c0f 463e
000001f0: fc03 f63e 22b3 083f c677 24bf 1c98 6abf
00000200: 9fc4 e5be efed 51bf 88ac 17bf e893 2bbf
00000210: 1452 ac3d 31bf 35bd b6ef 83be a7c0 bf3e
00000220: 8e72 083f 22aa 67bd a4c7 5a3f 8ce5 303f
00000230: 8844 313f 1f86 f7be 84dc 813e fff9 b93e
00000240: 812f 543b 714a ee3e 6a20 1f3e 6c75 203e
00000250: ab55 953f 8680 873f ec91 933e acc5 543f
00000260: 61f3 373f b259 543e 71df 683f 39db fd3e
00000270: bf4e 6e3e e0d9 923f f6cc 7e3f 72d6 6f3d
00000280: 0d01 5f3e 9289 993e 3627 db3e 8211 983e
00000290: 03a8 e7be ddcc 813e 059f 5a3e bd5e f03e
000002a0: 57c0 52bf 8edf 24bf 12f6 cd3d 14fb d13e
000002b0: 4080 8dbe 818d adbe a942 9ebe 51e9 e93c
000002c0: be45 703e e244 00bf da0c 513e 192a 093f
000002d0: 6f0c aebe 9ef1 ce3e 5224 5ebd 0e41 393e
000002e0: 0da5 c83f 2a37 a93f d113 253f 1d91 b93f
000002f0: ac28 0d3f a0a1 853e 34e8 cf3e 4803 f5bd
00000300: 907a 03be 255b 943f 3fd5 533f 66b1 3abf
00000310: ab5d d43d 583f 22be 2af2 b53e 2fc4 8d3d
00000320: 2a8e dcbd 9e60 713f cb6c 293f ef87 293e
00000330: acc4 083e 476a 983d d72b b53e 0994 c7bb
00000340: ccf9 a43e c15e ea3e 2d09 dfbe b124 10bf
00000350: d86c 54bf b0d0 d0be ce90 1fbf 523b 1b3e
00000360: 2499 e0be 0196 c93e ebd6 c83f 3763 773f
00000370: d813 9a3e 0340 06bf 9a44 543f fb24 9bbd
00000380: 7cc3 163f 7c73 dc3e 0ff4 a63e babf 753f
00000390: 3d9e c13e 155d 0fbf 90cf f33d b165 743f
000003a0: c685 11bf 0b6a 8e3e dfc7 44bf d329 fabe
000003b0: f1be 9d3f dfe1 9bbe d1b3 aabe 3570 943e
000003c0: db17 89be 94be d5be 8b18 923e bcd8 c8be
000003d0: 4800 b73e a5c8 0540 fed1 033f 326d 213f
000003e0: dfba a23f 1d60 393f 3bf2 d73e 5f1a 5fbe
000003f0: f2bc 46be ce95 203f 1600 cc3f d9a7 66be
0.5221598 0.37867507 0.22376025 1.032222 1.3200978 0.42948884 0.090553395 0.15294662
-0.4806732 0.2354412 0.5019526 -0.4495175 0.33777615 0.9325391 -0.10759309 -0.53472346
0.32839474 -0.3130531 -0.4768464 -0.5509408 -0.713638 -0.91256505 -0.28863642 -0.3447243
-0.5285454 0.6690412 -0.06595424 -0.24696814 1.2196102 0.6818149 0.12478008 1.3911
0.45566344 0.17244758 0.32706368 0.0044423738 0.5573776 1.1566079 0.4011201 1.2988946
1.6238357 0.18356358 0.7268961 -0.056943458 -0.1281819 0.19816719 0.5949476 -0.12644881
0.48640883 0.6297373 -0.58222985 0.29331818 0.13484469 -0.07908191 0.46215114 0.043789532
-0.7358914 -0.5380497 -0.3620999 -0.47445393 -0.4566007 -0.19246592 -0.020280799 0.19528233
-0.7130745 0.8328092 0.7932767 -0.03482366 0.6793699 0.14770584 1.5096265 -0.14154387
-0.7887608 -0.76373994 -0.97533774 -0.39423376 -1.3284452 -0.7166273 -1.1854616 -1.0035126
-0.25223002 -0.83204037 -0.7290853 -0.6378983 -0.94763005 -1.1447928 -0.764761 -0.34255964
-0.49270472 -0.27858913 -0.60470337 -0.23659569 -0.0058427597 -0.54410505 -0.2861969 -0.29259408
-0.107919164 -0.13762087 0.22435538 -0.9946558 -0.23455861 -0.68276453 -1.578917 -0.31776905
-0.8708057 -0.59287596 -0.5275855 -0.44442144 -0.54288423 -0.5338582 -0.5116853 -0.09235532
-1.0530033 -0.68323267 -0.7887116 -0.8871199 -0.34413442 -0.34537673 -0.35047352 -0.22706075
-0.50479156 -0.530066 -0.35608852 0.19341749 0.48049915 0.53398335 -0.6424526 -0.9163835
-0.44876572 -0.8200368 -0.59247637 -0.6702256 0.08414093 -0.044371787 -0.25768822 0.3745167
0.53299797 -0.056558736 0.8546088 0.6910026 0.69245195 -0.48344514 0.25363553 0.36323544
0.0032376947 0.4654117 0.15539709 0.15669793 1.1666769 1.0586097 0.28822267 0.83114123
0.7185574 0.20737341 0.90965945 0.49581316 0.23272227 1.147274 0.99531496 0.05855412
0.21777745 0.2998777 0.42803353 0.29700857 -0.4524537 0.2535161 0.21349724 0.4694728
-0.8232474 -0.6440362 0.100567 0.4101187 -0.2763691 -0.3389702 -0.30910233 0.028553637
0.23464105 -0.50105107 0.20415059 0.5357986 -0.3399386 0.40418714 -0.054233856 0.18091223
1.567537 1.321996 0.6448336 1.449741 0.55140185 0.26099873 0.40606844 -0.119635165
-0.12839723 1.1590315 0.8274726 -0.7292694 0.10369428 -0.15844476 0.3553632 0.06922185
-0.10769303 0.9428805 0.6618163 0.16555761 0.13356274 0.07442146 0.3538501 -0.006090645
0.3222183 0.45775416 -0.43561688 -0.56305987 -0.8297858 -0.40784216 -0.6233033 0.15159348
-0.43866837 0.39372256 1.5690588 0.96635765 0.30093265 -0.52441424 0.8291718 -0.07575413
0.58892035 0.43056858 0.32608077 0.95995677 0.3781604 -0.56001407 0.11904824 0.9546767
-0.5684475 0.2781528 -0.7686748 -0.48860034 1.2323896 -0.30445763 -0.33340314 0.28991857
-0.26776013 -0.41746962 0.2853435 -0.39227855 0.35742402 2.0903714 0.514923 0.63057244
1.2713279 0.7241228 0.42176995 -0.21787404 -0.19408014 0.62728584 1.5937526 -0.22524966

encoder.model.1.1.weight f4 [8]
00000000: 5f25 813f bb74 ee3f 5272 7c3f 7cd7 4e3f
00000010: 3aaf bb3f db01 783f ee2e f53f dc78 bc3f
1.008953 1.8629373 0.9861194 0.80797553 1.466285 0.9687783 1.9154947 1.4724383

encoder.model.1.1.bias f4 [8]
00000000: bb7b a93e a40e 463f 056c ad3e d66d b13e
00000010: addd bd3e f3f4 c63e 8bcc 0e3e da27 da3e
0.3310221 0.7736609 0.33871475 0.3465411 0.37083188 0.38858756 0.13945214 0.4260853

encoder.model.1.1.running_mean f4 [8]
00000000: da57 2341 9ed9 a2c1 aa58 6341 9486 2c41
00000010: 4067 84c1 6743 3f41 75b4 8ec1 743b 6bc1
10.208948 -20.356258 14.2091465 10.782856 -16.550415 11.953956 -17.838114 -14.702015

encoder.model.1.1.running_var f4 [8]
00000000: 36aa d142 4044 3b43 0c81 d642 f5a7 ed42
00000010: dab0 2d43 d17c f542 58c3 1243 3823 0243
104.83244 187.2666 107.252045 118.82804 173.69083 122.74378 146.76306 130.13757

encoder.model.2.0.weight f4 [16, 8, 3, 3]
00000000: 0a1a e1be b2b3 6ebe b049 cdbe f834 abbe
00000010: 71b0 28bf 54d7 24bf 2635 1d3f 4648 303f
00000020: db30 9cbe 91a1 d33d b338 63bf be0d 0fbf
00000030: d196 983e e6cb e03f 7f64 1c3f 41f5 47be
00000040: da11 c93d b7c9 683f b077 353f f27e e43e
00000050: cfff b8bc bd6c 4cbf 2d74 5bbf 7547 34bf
00000060: 046f 84bf 35b1 a6bf 1c27 c9be c49a a43c
00000070: f2e3 8a3d 2181 813e 09ef d63e 58c1 b53f
00000080: ee64 98be cec6 873f 900a 28bf fc30 743f
00000090: 13e6 e0bc eb0f 0cbf 797f 573e d7c0 f83e
000000a0: 486e e63e cd6c 8fbe 0338 5f3f e12e 2b3d
000000b0: 882f f53e e6a3 403e 33fc b63c 50ad 75bf
000000c0: 75b9 88be 4e34 c8bd 4be1 c6be 2467 26bf
000000d0: 4ebb 813e 7f33 d4bf fdc6 19bf 66ba a3bf
000000e0: f8af 4dbf 338f cb3e 6208 513f cf55 803f
000000f0: 4381 393f b01e 763f 5983 a7be d665 e4be
00000100: e9fe 7ebf 6544 44be d4fa a73b 21d4 ffbd
00000110: 1b8d 00bf 08ee 543f 2603 313f 6ddb 7abf
00000120: f853 b33e 53e1 133f a62f d7be 19de cd3d
00000130: 9bd5 ae3e 3bda e9be 5020 74bf 0d1e 0140
00000140: a3d4 4fbf 93f8 b33e 1e01 91bf ee12 c6be
00000150: 54a2 2abf 7173 bcbf c856 3f3d feaf 293e
00000160: 08d4 f2be 9142 95be b9f0 d83d c428 27bf
00000170: e37e 1abf 8c3c 1ebe f774 a5bb 44a7 353e
00000180: 5463 873e 0c05 2d3f 9e3a 58be 4229 c4be
00000190: f8a4 b93d 04ed f23e 3a9b e1be 8d8e ecbe
000001a0: 503a 133f 391b 8dbe 090c 553e 8db0 e9be
000001b0: d574 093e fa35 adba 1aa2 14be 0cf6 a33e
000001c0: b15d a4bf 08d5 ae3e 7a54 783d f1bb e8be
000001d0: 98a8 6b3e 3e89 f8bd b224 e6be 8cc8 37bf
000001e0: e1f8 5dbe 23e9 2e3f eae5 a2be 5e3c b7be
000001f0: 8ade 50bd 75ff 4ebf b73d 9ebe e5f4 6fbd
00000200: 6d6d b0be ab26 b3be 8864 24bf cdb0 b1be
00000210: 62d2 88be 7783 48bf b084 86be 5d2d 67be
00000220: 03c5 60bf ba20 343e 4d6d 7cbd abe3 b3be
00000230: 0204 65bf a688 2b3f 8581 2b3e 4d0d 97bf
00000240: 7728 c53e dd12 21bf a27a 093e f09b 863e
00000250: dd0e 693e 891e b7bf 4f17 9d3d 5239 86be
00000260: 2886 c8bc 8ebd 8a3e bc61 9b3e 2912 bebe
00000270: c477 bcbf 1768 a9bf 7cd3 b9bd 9fad 983c
00000280: 66d2 403d 1156 b8be 82f5 103f 591f 273e
00000290: 9bb3 5c3d c31b 883f 1ff3 36bf bdea 573e
000002a0: 4c28 393f 2fd0 0abf a8d1 6f3f 3a62 84bf
000002b0: bf69 ac3e f806 833e bdde 083e 8765 7fbf
000002c0: 9ca5 cfbe 7fce f3bc 6fa5 3fbf bd6e c53e
000002d0: 19b1 833e 5343 803e 3c7b b6be 5997 7cbf
000002e0: be1b 13bf 043e 1fbf 669d 04bf e621 aa3e
000002f0: b990 16bf 01bd b2be 0331 6b3f 9ba4 50be
00000300: 4bf6 ecbe 84a7 2ebe 2ec4 83bf c0f2 293e
00000310: 72e0 4d3f 709a 493e 57a3 4f3f 7633 b0be
00000320: 3191 123f 59ca 1cc0 d9d6 303e a0e0 81bf
00000330: 5422 03bf faa1 c2bd 1202 2dbf 0f3a 873f
00000340: 2c02 8ebf ff09 983e 3622 07bf fb47 e6be
00000350: 9105 b53e 4752 17bd 0065 a8bd abdf 143f
00000360: 344e c0bd 121c f5be ca4d 6cbe 3740 e8bc
00000370: 051f efbe 6b4f e83e 82b8 6bbc d26d 913e
00000380: 2a28 983f 4eb4 e0be 9771 34be 5467 ccbe
00000390: a3c5 0e3f 1149 893f 8508 eb3e 5acc e4be
000003a0: ab07 00bf 74b0 1abf 501f 3ebf 2b36 8dbf
000003b0: 6420 093e 128d 68bf dd6e 56bd ec34 2ebf
000003c0: cb01 1bbf 50d5 abbf 24d1 32bf f2bc 263f
000003d0: a492 47bf 67b9 583f 4356 b33f 0591 b63f
000003e0: 5a04 8c3f a1a1 39be cb21 2940 fb51 bb3e
000003f0: 738e 0abf d128 47bf a388 213f 21a3 6b3e
-0.4396518 -0.23310736 -0.40095282 -0.3343885 -0.6589423 -0.64391065 0.61409223 0.6886028
-0.30506024 0.10333551 -0.8875839 -0.55880344 0.29802564 1.7562225 0.61090845 -0.1952715
0.09817858 0.9093279 0.70885754 0.44628102 -0.022582917 -0.7985342 -0.85724145 -0.70421535
-1.0346379 -1.3022829 -0.3928765 0.02009333 0.06781758 0.2529383 0.41979244 1.4199629
-0.29764503 1.0607545 -0.6564112 0.95387244 -0.027453458 -0.5471179 0.2104472 0.48584625
0.45006013 -0.28012696 0.8719484 0.041792754 0.47887826 0.18812522 0.022337055 -0.9596758
-0.26703992 -0.09775601 -0.3884376 -0.6500113 0.25338215 -1.6578215 -0.6006926 -1.2791259
-0.8034663 0.3975769 0.81653416 1.0026187 0.7246286 0.96140575 -0.32717398 -0.44608945
-0.9960771 -0.19166715 0.0051263366 -0.12491632 -0.5021531 0.83175707 0.6914543 -0.9799107
0.35025 0.5776569 -0.4202854 0.100521274 0.34147343 -0.4567431 -0.95361805 2.0174592
-0.8118383 0.35150585 -1.1328466 -0.38686317 -0.66653943 -1.472273 0.04671362 0.16571042
-0.47427392 -0.2915235 0.10592789 -0.6529658 -0.60349864 -0.15452784 -0.0050493437 0.17739588
0.2644297 0.67585826 -0.2111611 -0.38312727 0.090646684 0.47446454 -0.4406374 -0.46202508
0.5751085 -0.27559832 0.20805372 -0.4564251 0.13423474 -0.0013214939 -0.14514962 0.32023656
-1.2841092 0.34146905 0.060627438 -0.45455888 0.23013532 -0.12135552 -0.4494987 -0.71790385
-0.21676971 0.6832449 -0.31816036 -0.35788244 -0.05099348 -0.80858546 -0.3090646 -0.05858316
-0.34458485 -0.3499044 -0.642159 -0.347052 -0.2672301 -0.783256 -0.26273108 -0.22575898
-0.87800616 0.17590609 -0.061627675 -0.35134634 -0.8945924 0.67005384 0.16748627 -1.1800934
0.38507435 -0.6291941 0.13425687 0.26290846 0.22759576 -1.4306194 0.076704614 -0.26215607
-0.024478033 0.27097744 0.30348003 -0.3712323 -1.472405 -1.3234891 -0.090735406 0.018637476
0.04707565 -0.36003163 0.56624615 0.16320552 0.053882223 1.0633472 -0.71464723 0.2108564
0.72327113 -0.5422391 0.93679285 -1.0342476 0.33674428 0.25591254 0.13366218 -0.99764293
-0.40556037 -0.029761551 -0.74861807 0.3856105 0.25721052 0.25051364 -0.35640895 -0.9866844
-0.57464206 -0.62204003 -0.5180267 0.33228987 -0.5881458 -0.34909824 0.9187166 -0.20375292
-0.46281657 -0.1705609 -1.0294244 0.16596508 0.804206 0.1968782 0.8110861 -0.34414262
0.57252795 -2.4498503 0.17269458 -1.0146675 -0.51224256 -0.09503551 -0.67581284 1.0564593
-1.1094413 0.29695126 -0.52786577 -0.44976792 0.3535581 -0.0369437 -0.08222389 0.5815379
-0.09389916 -0.47872978 -0.23076549 -0.028350933 -0.46703354 0.4537309 -0.014387252 0.284041
1.1887257 -0.43887562 -0.17621456 -0.39922583 0.5577032 1.0725423 0.45904937 -0.44687158
-0.500117 -0.60425496 -0.7426653 -1.1032156 0.13391262 -0.90840256 -0.05235182 -0.680495
-0.6054961 -1.3424473 -0.69850373 0.6513206 -0.7795813 0.846579 1.40107 1.4263006
1.0938828 -0.18128063 2.6426876 0.36585984 -0.5412361 -0.77796656 0.63099116 0.23011447

encoder.model.2.1.weight f4 [16]
00000000: 706e e53f 1e49 2f3f f8f3 3b3f 611e d83f
00000010: 9664 ee3f 0be4 123f 09e4 023f 94f1 4b3f
00000020: c2b0 6f3f c032 8d3f 09d1 6e3f 57cb 373f
00000030: ea18 5d3f b174 de3f 22c5 ab3f e45a 0640
1.7924328 0.6847094 0.7341914 1.6884271 1.8624446 0.57379216 0.51129204 0.79665494
0.93629086 1.1031113 0.9328771 0.71794647 0.8636614 1.7379361 1.3419535 2.0992975

encoder.model.2.1.bias f4 [16]
00000000: 2523 f6bd 5b40 e83e f7c4 533f f3d6 b1be
00000010: b320 72bf 3cce a63d e0d3 6d3e f569 8e3e
00000020: 7027 d73c 9185 d63e 001f 613f 9de9 1f3e
00000030: 2ddd c03e fd4f af3e 48bf 8ebe 819c 07bf
-0.12018422 0.453616 0.8272242 -0.34734306 -0.94581145 0.08144805 0.23225355 0.27815214
0.026263922 0.41898778 0.8793793 0.1561646 0.37668744 0.34240714 -0.2788031 -0.5297318

encoder.model.2.1.running_mean f4 [16]
00000000: dfbd e43f 105f 31c1 4bfa 0cc1 d24e 9240
00000010: b633 50c0 0663 b0c0 c307 8bbf 210b 6641
00000020: d20f e8bf 1fa0 20c1 0d9f 0dc1 975b e23e
00000030: 1119 5c40 06ab 0141 848c 1fc0 f384 e540
1.7870444 -11.085709 -8.811107 4.5721216 -3.2531562 -5.512088 -1.0861744 14.377717
-1.8129828 -10.039092 -8.851331 0.44210503 3.43903 8.104254 -2.4929514 7.172479

encoder.model.2.1.running_var f4 [16]
00000000: 0d75 a342 28fc f141 1781 1d42 9069 6c42
00000010: 0a63 b042 8b9a d641 9f80 8441 3535 2c42
00000020: 52bc d441 c498 b142 12b8 3442 1b34 c741
00000030: 2b0a 2442 5560 9d42 2090 7f42 d3e0 6f42
81.728615 30.248123 39.376064 59.10309 88.193436 26.82546 16.562803 43.05196
26.591953 88.79837 45.179756 24.900442 41.00993 78.68815 63.890747 59.969555

encoder.model.3.0.weight f4 [16, 16, 3, 3]
00000000: f286 0ec0 7142 de3e a245 153e f240 a03e
00000010: 207e c2be be12 adbe cd94 d03e 7de8 963d
00000020: 5790 aabf 62e8 b83d ea05 89be b06a 83bb
00000030: 3ce0 cbbe a53e 21bf f7f2 8d3e 53a0 5b3e
00000040: 37b1 5abe 9d88 7d3f 32f8 f9bf 41d8 12be
00000050: 60d4 05bf 4af4 823f e954 dfbe 3a11 cebe
00000060: fbac a63f 0381 95bf a6d6 c93d 0441 24c0
00000070: ff0d 9cbe 3b08 b23d 0b98 063f 877a 803e
00000080: 5ea2 bfbe 472f 573f b8c9 a33e 8077 8abe
00000090: 2baa 32c0 4606 f03d a098 c93b 4734 443d
000000a0: b24a d4be 86bc 26be aed2 b6bf d4d2 043e
000000b0: 3b2e 6bbf aa46 61c0 bfd0 5f3e 1b64 8b3d
000000c0: b991 f33e e28f fcbe 3029 013e 764b 823e
000000d0: 81fc 203f d9e3 93bf f522 313f c314 b2be
000000e0: 8c4a 86bf 2c50 0e3f aa11 1fbf cf8d 04bb
000000f0: 0eaa 0c3d 2290 40be 1d23 0cbd e0a0 a3be
00000100: c83d cbbf 46db 153e 6471 8cbe a48e 79bf
00000110: a286 b63d f0bc 923f 10fb cdbe f293 3e3f
00000120: cef8 e1bf 509c 5b3c a296 dc3d 64ab c9be
00000130: dfcd 26be 01fd db3d f9fb 82bf 62b1 003f
00000140: c50a 89bf 4846 edbf 6fe3 39be fe5c 02be
00000150: 6a50 3ebf 3537 aa3d 5bac 8abd 6564 06be
00000160: 73bc abbe 9ef0 ba3f f140 ea3f 2e96 0cbf
00000170: f91a e9bd 9993 75bf 50cd 5b3e cc28 e53e
00000180: 210f 643e 52c9 84be 502d 85bf 9e3c 1dbf
00000190: 50f7 a9be 5320 3cbe 793a 3b3e 51f0 2dbf
000001a0: a97b e03d 5101 eebe 27dc aa3d 9246 cfbd
000001b0: 137a e7be d774 bbbf aae1 9abe 8414 8fbf
000001c0: 2f32 18bf c4a0 94bd f0cf 95be b813 d93c
000001d0: db36 003f 2096 913f 7e23 65be 334b cabe
000001e0: 23cf 593e 6422 843c ad06 76be c275 7d40
000001f0: 61e5 17be a4df e5be 75cc cbbf 9b03 22bd
00000200: 1df3 15bd 695a 183f bdc3 dd3e ea0c cb3e
00000210: d645 513e 7322 923f c844 41bd 610f 1ec0
00000220: cf67 debd c628 ac3d 35ba 5cbe 7ee2 f0be
00000230: bf4f 0b3e 602c e4be 408b 58be 455e ba3d
00000240: 5817 0bbf 3c32 183f 2f41 a0bf eea8 423f
00000250: 9161 57bd ce9e 9ebd d790 053f c2b4 00c0
00000260: 03ae 543f ac1c d9be 48ca 6cbe e763 7fbe
00000270: 6c83 333e 8721 653f 9379 733f 9349 4ebe
00000280: c7c6 9b3f 73bf 293e 1bd4 d1be bc4c 863e
00000290: 2e2c c1bd b19c 12bf d89e 88bf 47d2 5fbe
000002a0: fcbb 6e3f d5fa ff3e 7e52 31bf 23d4 dabd
000002b0: a73a 663f de7e 963f 3cf0 be3c eb35 65bf
000002c0: 5688 86bc cea6 15bf 499f 4abf b570 a83f
000002d0: e4fb a73c 6cfe 363c fc8a aabe a224 80be
000002e0: 334d 76bf a5bc 4f3f 1029 4d3f 797f 353c
000002f0: 278d b93f e788 46bf fc1d dabe c163 43bf
00000300: 1e83 2d3f 80a3 7fbf 6b1c 123e 1fa2 4ebe
00000310: 697e 92bd 83a8 2fbf 44e9 36bf 8303 dd3d
00000320: 82de b03f 5e58 543f d4c5 8abe 5224 52bf
00000330: 1550 153f 7913 1f3f 9a96 c5be 5e52 0e3e
00000340: 4630 eabe 838f 703d 6288 c7be ee98 01be
00000350: b64b b43e f387 8fbe 3550 3cbd 85d6 c9bf
00000360: d19e 033f e439 ae3e 1db6 f6bd 7d23 4abe
00000370: 2c1f 1abf 46d2 943f 367d 873e 41fe 063f
00000380: a05f 39be b779 71be 2217 8e3d f5a1 553e
00000390: 2e43 bdbd e633 593e 4424 b0bf 1db5 303f
000003a0: f79d 2c3e 4941 a03d 2ad9 dd3e 7984 edbb
000003b0: 76dc dd3e 54e2 24be dd0b 52be a064 903e
000003c0: 7a50 f7bd 197d 57be ea5b 23bf bf8d 5abf
000003d0: 83b6 d1be e38d 4d3d 562a e1be bf09 35bf
000003e0: 5086 d53f 3c3d 3f3b 2e6e 9dbe cd2e ae3e
000003f0: 1113 0ebf 1a32 8bbd fc9a 433e 7185 3a3f
-2.2269864 0.43410066 0.14577344 0.3129955 -0.3798685 -0.33803362 0.40738526 0.07368562
-1.3325299 0.090286985 -0.26762325 -0.004010521 -0.39819515 -0.6298621 0.2772443 0.21447878
-0.21356665 0.9903658 -1.9528868 -0.14340307 -0.52277184 1.0230801 -0.4361947 -0.40247518
1.302154 -1.1679996 0.09855394 -2.5664682 -0.30479428 0.08692976 0.5257575 0.2509348
-0.37428564 0.84056515 0.31989837 -0.27044296 -2.7916362 0.117199466 0.0061522275 0.047901418
-0.41463238 -0.16282853 -1.4283044 0.1297105 -0.9186742 -3.519938 0.21856974 0.06806203
0.47572115 -0.49328524 0.12613368 0.25448197 0.6288529 -1.1553909 0.69193965 -0.34781465
-1.04915 0.5559108 -0.6213633 -0.0020226126 0.034341864 -0.18804982 -0.034213174 -0.31958675
-1.5878229 0.14634427 -0.2743026 -0.9748328 0.08912398 1.1463909 -0.40230608 0.74444497
-1.7654054 0.013403967 0.107709184 -0.39388573 -0.16289471 0.10741616 -1.0233146 0.50270665
-1.0706412 -1.8537073 -0.18153165 -0.12730786 -0.7434145 0.08311311 -0.067711554 -0.13124235
-0.33542213 1.460468 1.8301069 -0.54916656 -0.11382098 -0.9592834 0.21465039 0.44757688
0.22271396 -0.25934845 -1.0404453 -0.6142062 -0.33196497 -0.18371706 0.18284024 -0.6794482
0.10961086 -0.4648538 0.08342772 -0.10120882 -0.45210323 -1.4645032 -0.30250293 -1.1178136
-0.59451574 -0.07257226 -0.29260206 0.02649866 0.500837 1.137394 -0.2237682 -0.39510497
0.21270423 0.01612968 -0.24025984 3.9603124 -0.14833595 -0.44897187 -1.592177 -0.03955422
-0.036608804 0.59512955 0.433134 0.3965829 0.20436797 1.1416763 -0.047184736 -2.4696887
-0.10859644 0.084062144 -0.21555407 -0.470478 0.1360464 -0.44565105 -0.2114687 0.09100012
-0.54332495 0.5945165 -1.2519892 0.76039016 -0.05258328 -0.07745133 0.52174133 -2.0110326
0.8307802 -0.42404687 -0.23124039 -0.24940453 0.17530602 0.89504284 0.9510738 -0.20145254
1.2170037 0.16576938 -0.40982136 0.2623042 -0.09432255 -0.5727034 -1.0673475 -0.21857558
0.9325559 0.49996057 -0.692665 -0.10684993 0.89933246 1.1757467 0.023307912 -0.895354
-0.016422432 -0.5845765 -0.791493 1.3159395 0.020505853 0.011169057 -0.33309162 -0.2502795
-0.96211547 0.81147224 0.8014078 0.011077755 1.4496201 -0.77552646 -0.42601 -0.7632409
0.67778194 -0.99858856 0.14268653 -0.20179032 -0.07153017 -0.68616503 -0.71449685 0.107916854
1.3817904 0.8294734 -0.27104056 -0.8208667 0.5832532 0.6213909 -0.38591462 0.13898608
-0.45739955 0.058730613 -0.3897124 -0.12655994 0.35214013 -0.2803341 -0.04597493 -1.5768591
0.5141421 0.34028542 -0.12046454 -0.197401 -0.60203815 1.162667 0.26462716 0.5273171
-0.18102884 -0.23581587 0.06938006 0.20862563 -0.09241329 0.21211204 -1.3761067 0.69026357
0.16857134 0.07824952 0.43329746 -0.007248458 0.4333226 -0.16101962 -0.20512338 0.2820177
-0.120758966 -0.21043815 -0.63812125 -0.8537254 -0.40959558 0.05018414 -0.43977612 -0.70717996
1.6681614 0.0029180786 -0.30748123 0.3402008 -0.55497843 -0.067966655 0.1910209 0.72859865

encoder.model.3.1.weight f4 [16]
00000000: 1a6f 853e ef56 383e 6566 f43d 671e 333e
00000010: 6f6a 423e eab7 8d3e 2bc2 b53e 1844 323e
00000020: 038b 3c3e fc2e 763e 3dca 9b3e fd63 e63e
00000030: ccd5 713e 854a 3e3e 2970 743e 2872 663e
0.26061326 0.18001913 0.11933593 0.17492066 0.18985914 0.27679378 0.354997 0.17408788
0.18412404 0.2404136 0.30427733 0.4499816 0.23616713 0.18583114 0.2387091 0.22504485

encoder.model.3.1.bias f4 [16]
00000000: 9da2 44bd 0f84 6ebd c67b 7e3c 04c4 a03d
00000010: 47f5 aa3c 6f8b bdbd 998a 30be a3f2 173d
00000020: 0bf5 e9bc 1858 5f3d 7967 31be 535a 7cbe
00000030: 8872 b7bd 7f49 de3c 0907 96bc 4c01 893d
-0.048006643 -0.05823141 0.01553244 0.07849887 0.02086891 -0.092551105 -0.17240371 0.03709663
-0.028559228 0.054527372 -0.17324628 -0.24643831 -0.08957392 0.027134655 -0.018313901 0.066897005

encoder.model.3.1.running_mean f4 [16]
00000000: b174 06c1 2b8f 3c3f dfb5 eac0 7223 a7c0
00000010: d26b dbc0 cb01 aec0 fa03 4dc0 be30 81c0
00000020: 70f0 e5be 88d6 f4bf 2370 11c1 9bfa 0bc1
00000030: 307b a3c0 7c34 f3bf a31d c3c0 024e 21bf
-8.403489 0.73655957 -7.334701 -5.223077 -6.8569117 -5.437719 -3.2033677 -4.0372
-0.44910002 -1.912797 -9.089877 -8.748683 -5.1087875 -1.9000392 -6.097368 -0.63009655

encoder.model.3.1.running_var f4 [16]
00000000: 6d64 d442 5afa 0342 f152 4c41 ed64 fb41
00000010: 4d2b 5242 617d 6942 22ce 8642 eb42 5842
00000020: d262 0042 2131 8a42 17c7 fd41 248c cc42
00000030: f739 4a42 aef7 a642 b450 5e42 b34b f642
106.196144 32.994484 12.770249 31.42428 52.542286 58.37244 67.4026 54.06535
32.096504 69.095955 31.722212 102.27371 50.556606 83.48375 55.57881 123.14785

encoder.fc.0.weight f4 [16, 64]
00000000: 71da 0c3f 08d7 75bd 6203 a6be 3130 dabe
00000010: 964e 16bf 3de5 12be 8882 023e 11d9 c53d
00000020: dc83 f43c 38f3 c1be 450f db3d 9950 163f
00000030: 618a ddbe f9f1 d13e 8237 5dbe 8d28 763f
00000040: 9f7c 873f afb0 b43e 467b 573e 501b 8abe
00000050: 4a2b ccbe 659d 2dbb 2418 f4be 2821 b2be
00000060: 98df 343f a0b4 173f b993 6d3f e9b6 943e
00000070: 7ca5 15be 7107 493e bdaa 843d 5dad 173f
00000080: 2a7f 043e cae8 863e 953b b6be 62e4 3fbf
00000090: cce8 143e 07bb 28bf 9f86 8cbf e22f e2be
000000a0: 8d21 2b3f 55a0 353d 6c82 cfbf c5bc 2d3f
000000b0: 089c e93e 7c60 cf3d bb3a c13e 3efd 5a3e
000000c0: 9d2b bc3e 7209 f8bd 055c 813d 4764 293e
000000d0: 50b2 0bbe bb1c e53d b638 9abc c095 b03e
000000e0: 8253 b33e d729 ecbe d89e 81be 87a6 2e3e
000000f0: ff89 fcbe 6705 04bc 5d26 a03d 17bc 8a3e
00000100: b388 eb3d fb44 ae3d bcbc babe 3718 f8be
00000110: 5bf3 883e 63e9 a1bd 37ab 1cbe 182b 2bbf
00000120: 1c2f e03c 3b04 52be f8ed 7c3e e322 3a3e
00000130: 67d6 773e 1c14 983c edf8 753e 5da1 f1be
00000140: f5e8 d7be 3bc0 97be 8611 1d3e 1178 243f
00000150: bf12 ecbe 4858 febe 7716 eb3d e384 1dbf
00000160: 71bf bbbe b4d0 ce3e 7e2c c93d 0449 69be
00000170: 5f35 49be 4b31 a03d db61 f83c 1b8d e8be
00000180: f492 90be 6f64 d63d 1fc3 e93e 3cd9 9cbe
00000190: e2c9 fb3d b5ab f5be 4f78 8e3d ba34 4ebe
000001a0: 3bec c53c cad4 49bc 650e 623f 29e6 8b3f
000001b0: f918 963d 2ed1 e1bc d031 703d cb0a 4d3e
000001c0: 5338 50be 836a 96be d1ab 8bbe f4fb 713e
000001d0: 8aa3 47be 325e 583d c7a3 683d 6c98 aa3e
000001e0: 3b93 f0bd 5bb8 4abe 45bf b4be 5278 8ebe
000001f0: 6daf b63e 0a84 5e3e 9d33 2f3d 5de0 3ebe
00000200: 8d9f bd3e 4eb4 6d3e beec a9bd 3118 263f
00000210: c8de 81bf 6260 1b3e 0359 30bf fc33 2f3e
00000220: 16e2 4e3f 2e40 a4bc 844d af3e 045e b2be
00000230: 6c6e f3be 7814 3dbe a64e d03e 1b0f 1fbf
00000240: ed4b 933f 998d 243b 69cb c33d e784 5ebf
00000250: fd19 24bf af36 a0be b46c a1be 98e5 9a3d
00000260: 1ac4 053f b073 8fbd 9d05 28bd feca b9bd
00000270: db95 86be d26c f0bd eb8c 473e f8a0 a73e
00000280: 353a 75be 2476 4b3e 5c44 563e 013f 7e3d
00000290: ac82 673d fbfa 8bbe 8597 8abe e597 603e
000002a0: aeac a23e 204d 33be 82c5 203e 1985 a4bf
000002b0: 7b13 1cbe 0994 3dbd 4122 92be b6c4 e2be
000002c0: a7ef 003e 2578 813e 0bb1 61bd bc14 143e
000002d0: 1977 e8bc a46d 073c a485 233e bf92 73bc
000002e0: 95ed a93d 5b1c 63be 8e2f 87bd 772a 59be
000002f0: b3c1 b1bd 270f 08bf 149d c33d 4517 20bf
00000300: bb31 013c 4238 373c 56a0 5dbe a811 cc3e
00000310: 371b 46bf 64f0 84be f51a 323e b2f1 c33d
00000320: a005 493f 2ac6 c03e ad3f 153e df3e a73e
00000330: 9447 f8bd 1b13 103d 710a c83d 18d3 f03e
00000340: c3f9 563e 80d9 8d3f fc8b 40ba 1616 373f
00000350: 5879 d93b e278 d43e 3fc5 c2bd 10b5 cc3c
00000360: a2be 7c3e bba3 17be d634 9e3e 66cb 8fbe
00000370: efd2 b2be 3546 d7be 4ec0 c93d 7df6 003f
00000380: 4fb0 503e 7ba0 05be 54a1 993e e807 ad3d
00000390: 7b0b 153d 02ec 273f ca3e 683e 49c8 2b3d
000003a0: 377b ae3d 4fea 6a3e 3eea a03e ea22 f1be
000003b0: a551 9abe a5c4 b53d 0c36 09be 8223 2cbe
000003c0: 8bea 4f3e 0788 e03e 65e8 82be 7dfd 7abe
000003d0: be97 ebbd 040d 7f3e b241 7ebd f278 a8be
000003e0: 6ca7 803e f53b 2b3f 01d1 1bbe f001 37bf
000003f0: 1b26 c0be 39f8 a2bb ae34 56be 37ed 05bf
0.55020815 -0.060019523 -0.32424456 -0.42614892 -0.5871366 -0.1434526 0.12745106 0.09660543
0.029848032 -0.37880874 0.10696272 0.5871673 -0.43269637 0.41004923 -0.21603206 0.96155626
1.0584906 0.3529105 0.21043119 -0.26973963 -0.39876777 -0.002649152 -0.47674668 -0.3479092
0.70653677 0.59259987 0.9280353 0.290458 -0.14613909 0.19631745 0.06477878 0.59248906
0.12939134 0.2634948 -0.35592332 -0.7495786 0.1454193 -0.6591038 -1.0978583 -0.44177157
0.6684807 0.044342358 -1.6211677 0.67866164 0.45626855 0.10125825 0.3774012 0.21385667
0.36752024 -0.121111766 0.063163795 0.16542159 -0.1364224 0.111871205 -0.01882587 0.3448925
0.3502465 -0.4612567 -0.253165 0.17055713 -0.49324033 -0.008057929 0.07819817 0.27096626
0.11500683 0.08509251 -0.36472118 -0.48455974 0.26748165 -0.07905843 -0.15299688 -0.6686263
0.027366214 -0.20509426 0.24700153 0.1817737 0.24202882 0.018564276 0.24020739 -0.47193423
-0.4216992 -0.29638848 0.15338716 0.64245707 -0.46108052 -0.49676728 0.11478894 -0.61530894
-0.36669496 0.40393603 0.09822939 -0.2278176 -0.19649266 0.07821902 0.030320099 -0.45420155
-0.28237116 0.10468375 0.45656678 -0.30634487 0.122943655 -0.47982565 0.06956541 -0.20137301
0.024160495 -0.012318799 0.88303214 1.0929614 0.07328982 -0.027565565 0.058641255 0.20023648
-0.20333986 -0.29378137 -0.27279523 0.23631269 -0.19495979 0.052824207 0.056796815 0.33319414
-0.11746832 -0.19796889 -0.35302177 -0.27826172 0.35680714 0.21730056 0.04277383 -0.18640275
0.3703579 0.23213312 -0.08297108 0.64880663 -1.0146112 0.15173486 -0.6888582 0.17109674
0.8081373 -0.020050135 0.34238827 -0.34837353 -0.47545183 -0.1846484 0.40685004 -0.62132424
1.1507546 0.0025108813 0.09560282 -0.8692154 -0.64102155 -0.3129172 -0.31528246 0.07563323
0.5225235 -0.070044875 -0.04102098 -0.09071921 -0.26286206 -0.11739506 0.1948735 0.32739997
-0.23947985 0.19869286 0.20924515 0.062071804 0.056521103 -0.2733992 -0.27068725 0.21932943
0.3177237 -0.1750989 0.15700343 -1.2853118 -0.15241806 -0.046283755 -0.2854176 -0.44290704
0.1259142 0.25286976 -0.055100482 0.14461035 -0.028377103 0.008265886 0.15968949 -0.01486653
0.08297268 -0.22178786 -0.06600867 -0.21207605 -0.08679523 -0.5314812 0.09551445 -0.62535506
0.007885392 0.0111828465 -0.21643195 0.3985722 -0.77385277 -0.25964653 0.17393096 0.09567584
0.7852421 0.37651187 0.14575072 0.32665154 -0.121230274 0.03517447 0.097676165 0.47036052
0.20993714 1.1082001 -0.0007345078 0.71518075 0.0066367798 0.41498476 -0.09510278 0.024988681
0.24682096 -0.14808552 0.30899686 -0.28084868 -0.34926555 -0.4204575 0.09851132 0.5037611
0.20379756 -0.130495 0.30005896 0.084487736 0.0363879 0.65594494 0.22680202 0.041939054
0.08519595 0.22940944 0.31428713 -0.4709695 -0.30140415 0.088753976 -0.13399523 -0.1681042
0.20304315 0.4385378 -0.25567928 -0.2451076 -0.11503552 0.24907309 -0.06207437 -0.32904774
0.25127733 0.6688836 -0.15216447 -0.7148733 -0.37529072 -0.004973438 -0.20918533 -0.52315086

encoder.fc.0.bias f4 [16]
00000000: 2b2e 67be 05cf a63e 4321 903e ffc1 ffbc
00000010: a1b3 a3bb 0b60 d9bc b97c 8ebd ebf4 e0bd
00000020: 384f 513e 5ea7 c93e a3d2 943d 6f63 6dbd
00000030: b36b 15be 277c 21be e2a3 3a3e 6d97 f13c
-0.22576205 0.32579818 0.28150377 -0.031220434 -0.0049957787 -0.026535055 -0.06957383 -0.109842144
0.20440376 0.39385504 0.07266738 -0.057956155 -0.14591865 -0.15770017 0.18226579 0.02949115

decoder.fc.0.weight f4 [64, 16]
00000000: 5dfe 72bf 5740 2a3f aacd 22c0 2bd0 dabf
00000010: 50b0 953f 0cc6 dabe e933 ecbf 3535 8abf
00000020: 7d68 433f d45b b3bf 97a0 9ebf 1918 5e3d
00000030: e4ad e9be 0ea2 6e3f 9645 cdbe 88c5 ae3d
00000040: fb7e 4e3d 2489 6d3f db50 fb3e b09a 113f
00000050: e026 873d a650 f1be 3774 783c cbd6 20bf
00000060: a4ab cabe 34bd 543f d5d8 133f e774 f2be
00000070: 86d2 47be 92c4 1ebf a6bf 423f 5a7f 25be
00000080: 751b 323e 2935 35bf a690 303e 4aaf 0e3f
00000090: d563 0dbf 0f55 1b3e a574 bb3f edea 373f
000000a0: 5921 3abe b98f acbe 9227 70bf 60c7 97be
000000b0: f46d d33e fe93 34bf a3ce afbe ac4c 57bf
000000c0: 92c7 0bbd a811 ce3b a65c 45be 8947 013e
000000d0: 82ef 94bd 7183 f7bd 6a39 6cbe 3b09 6f3d
000000e0: 2cad 1b3e 70e8 153e cbef a7bc a348 07bc
000000f0: 9f27 85be 9dc6 5cbd 1686 093d 475b 6abd
00000100: ce5a 463f 2503 c0bf 4c85 c23f e072 5bbf
00000110: 3444 b7be 6e7c 0c3d e554 af3f 7d3d 0bbe
00000120: d1d3 27be 1bc9 ab3e 560b 9e3f 7f8b 01bf
00000130: d7df f23e 171f c93e e970 2bbd 658a 3cbc
00000140: b210 dc3c 3d16 e4be b93e 45bf b24b 593f
00000150: 0916 d53e e660 1bbf 58b7 fb3d 1f06 b33e
00000160: d82f c5be 3486 a6be ffa6 6d3e fe3d cdbe
00000170: a53e 963e 6e39 aa3e 02b2 723e e10a 02bf
00000180: fdc2 6ebe 28db 48be c382 20bd 7ea5 4fbe
00000190: c5fc e4bd 8a6d 903d b71e c9bd 8139 8f3e
000001a0: 1319 873d 83be 5bbf 0bf0 b8be 07e5 d03d
000001b0: 4c84 c1bd f7f9 7f3e 5a8a edbe 7b48 87bc
000001c0: 84a5 f0bd 9b23 c33e 119d b8be f378 61bf
000001d0: 11f3 cd3e 9f4c 6dbe 090e 193f adae f6bc
000001e0: e292 8bbf 6ac7 d73e be5d 1bbd d211 07be
000001f0: e825 7d3f 9de0 8c3c ce0d 193e 4fc7 983e
00000200: 26f4 58bf e04d 4b3f b779 9e3d b35b e7bf
00000210: 1472 693d d989 e1be 770c 3c40 fef3 b43e
00000220: 8e6b cabf a9dc aa3f fb55 bf3f 81b3 86be
00000230: 1800 ba3f 3eb1 b9bf 0ee0 97be 4491 8f3e
00000240: 550f 083e 44f6 d53d 7260 8dbc 51a0 9ebd
00000250: 2ae4 b23e a58d 6c3e fbc8 1bbf bac1 02bf
00000260: 88ae 15be b2d6 28bf da07 6f3f d8d8 f7bf
00000270: def4 f43e 4c32 d2bd 1176 95bd a79f ca3e
00000280: 6710 cbbd 3413 f4be 6779 773f 8c1b 313f
00000290: 32fa 65bf a6fa 0b3f e32a 313e 223e ad3d
000002a0: 6226 cf3d 8ded 7c3f 1ad4 1fbf c9a1 8bbd
000002b0: ddeb 24bf b2ae e8be bf20 7e3f 1d20 29be
000002c0: 54ea bfbe 7031 8f3f bb20 b0bd 0db3 bcbe
000002d0: 7cdc 1fbe 2635 6f3f d644 0fbf 8570 9c3e
000002e0: 29a1 223f 9d98 2e3f c186 a83d 5165 68bf
000002f0: 1311 8c3e ef15 4d3e 32fd 863e a802 65bf
00000300: f69d 94be 2b0e 863f 3ddb 2bbf 2b17 c9be
00000310: c452 783d b36a dabc a451 443f 3011 bbbd
00000320: 8a41 af3e 9610 193f 9cb9 b1bf 7533 e03f
00000330: 4c90 f8be f577 b93e 9dbb 28bd 9bcf 55bf
00000340: d782 adbc eb22 33bf 16c4 a13e 9ab2 87be
00000350: d17b a93e 2808 19bf d402 3abf 08fa 1abc
00000360: 92e9 4a3e 40e9 283e 0f30 d2be b262 b7be
00000370: 7bdc 1fbf 4d1f 24be 9862 ef3e 8a23 f4bd
00000380: 6abf f0be 73df 05be 1dbd 833f 4f57 273f
00000390: 88f0 6a3e ea61 a43e c456 eebe 0056 1e40
000003a0: fb83 233f 3b7a e1bd 5989 ebbe 7c17 fa3d
000003b0: 349c 87bf 30b0 7f3d 99dd 16bf e305 5dbe
000003c0: ed25 173f 27aa e2be 5e9e 0abf 889a 3d3f
000003d0: 6237 d5be 7978 f6be e167 afbe 53b6 d7be
000003e0: 25b0 9fbf d476 4fbf c9c1 f4bd a848 993e
000003f0: eec9 fcbe 6777 cf3e 6623 68be caf0 22bf
-0.9491938 0.66504425 -2.5438027 -1.7094778 1.1694431 -0.42729223 -1.8453342 -1.0797487
0.7633131 -1.4012399 -1.2392758 0.0542222 -0.4564048 0.93216026 -0.40092152 0.0853377
0.050414067 0.92787385 0.49085125 0.5687666 0.06599212 -0.47131842 0.0151644265 -0.6282775
-0.39584076 0.831012 0.57752734 -0.47354814 -0.19513902 -0.6201869 0.7607368 -0.16161862
0.17393287 -0.7078424 0.17242679 0.5573622 -0.55230457 0.15169166 1.4644972 0.71842843
-0.18176784 -0.33703402 -0.9381038 -0.296443 0.41294825 -0.7053832 -0.3433734 -0.84101367
-0.034125872 0.006288726 -0.19273624 0.12624945 -0.07272245 -0.12085617 -0.23068777 0.058358412
0.15202779 0.14639449 -0.020500084 -0.008257064 -0.2600679 -0.05390035 0.03357514 -0.057215955
0.77482307 -1.500096 1.5196929 -0.8572216 -0.35794222 0.034298353 1.3697783 -0.13597675
-0.16389395 0.3355187 1.234721 -0.5060348 0.474364 0.39281532 -0.041855726 -0.011507605
0.02686343 -0.44548216 -0.7704883 0.84881127 0.41618374 -0.6069473 0.122908294 0.34965608
-0.38513064 -0.32524264 0.23208235 -0.4008636 0.2934467 0.3324694 0.23700717 -0.5079785
-0.2331657 -0.19614851 -0.039187204 -0.20277974 -0.111810245 0.07052143 -0.098203115 0.2797356
0.065965794 -0.8583757 -0.36120638 0.101999335 -0.09449062 0.24997698 -0.46394616 -0.016514054
-0.117503196 0.38113102 -0.36057332 -0.8807518 0.40224507 -0.2317376 0.5978704 -0.030112589
-1.09042 0.42144328 -0.037931196 -0.13190392 0.98885965 0.017196948 0.14946672 0.2983956
-0.8474754 0.794157 0.07738059 -1.8074859 0.05699356 -0.44050482 2.9382608 0.353424
-1.5814073 1.334859 1.4948114 -0.26308826 1.4531279 -1.4507215 -0.29663128 0.28040516
0.13287099 0.10447362 -0.017257903 -0.07745422 0.349397 0.23100908 -0.60853547 -0.51076853
-0.1461736 -0.659526 0.93371356 -1.936305 0.4784307 -0.102634996 -0.0729791 0.3957493
-0.09915238 -0.476709 0.9666962 0.6918266 -0.8983489 0.54679334 0.17301516 0.084591165
0.10114743 0.98799974 -0.62433016 -0.068179674 -0.644224 -0.45445782 0.99268717 -0.16516156
-0.37483466 1.1186962 -0.08599993 -0.36855355 -0.15611452 0.93440473 -0.5596441 0.30554596
0.6352716 0.6820162 0.08228827 -0.90779597 0.27356777 0.20027898 0.26365048 -0.8945718
-0.29026765 1.0473074 -0.67131406 -0.39275488 0.060625806 -0.026662206 0.76687074 -0.09134138
0.3422969 0.59790933 -1.3884768 1.7515703 -0.4854759 0.36224332 -0.041194547 -0.83519906
-0.021180553 -0.69975156 0.31594914 -0.2650345 0.33102277 -0.5977807 -0.72660565 -0.009459026
0.19815663 0.16495228 -0.4105229 -0.35817486 -0.624458 -0.16027565 0.4675491 -0.11920841
-0.47021037 -0.1307352 1.0292088 0.653676 0.22943318 0.32105953 -0.46550572 2.473999
0.6387326 -0.11009642 -0.46003225 0.122115105 -1.0594544 0.062423885 -0.5893188 -0.21584277
0.59042245 -0.4427044 -0.541479 0.7406392 -0.41643816 -0.48138788 -0.3425894 -0.4213129
-1.247563 -0.8104069 -0.11951024 0.29938245 -0.4937281 0.40520784 -0.22669753 -0.63648665

decoder.fc.0.bias f4 [64]
00000000: 4014 15be f1a9 0abf 895a 723f 76e9 f8be
00000010: c902 d0bd b864 053f 3f62 6c3f 040b 833f
00000020: 1584 c6bf 21d3 673e 4da5 80be db76 eebe
00000030: d8cc acbd bb06 a33e 8661 35bf 9eea 583f
00000040: c1c9 323e e9d3 d73f 84a4 853e 8e6a 0ebc
00000050: 9809 f93e 79aa 41be 4adf 4e3f eacc 353f
00000060: bda0 ac3d 65c1 1cbf f651 b83e c8ad 743f
00000070: f13c 0fbf 9f80 14bf 03d4 64be b6b2 7c3f
00000080: 08d1 28bf 0728 57bf d7c1 9a3f 0434 adbe
00000090: a758 5b3f 1b95 8d3f d666 c1be a851 463f
000000a0: 2821 2e3f 7531 563f eb9d 6f3f 6723 87bd
000000b0: 6474 073f b56a 253f 95e1 1d3f 6a26 80be
000000c0: 4497 04c0 f2b6 7dbe 0c11 19bf 870a df3e
000000d0: fdf4 a9bf c8ce 6c3f f787 a03e 11c4 2a3f
000000e0: dbe8 50bf 7e9c 7b3f e048 b23e 4ca1 1d3f
000000f0: 0084 183e b325 6e3e 1be0 8f3f 3454 d9be
-0.14558506 -0.5416556 0.94669396 -0.48615617 -0.10156781 0.5210681 0.9233741 1.0237737
-1.5509058 0.22639133 -0.25126114 -0.46575055 -0.08437508 0.31841072 -0.70851934 0.84733
0.17459776 1.6861545 0.26102078 -0.008692397 0.48640132 -0.18912686 0.8080946 0.710158
0.08429096 -0.61232597 0.3600003 0.9557767 -0.55952364 -0.5800876 -0.22346501 0.9871019
-0.65943956 -0.8404545 1.2090405 -0.33828747 0.8568215 1.1061128 -0.3777377 0.7746835
0.6801934 0.83669215 0.9360034 -0.06598549 0.52911973 0.64615947 0.61672336 -0.25029308
-2.0717325 -0.2477682 -0.59791636 0.4356272 -1.327789 0.92503023 0.31353733 0.66705424
-0.8160531 0.98285663 0.34821224 0.61574244 0.14894104 0.23256569 1.1240267 -0.42447054

decoder.model.0.0.weight f4 [16, 16, 3, 3]
00000000: c282 c7bd 269b 6a3f b822 213e 69ce 2abf
00000010: c0b1 5dbe d6d1 2d3d 303d f7bf ee97 cbbe
00000020: c88f 843e 6e7e aebd 2b70 b8bf 125b 21bf
00000030: 2639 edbf 5081 d03e 7bee f93e 6c67 303f
00000040: 06b1 25bf f977 2bbf 5ed2 703c 28bb 9cbe
00000050: 348a ab3f f372 073f 34a7 153f a72c 23bd
00000060: 83ed a33f 1e9f edbd 0a4e 5ebe c74d 8b3d
00000070: b7d1 70bf 491c a73f 12f2 463e 087c 84bd
00000080: 9728 233f 723c 30bf da61 ea3d 138e b1bf
00000090: 6613 57b9 ffc9 b63f b5ba b4bf 1498 a63f
000000a0: 5aff 54be db01 0b3f 47e2 45bf f487 b63e
000000b0: b1f5 803b 05e3 85bc a995 57be c7d5 38be
000000c0: 00eb bebf 0ed0 74bf 50c0 943b 34db 69bf
000000d0: ff54 0abf ca47 553e 8bbc 923d cea6 11bd
000000e0: 90d9 1c3f d548 5ec0 e53a 83be 8b3a 68bf
000000f0: f917 193f c97c 14bf 3ef7 a9bd f609 503d
00000100: 6601 873f e708 053f 5d06 303f 9a87 ad3f
00000110: ae3b 2a3f 4bdf 94bf 8dce 923e 0a31 aa3e
00000120: 2df3 d73d 1ceb 8f3d 0ab6 dfbe cb11 3b40
00000130: a53d 6fbf 4160 b93d d84e 9dbf c88d 47bb
00000140: 8479 0abe 14a6 c23d 5a50 c7bf 0599 d4be
00000150: 0b1e 8d40 37b0 89bf 90bf 02bf f6d7 2040
00000160: 0722 45bf 3696 c53f 4853 d6bd e7eb 18c0
00000170: c182 ac3e da19 973f aa97 5fbe 0008 dc3d
00000180: e619 a33e d480 44bf 952b 6e3e 7e7c a8bd
00000190: 0f85 263f 142d 123f 465b 1940 d5d7 c93e
000001a0: 0e7e a5bf 90fc 2d3f 05b8 153f a320 063f
000001b0: 5e08 9b3d 9aa1 b0be 44c6 1c3e bd1f 1140
000001c0: 0d96 3cbf ea48 b2bd c6fc 4c3f 835f ab3e
000001d0: 8d39 37be ce82 1b3e d3f3 373f 7b47 bcbe
000001e0: a7fe 1140 c52b ed3e 0db4 663e 670b e5bf
000001f0: d2d1 993e 5629 a5be 7b5c b9bc 46a2 2b3e
00000200: 30ac 01c0 c755 873f 22a9 953e 39cb b13e
00000210: 1593 1c40 1caf 373e a016 583f 9049 0a3d
00000220: b66e c8bf 0511 1fbf a7d9 3640 25dd 6bbf
00000230: 4056 1a3d 78a7 2abf f6d1 a2be 0255 813d
00000240: 7e19 44bf e85b 633e ce5b 813f f026 143f
00000250: b01f 833f cb25 273e 5026 f83e 5c13 c73e
00000260: 606b 6dbd ce92 46be 810d e7be 2148 9cbf
00000270: 0b15 003f 32ca ae3e 3916 bd3e 9ac8 eabc
00000280: b720 b8bf 864b 28bd ba79 1d3e 0596 663f
00000290: 2c6b 133f b72c 0b3e b0c5 ea3e 8b39 793e
000002a0: 336b 10bf c870 163e bdf1 e23e 176e 45be
000002b0: 7ef9 86be ab76 473f c506 133f 18de 8cbe
000002c0: 0f4c 863f efa1 7bbd e0b0 583d dd1a 97bd
000002d0: 324a 9a3f 6bb0 b53d efc2 083f d43b 513f
000002e0: d325 af3e bc14 4abf 0397 be3e 9ecf 9a3e
000002f0: 4ca6 a53e 69d5 4cbf c63d 513e b3b0 843e
00000300: 1e01 75bf f489 c83b f651 cc3e 1cb3 c6be
00000310: 4e76 aabe e474 66bf 2d55 133f 18b8 8c3e
00000320: 64f6 4d3e c1b4 9e3e 22ff 26be a177 3a3d
00000330: 8339 033d 08f9 383e bb40 963d af63 4a3f
00000340: 3a5e 873e 7135 e1be 8fd0 7bbf 8cf1 9a3e
00000350: e46b 473d 5c52 773e ffef 2e3e e32a 163e
00000360: a445 4e3e 505f 413f b3cd c9be 195c 603e
00000370: 95d1 b23f 74fb 8dbd 5338 013e e581 88bd
00000380: efc1 893e 46dc 4c3d caab 0bbf af98 5bbf
00000390: 6ca9 86be f030 1bbf 80ac f6be b0fe adbf
000003a0: 98f1 853f 6070 ce3e 5dde 9c3e 1146 d4be
000003b0: 5611 47bf 4f50 0dbe 5d22 7e3e c295 933d
000003c0: 0cb6 3b3d 3a34 a23f 1862 ed3e 44d2 21bf
000003d0: 0e79 08bf bd62 883e 5571 0bbf 4b22 02bf
000003e0: e0bf 1dbf b8c0 3a3f 1656 463f 0ba8 803f
000003f0: 019e 0b3f b3de b7be 3d3e 16bf 4e8e bcbe
-0.09741737 0.9164299 0.157359 -0.66721207 -0.21649837 0.042436443 -1.9315548 -0.3976435
0.25890946 -0.08520208 -1.4409231 -0.6302959 -1.8533065 0.40723658 0.4881476 0.6890781
-0.6472324 -0.6697994 0.014698593 -0.3061154 1.3401551 0.52909774 0.58458257 -0.039837506
1.2806858 -0.11602615 -0.21709457 0.06801944 -0.9407 1.3055507 0.1942828 -0.064689696
0.6373381 -0.6884223 0.11444445 -1.3871483 -0.00020511224 1.4280394 -1.4119478 1.301516
-0.20800534 0.54299706 -0.77298397 0.356506 0.0039355387 -0.016343603 -0.21053185 -0.180503
-1.4915466 -0.95629966 0.004539527 -0.913501 -0.54035944 0.20828167 0.07164868 -0.035559468
0.61269474 -3.4731953 -0.2563087 -0.9071433 0.59802204 -0.5800291 -0.08299111 0.05079075
1.0547302 0.5196671 0.6875971 1.3557007 0.66497314 -1.1630644 0.2867321 0.3324054
0.10544429 0.070272654 -0.43693572 2.922961 -0.9345344 0.09051562 -1.2289686 -0.0030449498
-0.13522917 0.09504333 -1.5571396 -0.41522995 4.4099174 -1.0756902 -0.5107355 2.5131812
-0.77005047 1.5436466 -0.104651034 -2.3893983 0.33693507 1.1804764 -0.21835199 0.107437134
0.31855696 -0.76759076 0.23258813 -0.0822687 0.6504678 0.57100034 2.396196 0.3942248
-1.2929094 0.67963505 0.58483917 0.5239355 0.07569955 -0.34498292 0.15310007 2.2675622
-0.7366646 -0.087053135 0.800732 0.33471307 -0.17893048 0.15186617 0.7185642 -0.36773285
2.2811677 0.46322456 0.22529621 -1.7894105 0.30042893 -0.322581 -0.022627106 0.16761121
-2.0261345 1.0573052 0.292306 0.3472536 2.4464772 0.17937893 0.84409523 0.03376156
-1.5658786 -0.62135345 2.8570344 -0.92134315 0.03767991 -0.6666179 -0.31800812 0.06315042
-0.766014 0.22203028 1.0106142 0.57871914 1.0244045 0.1632301 0.4846673 0.38881958
-0.05796373 -0.19391939 -0.4512749 -1.2209512 0.5003211 0.34138638 0.36931017 -0.028660107
-1.4384984 -0.04108765 0.15378466 0.9007266 0.57585406 0.13591276 0.4585395 0.24338357
-0.56413573 0.1469146 0.44325057 -0.19280277 -0.26362222 0.7791545 0.57432204 -0.27513194
1.0491961 -0.06143373 0.052903056 -0.07378171 1.2053893 0.0887154 0.53422445 0.81731915
0.34208545 -0.7893789 0.37224588 0.30236524 0.32353437 -0.8001314 0.20433721 0.2591606
-0.9570483 0.006119961 0.3990628 -0.38808525 -0.33293384 -0.9002211 0.5755184 0.27484202
0.20113522 0.3099728 -0.16308263 0.045524243 0.03203727 0.18063748 0.07336565 0.79058355
0.26439077 -0.43986085 -0.9836511 0.3026241 0.048686877 0.24152511 0.17083739 0.14664797
0.20143753 0.7553606 -0.3941475 0.21910132 1.3970209 -0.069327265 0.12619142 -0.066654004
0.26905772 0.050014757 -0.54559004 -0.8577985 -0.26301134 -0.6062155 -0.48178482 -1.359335
1.0464354 0.4032011 0.306384 -0.41459706 -0.7776083 -0.13800167 0.24817796 0.072062984
0.04582791 1.2672188 0.46363902 -0.63211465 -0.53309715 0.2663783 -0.54469806 -0.50833577
-0.61620903 0.72950315 0.77475107 1.0051283 0.5453797 -0.35912094 -0.5868872 -0.3682732

decoder.model.0.1.weight f4 [16]
00000000: f688 873f 2d17 c13f ab11 a33f 5b8c 973f
00000010: 21d5 c13f ee1e 9c3f 3b06 b93f 7679 b13f
00000020: e99c 9d3f 9d3a 8f3f fc4f 9a3f 591b 953f
00000030: 4595 9c3f 016c 833f ce27 893f fc4a ac3f
1.0588672 1.5085198 1.2739767 1.1839708 1.5143167 1.2196939 1.4455026 1.3865192
1.231351 1.1189762 1.2055659 1.1648971 1.2233053 1.0267335 1.0715272 1.3460383

decoder.model.0.1.bias f4 [16]
00000000: 4eb9 f0bc baed 903e 2e9e 1dbf 4c60 4f3e
00000010: 2081 3fbf 5302 22bd b85e 1c3e 1ef6 c9be
00000020: fe6a 703e 558c 52bc 5343 0d3e b9c8 fa3e
00000030: f3b8 5c3e 1661 7a3c 58dd ed3d 9037 e53d
-0.029385235 0.2830637 -0.6156949 0.20251578 -0.74806404 -0.039552998 0.15270507 -0.39445585
0.23478314 -0.012850841 0.13795213 0.48981264 0.21554928 0.015281936 0.116144836 0.11192238

decoder.model.0.1.running_mean f4 [16]
00000000: 4a58 113f a314 04c0 d36e 6d3f 507c ce3f
00000010: 144c a2be f865 2dbf 6dfd 4f3f 3110 fb3f
00000020: 98e9 c93f f664 39c0 fc5b c6bf 076b 04be
00000030: 3fbe b4bf 5a71 853f 1893 4c3e 415d 2bc0
0.56775343 -2.0637596 0.9274723 1.6131687 -0.31698668 -0.67733717 0.8124607 1.9614316
1.5774412 -2.8967872 -1.5496821 -0.12931453 -1.4120559 1.0425217 0.19977987 -2.6775668

decoder.model.0.1.running_var f4 [16]
00000000: 8ff6 5240 9beb 1941 a3db 6240 b3c6 a940
00000010: 985e cc40 428d 5540 6a42 be40 7a4b 8840
00000020: 4976 6240 85cb 8040 11d4 aa40 1064 9140
00000030: 0420 b640 87bf 0f40 fb90 9640 5584 9340
3.2962987 9.620021 3.5446556 5.3055053 6.386547 3.3367467 5.945607 4.2592134
3.5384696 4.0248437 5.338387 4.5434647 5.691408 2.246065 4.705198 4.609904
